dataset/US-11461654-B2/US-11461654-B2_claim_emb.npy (npy, 27776 bytes, 1 tensors)

array f4 [9, 768]
000000 dc e0 71 bd e4 d6 eb bc 15 f4 40 bc a4 ab f0 bc
       -0.059052333 -0.028788991 -0.011776944 -0.02937872
000010 15 96 3c bc 5e 2b 9c bc fa 04 57 3d 87 3c af 3c
       -0.011510392 -0.019063648 0.05249498 0.021391166
000020 f5 2d 01 bd b0 b8 63 3d 97 13 0a 3c 94 c6 79 3c
       -0.03153797 0.055596054 0.008427522 0.015245099
000030 c8 fe 2e 3b 77 e0 8b bb c9 cd 83 3b d0 0f 76 bd
       0.0026702154 -0.0042687017 0.0040223342 -0.060073674
000040 5a 05 16 3d e3 64 c8 3b b0 a1 f2 3b ad a9 8e bb
       0.036626197 0.0061155423 0.0074045286 -0.004353723
000050 22 9e f6 bb 9b d5 5c 3c bf 1f b4 bc f5 26 0c 3d
       -0.007526175 0.013478662 -0.021987794 0.03421684
000060 ea 1b 64 bd 05 9b 10 bd dd 76 5f bd a0 a3 b3 bc
       -0.055690683 -0.03530409 -0.054556716 -0.021928608
000070 97 df 0e bd 1d 24 cc bd f1 59 bf bc 30 04 ba 3d
       -0.0348812 -0.099678256 -0.023358317 0.0908283
000080 f5 97 fb bc 7b 27 31 bd b3 de 26 36 7e 76 e6 3c
       -0.030712107 -0.043250542 2.4865556e-06 0.028132673
000090 f6 d2 85 bc 3e dc 7c 3c e7 b1 fc 3c ab c2 64 3d
       -0.016335946 0.015433369 0.03084655 0.055849712
0000a0 8b c0 d5 bc 61 3f 31 bd d4 fd af 3b 3c 74 1e 3c
       -0.026092788 -0.043273333 0.005370835 0.009671267
0000b0 a3 6c 65 bc cb a3 56 3c 43 fb 48 bb 51 db a7 3c
       -0.014002952 0.013100575 -0.0030667342 0.02049032
0000c0 05 fa 84 bb cb 5e 14 bd 9a 35 7f bc 72 c7 4d bc
       -0.004058125 -0.036223214 -0.015576744 -0.0125597585
0000d0 89 69 20 bd 53 22 4f bc 25 0a 52 3d 7f 3e 2e bd
       -0.039163146 -0.012642461 0.051279206 -0.04254007
0000e0 09 bc 28 3c d0 63 8e bc 4f f9 d0 3c c5 27 3b bc
       0.010298737 -0.017381579 0.025509505 -0.011423056
0000f0 dd b8 83 bc 43 e6 33 3c b7 25 d0 bc 61 1f 33 bd
       -0.01607936 0.010980192 -0.025408609 -0.043731097
000100 9e fc 21 3d 86 0c 79 bc bd b5 0c bd 3d ea 44 bc
       0.039547555 -0.01520074 -0.034353007 -0.012018737
000110 10 27 bf bb 31 97 a8 3b 98 f4 95 bc 87 9e c8 bc
       -0.005833514 0.0051449765 -0.018305108 -0.024489654
000120 bd 54 13 bb f7 40 ad 3d 18 b5 e9 bc a8 12 e7 bc
       -0.0022480928 0.08459657 -0.028528735 -0.028207138
000130 c0 46 bc bc c7 b2 f8 3b ba 91 58 bc 3c 25 1b bc
       -0.022982955 0.0075896713 -0.013218338 -0.009469327
000140 eb ed e1 3b 71 35 e0 3c 7b 18 5d 3c f7 9a 90 3d
       0.006894817 0.027369233 0.013494606 0.07060807
000150 76 bb 6d 3d 65 0f 98 3d 64 2f 04 3d 90 45 9b bd
       0.058040105 0.07424811 0.032271758 -0.07581627
000160 14 83 36 3c be fb 51 bd b2 04 68 bd 91 83 81 bc
       0.01113965 -0.05126547 -0.056645103 -0.015809806
000170 90 b2 63 3d 13 58 37 3d 03 89 74 bc fa 6a a2 3b
       0.055590212 0.04476173 -0.014925244 0.0049566003
000180 1c 3d 3a 3d 2c 0c a7 bd f8 53 90 3c e7 3d 6e bc
       0.045468435 -0.081566185 0.017618164 -0.014541126
000190 e2 0f 08 3d 82 2a 58 3b ab 2d 95 3c 9c 9f 35 3d
       0.033218272 0.003298432 0.018210253 0.04434167
0001a0 6e bb 63 bc a7 55 3a bd 97 17 da bb cf fa 60 3c
       -0.013899667 -0.04549184 -0.006655644 0.013731672
0001b0 ab c2 08 3c 26 af 78 3d 82 3c 92 bd 3d 99 0b ba
       0.008347194 0.06071391 -0.07140447 -0.00053252635
0001c0 5c 0b 84 bd bc 4c 39 bd bd 24 4a bc 45 10 6e 3c
       -0.06447479 -0.045239195 -0.012337861 0.014530246
0001d0 e4 a3 87 bd 99 61 57 3b 2e 97 65 3c 54 19 d2 bc
       -0.066230565 0.003286457 0.014013095 -0.025646843
0001e0 c8 e1 2e bd 4b 2a 06 3d 13 2c 77 ba e8 cf ea 3c
       -0.04269579 0.032755177 -0.000942887 0.02866359
0001f0 95 e3 16 3d 8e 8b 64 3c ea e0 c3 bd 9d 7f c6 3b
       0.036838133 0.013949288 -0.09564383 0.006057693
000200 ac 63 97 bc 85 3d df 3c d2 a9 3b bd 02 af f0 bc
       -0.018480144 0.027251014 -0.04581625 -0.029380325
000210 85 fe 66 3c 26 3d 32 bc cd f4 1b 3d 8c cf 07 3d
       0.014098768 -0.010878837 0.038075257 0.033156916
000220 06 cd e6 bc da be 2c bc 0b f3 5e 3d 80 a4 1c b8
       -0.028173935 -0.010543549 0.054431003 -3.73465e-05
000230 c3 00 c2 3c ce b4 44 3d 90 45 af bc c6 fb 7b 3c
       0.023682004 0.04802399 -0.021395475 0.015379852
000240 08 9c 07 3d df 78 3d 3b 4a 45 9f bb 55 e6 96 3b
       0.033107787 0.0028911156 -0.004860555 0.0046050944
000250 3e 4c 95 bc b6 c8 de bc a9 12 7d 3d 24 19 80 3d
       -0.018224832 -0.027195316 0.061785374 0.06254795
000260 c0 8f 53 3c be 4d 13 3d e7 76 9a 3d d9 2b 17 3c
       0.012912691 0.035962813 0.0754221 0.009226763
000270 88 e6 ce bc 7f f9 d9 ba 20 91 8b 3c 51 98 04 3d
       -0.02525641 -0.0016630142 0.017036974 0.032371823
000280 9f 82 65 3d 69 e3 3e 3d e3 ab c8 3c 8f fa 23 bb
       0.056032773 0.046603594 0.024496024 -0.002502117
000290 44 71 ad bc 0a fc 3e 3d b6 f6 02 bc 0c a7 c0 bd
       -0.021172173 0.046627082 -0.007993391 -0.09406862
0002a0 b7 a3 15 bc ee f1 19 3c 4f 39 44 bd 42 33 47 bc
       -0.009133271 0.009396059 -0.047906216 -0.012158217
0002b0 cf 43 2c bb 93 ac 06 3d 79 f1 a9 bc 8c 26 c2 3c
       -0.0026285534 0.032879423 -0.020745026 0.023700021
0002c0 8c 94 20 bc 6e e2 af 3b 40 74 d4 3b 58 ba b6 bd
       -0.009801041 0.0053675687 0.0064835846 -0.08922261
0002d0 28 14 e1 3c 80 35 04 bd 01 b1 9e 3d b4 f0 60 3d
       0.027475432 -0.032277584 0.077486046 0.054917052
0002e0 8b fe 13 3d e2 e6 59 bd 7c 8b 26 3d 4e 56 27 3d
       0.036131423 -0.053198703 0.040660366 0.04085379
0002f0 96 be 0a bd 18 d9 fb bb 27 e2 4f 3c 90 f9 d3 3b
       -0.033873163 -0.0076857917 0.012688196 0.006468959
000300 53 89 ea 3c fc 13 f2 bc da 85 6b bc 05 23 7d bc
       0.028629934 -0.029550545 -0.014375174 -0.015450244
000310 7c 11 42 bc c3 6d 35 bd b6 4c 39 3c b2 f3 10 bc
       -0.011844989 -0.04429413 0.011309793 -0.008847164
000320 ab 65 bc 3a f3 73 29 3d 41 85 73 3d 90 ed 66 3d
       0.0014373561 0.041370343 0.059453253 0.0563789
000330 d2 3c 66 3d 3f c7 34 3b a1 30 1a 3d 02 89 2e bd
       0.056210347 0.002758458 0.037644032 -0.04261113
000340 a5 3e d4 3c f5 22 25 3d c4 cd 87 bd 34 61 9b bb
       0.025908777 0.04031654 -0.066310436 -0.004741812
000350 bb d7 ea bc c5 f4 2a 3d d4 d0 aa 3c f6 08 9f 3d
       -0.028667321 0.041737337 0.02085153 0.07765381
000360 a4 c8 e8 ba 7d e7 43 bc 01 ac 86 bc a2 cd 7f bc
       -0.0017759991 -0.011957047 -0.01643944 -0.0156129915
000370 ee 21 be 3c d8 18 f1 3c d1 ce 89 3d d6 5e 1d 3d
       0.023209538 0.029430792 0.067289 0.03842052
000380 60 9a a5 3b ff cf 48 bd 62 8f 19 bd d9 a3 52 3d
       0.0050538033 -0.049026486 -0.037490256 0.05142579
000390 cd f6 7e 3d f2 fc 9e 3c 66 92 0b 3d 41 6e 39 3c
       0.062247086 0.019407723 0.034075163 0.0113177905
0003a0 92 d9 d0 3b 7e 80 14 bd 70 4e 9a 3c 71 60 05 3d
       0.0063735927 -0.036255352 0.01883623 0.032562677
0003b0 3c fc 17 3d 15 92 71 bc 55 ad ea bc f8 93 48 bd
       0.037105784 -0.014744301 -0.028647104 -0.04896924
0003c0 56 67 ea 3c 21 08 20 3d 68 78 dc bb e9 cc 4a 3c
       0.028613728 0.039070252 -0.0067282207 0.012377956
0003d0 a6 83 0f bc 3d 8e 49 bc ca 1e 2b bd e7 b9 65 3a
       -0.008759415 -0.012301979 -0.04177741 0.00087633583
0003e0 0c 8d dc bc 5d 13 14 3c 68 49 43 3d 1d 32 71 bc
       -0.026922725 0.00903782 0.047677428 -0.014721421
0003f0 2b 65 3b bc 85 f2 9d bc 49 38 0a bc c1 63 06 bd
       -0.011437695 -0.019280681 -0.008436271 -0.032809976
