dataset/US-11461654-B2/US-11461654-B2_abstract_emb.npy (npy, 3200 bytes, 1 tensors)

array f4 [768]
00000000: 640a 78bd b753 9abc 4264 53bc 4c42 e1bc
00000010: e4a4 8abc 96f6 b7bc 83db 553d 06d2 df3c
00000020: acf9 02bd a004 813d a3c7 a83a 849e 893c
00000030: 2540 cf3b 5a44 afbb 8225 843c c1e2 81bd
00000040: c6a5 0e3d 8007 5e3c 7e2d 853c a198 043b
00000050: dbdd c9bb 7955 273c c461 d7bc 4564 113d
00000060: 5377 62bd 7f4a 03bd 2415 5bbd 8329 a2bc
00000070: 1253 02bd b8b7 dbbd 2e26 b6bc 2578 b03d
00000080: 968c f5bc 386f 37bd 460d 2836 9a50 023d
00000090: cf12 68bc c555 c33c 8134 263d 6d6a 6d3d
000000a0: 4753 fabc 2f7c 1ebd cde0 1e3c 8f6c db3b
000000b0: 6a6a a2bc 28ad f33b 2458 df3a 3dc1 133d
000000c0: f15f 72bb 14cd dcbc 069f 6cbc 7c84 2fbc
000000d0: 8c7e 16bd 4826 3bbc d506 5d3d 8693 3dbd
000000e0: 81a4 963b b780 08bd 1ba8 bc3c 3db2 a2bb
000000f0: 7ae5 9ebc 57be f03a fbe4 98bc 9ff5 44bd
00000100: 8539 f03c d785 8cbc 5119 24bd 98ad 88bc
00000110: 37c3 4dbb 164d d33a 3dd7 9ebc beca e6bc
00000120: 6212 f3ba 2ef4 ab3d a22c 0fbd 2b0b 25bd
00000130: cf0f c3bc 1547 79b9 c7d5 27bc 42b8 20bc
00000140: b5d0 1c3c b225 fe3c b9fc 293c 2069 833d
00000150: c85f 893d 4c7e 9c3d b5e0 063d 164c 99bd
00000160: 6cb6 f43b 73d2 3cbd 9cec 63bd 3684 59bc
00000170: d66b 6c3d 7e8e 2b3d ce10 3bbc c4c9 c33b
00000180: 3332 123d 17d1 87bd 2803 b83c 7733 3cbb
00000190: b839 293d a53e f63b 5719 8a3c a244 273d
000001a0: 338c a1bc 52a5 3abd 1e87 5cbc db22 933c
000001b0: 17a3 473c 8982 833d e0f5 99bd 3acc 3a3a
000001c0: a3d7 85bd 4cbf 1fbd bbf4 4abc da38 ba3b
000001d0: 1a4c 87bd ea6c 84ba 9667 443c f9ab d5bc
000001e0: 7ece 13bd 48f5 153d 53eb a13b 0ccd e43c
000001f0: fcd1 113d c407 ab3c 3d69 bbbd 4df9 013c
00000200: c069 fabc 43e6 0c3d 532e 41bd a72e c7bc
00000210: 3982 443c 1831 39bc f068 063d 59d1 e23c
00000220: f97a e4bc 5103 3bbc 9dbd 3f3d 8414 4ebb
00000230: 4998 c43c 56d8 3c3d 277a d9bc 9a1d 883c
00000240: 46c6 1e3d 084a e339 3697 51bc 52d3 81bb
00000250: 4673 8abc e8de a6bc e061 803d 018d 813d
00000260: 5c70 3a3c 5190 143d db7f 893d 0fbd 003c
00000270: 00a2 e8bc cb98 ef39 acb8 9e3c 15a3 dc3c
00000280: 50d9 563d 9925 323d 176c b93c 08ef 393a
00000290: 4c0e b1bc c7fd 243d ca74 9bbb 836e d2bd
000002a0: 75ea 55bb 7f8e 46bb b173 31bd 52b7 6cbc
000002b0: 9825 0dbb e44a fb3c e8a3 7dbc 1df4 c33c
000002c0: e255 61bc dcaa b13b 2a3d 663b 72f6 adbd
000002d0: 3a72 013d a002 0abd e253 973d 0262 4e3d
000002e0: 9101 123d 0bf5 49bd 3fc7 183d f493 163d
000002f0: 7ac6 04bd 623c 30bc 625c 793c 32c8 563c
00000300: 8abc f63c 5b47 afbc 86ab 0dbc 91b3 9bbc
00000310: 73a5 b9bc dd06 3bbd 7547 1a3c 6c0c 58bb
00000320: d882 89bb 5cbb 3d3d 653b 853d 104e 4c3d
00000330: ffa9 513d b0c7 a1bb 0f27 313d 4798 32bd
00000340: 9a6a 123d 69eb 2a3d 11f2 85bd 24a4 d83a
00000350: 6c94 d7bc cc81 3b3d 15a9 5a3c 63a4 ab3d
00000360: f5ec ecbb 7793 81bc 652f b3bb 5267 8ebc
00000370: c823 b03c 229e f53c f7a1 8d3d c3e8 213d
00000380: ed62 11bb 0840 46bd fc2a 20bd 5fdc 353d
00000390: 3b6e 763d 657c b03c 5983 133d 84fb 553c
000003a0: 74f9 2e3c 8aae 30bd ec90 d13c 3164 023d
000003b0: b413 2d3d f6d7 08bc 76e5 e1bc 8297 67bd
000003c0: d51f 143d b423 063d ac84 5ebc bd71 8a3c
000003d0: 0a2d e4ba 365e ebbb 371b 2bbd 91b0 783b
000003e0: f5f1 adbc 7cbe f93b 84e1 5f3d 2f72 74bc
000003f0: 2675 5bbc a3cf 66bc b76d c6bb e215 0cbd
-0.060556784 -0.018838746 -0.012902321 -0.027497433 -0.01692433 -0.022456449 0.052211296 0.027321827
-0.031976387 0.0629971 0.0012876879 0.016799219 0.0063247853 -0.0053487243 0.016131166 -0.06342078
0.034826063 0.013551593 0.016257044 0.0020232575 -0.0061604804 0.010213249 -0.026291735 0.035496015
-0.055289578 -0.032053467 -0.05348696 -0.019795185 -0.031817503 -0.10728401 -0.022235002 0.08616666
-0.029974263 -0.0447838 2.5041677e-06 0.03181515 -0.014164641 0.023844609 0.040577415 0.057962824
-0.030557288 -0.03869265 0.009697151 0.006696291 -0.019826133 0.0074364133 0.0017039818 0.03607296
-0.0036983455 -0.026953258 -0.014442211 -0.010712739 -0.03674178 -0.011422701 0.053961594 -0.046283267
0.004597247 -0.033325877 0.023029378 -0.0049650953 -0.019396532 0.0018367273 -0.018663874 -0.048085805
0.029324302 -0.017153664 -0.040063206 -0.016684338 -0.0031396875 0.0016120996 -0.019389743 -0.028172847
-0.0018544907 0.08396183 -0.034954675 -0.040293854 -0.023811249 -0.0002377297 -0.01024384 -0.0098095555
0.009571244 0.031023834 0.010375195 0.064165354 0.06707722 0.07641277 0.03292914 -0.07485215
0.0074680354 -0.046099138 -0.05564557 -0.01327615 0.057720028 0.041883938 -0.011417581 0.00597498
0.035692405 -0.066316776 0.022462443 -0.00287172 0.04131481 0.007514792 0.016857786 0.040836938
-0.019720173 -0.045567818 -0.013459949 0.017960956 0.01218488 0.06421382 -0.075176 0.0007125769
-0.0653527 -0.039000794 -0.01238745 0.0056830468 -0.06606312 -0.001010326 0.011987587 -0.02608298
-0.0360856 0.03661087 0.004941383 0.027929805 0.035600647 0.020877726 -0.09150932 0.007932973
-0.030568004 0.034399282 -0.04716332 -0.024314238 0.011993938 -0.011303209 0.03281492 0.027687715
-0.02789067 -0.011414365 0.04681169 -0.0031445334 0.023998396 0.04610475 -0.026547505 0.016615678
0.038763307 0.00043351972 -0.012792399 -0.003961959 -0.01690067 -0.020369962 0.06268668 0.063257225
0.011379328 0.036270443 0.067138396 0.007857575 -0.02839756 0.00045699472 0.019375168 0.026933232
0.05245334 0.043492887 0.022634549 0.00070928084 -0.021613263 0.040281083 -0.004744147 -0.10274985
-0.0032640968 -0.0030297337 -0.043323223 -0.014448004 -0.00215373 0.03067536 -0.015480973 0.023920113
-0.013753386 0.0054219794 0.0035131671 -0.08494271 0.031603076 -0.03369391 0.07389046 0.050386436
0.035646025 -0.049305957 0.03729939 0.036762193 -0.032415845 -0.010756584 0.01521978 0.013109254
0.0301192 -0.02139633 -0.008646851 -0.019006522 -0.0226619 -0.045660842 0.009416451 -0.0032966388
-0.004196506 0.046321258 0.06505469 0.049879134 0.05118751 -0.0049371347 0.04325014 -0.043602254
0.035746194 0.04172841 -0.06540311 0.001652841 -0.02631589 0.04577808 0.013345976 0.08380964
-0.007230396 -0.015817387 -0.0054682964 -0.017383251 0.021501437 0.02998263 0.06915658 0.03952862
-0.0022184209 -0.04840091 -0.039103493 0.044399615 0.060163718 0.021543691 0.036013935 0.013060454
0.010679591 -0.043135203 0.0255818 0.03183383 0.04225512 -0.00835227 -0.027575236 -0.056540973
0.03616317 0.032748893 -0.013581436 0.016899938 -0.0017408442 -0.0071828617 -0.041774 0.0037947039
-0.021233538 0.0076215845 0.054658428 -0.014919802 -0.01339463 -0.01408759 -0.0060555595 -0.034200557
