dataset/US-10824903-B2/US-10824903-B2_claim_emb.npy (npy, 61568 bytes, 1 tensors)

array f4 [20, 768]
0	0xbd7b24ff	-0.06131458
1	0xbcb5d09f	-0.022194205
2	0xba124a74	-0.00055805524
3	0xbceb7a97	-0.028744979
4	0xbc99f20c	-0.018792175
5	0xbbf03ef9	-0.0073317257
6	0x3d0d1fb7	0.034454074
7	0x3c4b4467	0.012406445
8	0xbd043e1e	-0.032285802
9	0x3d4c5979	0.049890015
10	0x3c4d2498	0.012520932
11	0x3d373216	0.0447255
12	0x3b4d1b6c	0.0031296862
13	0xbc7fd328	-0.015614308
14	0x3ca3b2bc	0.019982688
15	0xbd6bfcc5	-0.057614107
16	0x3cc223ed	0.023698771
17	0x3c651906	0.013983017
18	0xbbbda623	-0.0057876273
19	0xbb1a6a26	-0.0023561805
20	0xbc812ec9	-0.01576938
21	0x3c4a2fad	0.012340468
22	0xbca3cf32	-0.01999626
23	0x3d279793	0.040916037
24	0xbd5404b1	-0.051762287
25	0xbcf5757e	-0.029963251
26	0xbd868227	-0.06567793
27	0xbc6f6c49	-0.01461322
28	0xbd034fef	-0.032058652
29	0xbdd715f4	-0.10502234
30	0xbcdcbe30	-0.026946157
31	0x3da78ea3	0.08181503
32	0xbd152ca8	-0.03641954
33	0xbd276d78	-0.040875882
34	0x3637d50d	2.7393137e-06
35	0x3d1416c4	0.036154523
36	0xbcbc9be1	-0.023023548
37	0x3c819f08	0.015822902
38	0x3cd0f58e	0.025507715
39	0x3d189ec0	0.03726077
40	0xbd2f6ce4	-0.042828456
41	0xbd337d63	-0.04382075
42	0x3b8204ea	0.003967871
43	0x3aa023e7	0.0012217731
44	0xbc2cc5a4	-0.010545168
45	0x3c62d0e4	0.013843749
46	0x39991fc6	0.00029206107
47	0x3d06e5c4	0.032933965
48	0x3c0596cf	0.008153631
49	0xbd185131	-0.037186805
50	0xbbf30343	-0.0074161603
51	0x3acb3bed	0.001550553
52	0xbd2bcd72	-0.041943975
53	0xbc5f1bde	-0.013617484
54	0x3d68c0ef	0.05682462
55	0xbd384a5a	-0.044992782
56	0x3c133754	0.008985359
57	0xbcc12ce9	-0.023580985
58	0x3ccd817f	0.025086163
59	0xbc42531a	-0.011860633
60	0xbca868a0	-0.020557702
61	0x3ad96f48	0.001658895
62	0xbc8dadbb	-0.017294755
63	0xbd0e99c1	-0.0348146
64	0x3d22e4d0	0.039768994
65	0xbc9a93cf	-0.018869309
66	0xbc02adb3	-0.007975983
67	0xbc61fbff	-0.013792991
68	0xbc0ff697	-0.008786819
69	0x3c3dae8e	0.011577262
70	0xbc3f5782	-0.011678578
71	0xbcffed88	-0.031241193
72	0xbbfd76ef	-0.0077351253
73	0x3da1843b	0.07886549
74	0xbce86afd	-0.028371328
75	0xbd3b4699	-0.045721624
76	0xbcb78b5e	-0.022405323
77	0x3b58e81b	0.003309733
78	0xbbe3d41b	-0.006952775
79	0xbc864871	-0.016391965
80	0x3bed2b7c	0.0072378498
81	0x3d437b25	0.04772486
82	0x3b2a2c4e	0.002596635
83	0x3d9870bc	0.074433774
84	0x3d7a7ba4	0.06115307
85	0x3dc77b61	0.097403295
86	0x3ce09d97	0.027418895
87	0xbd84f4ce	-0.06492005
88	0x3b800380	0.003906667
89	0xbd2474cc	-0.04015045
90	0xbd3a885b	-0.045540195
91	0xbcb372b4	-0.02190528
92	0x3d0bb1a6	0.034104966
93	0x3d2bad33	0.041913223
94	0xbb67031f	-0.0035249663
95	0x3b98a20d	0.00465799
96	0x3ce9bdf9	0.028532969
97	0xbdb2a740	-0.08723307
98	0x3c538bbf	0.012911736
99	0xbcb9b2c3	-0.022668248
100	0x3c71caa7	0.014757789
101	0x3c3cb0cc	0.011516761
102	0x3c66ca65	0.014086341
103	0x3d0bc3a6	0.03412213
104	0xbc09918b	-0.008396517
105	0xbd2a29be	-0.041543715
106	0xbb80a927	-0.0039264145
107	0x3ca2f26c	0.019890986
108	0x3b915841	0.0044355695
109	0x3d89243d	0.06696365
110	0xbdbe1fbf	-0.09283399
111	0xba4f6745	-0.00079118117
112	0xbd614068	-0.054993063
113	0xbd133ae0	-0.03594482
114	0xbc59868f	-0.01327671
115	0x3c36a58b	0.011147867
116	0xbd90d487	-0.070717864
117	0xbc03fa3f	-0.008055269
118	0x3c83e679	0.016101109
119	0xbca609bd	-0.020268315
120	0xbd3b08b4	-0.045662597
121	0x3cf8058a	0.030276079
122	0xbcacf9fa	-0.021115292
123	0x3cd88c70	0.026434153
124	0x3d0bbc96	0.034115396
125	0x3c9a241a	0.018816043
126	0xbdcceb23	-0.10005786
127	0x3c112354	0.008858521
128	0xbc4b4071	-0.012405501
129	0x3d2eeaef	0.04270452
130	0xbd1bae0c	-0.03800778
131	0xbd050685	-0.03247692
132	0x3ae914c6	0.001778268
133	0xbc36adf2	-0.01114987
134	0x3d1287d6	0.035774074
135	0x3cb6ab93	0.02229861
136	0xbc7832a2	-0.015148791
137	0xbc2e20b6	-0.010627916
138	0x3d55f5db	0.05223642
139	0xbbc26440	-0.005932361
140	0x3cf4e2cd	0.029893303
141	0x3d5b5613	0.053548884
142	0xbcf3d716	-0.029765647
143	0x3c48d941	0.012258829
144	0x3c4d0834	0.012514163
145	0xbb9f2cda	-0.0048576416
146	0xba790426	-0.00094992144
147	0x3a9d00f0	0.0011978429
148	0xbc58410a	-0.0131991
149	0xbc32b16b	-0.010906558
150	0x3d3b9ee3	0.045805823
151	0x3d643918	0.05571851
152	0x3c88f6e6	0.016719293
153	0x3d623177	0.055222955
154	0x3dacf3da	0.084449485
155	0x3a258458	0.0006313971
156	0xbc8fc9bf	-0.017552255
157	0x3c91cb65	0.017797181
158	0x3c9277c6	0.017879378
159	0x3cf58ec8	0.02997531
160	0x3d60a009	0.05484012
161	0x3d215f5b	0.03939758
162	0x3ca32fe3	0.019920295
163	0xbc0986f0	-0.008393988
164	0xbd013004	-0.031539932
165	0x3cdcdc40	0.026960492
166	0xbb01d6bd	-0.0019811832
167	0xbdcb1809	-0.09916694
168	0xbca17929	-0.019711094
169	0xba96c200	-0.0011501908
170	0xbcdfcfff	-0.02732086
171	0xbc8d97e4	-0.017284341
172	0xbb1646f0	-0.0022930466
173	0x3c9e2150	0.019302994
174	0xbcd2dad6	-0.025739115
175	0x3d2acb95	0.041698057
176	0xbc833bf2	-0.016019795
177	0xbb80ea65	-0.003934192
178	0x3bbc298e	0.0057422584
179	0xbda00ff9	-0.078155465
180	0x3cf5481e	0.029941615
181	0xbccf26fa	-0.02528714
182	0x3d8a4edb	0.06753322
183	0x3d57016f	0.0524916
184	0x3d4ea687	0.05045178
185	0xbd295469	-0.041340265
186	0x3d03d990	0.032189906
187	0x3d2b77aa	0.041862167
188	0xbd003faf	-0.031310733
189	0xbbad2ca0	-0.0052848607
190	0x3b948fa8	0.0045337267
191	0x3c4079da	0.011747802
192	0x3d12b666	0.03581848
193	0xbcdedc35	-0.027204612
194	0x3bcb81df	0.00621055
195	0x3a50fdc9	0.0007972387
196	0xbc8c4828	-0.01712425
197	0xbd2ec424	-0.042667523
198	0x3d02b60b	0.03191189
199	0xbac9a204	-0.0015383367
200	0x39bbdbb9	0.00035831126
201	0x3d03ac50	0.032146752
202	0x3d598217	0.05310258
203	0x3d375c54	0.044765785
204	0x3d695c52	0.05697281
205	0xbb458c12	-0.0030143303
206	0x3d79fc94	0.061031893
207	0xbd4d28df	-0.050087806
208	0x3cac10dd	0.021004135
209	0x3c928630	0.017886251
210	0xbd8461a8	-0.06463939
211	0xbc01823a	-0.007904584
212	0xbcb8b2cc	-0.022546194
213	0x3d48a0f5	0.048981626
214	0x3b90f085	0.0044232034
215	0x3dc2dcb4	0.09514752
216	0x3c106c47	0.008814878
217	0xbccd81bc	-0.025086276
218	0xba6f31e4	-0.0009124561
219	0xbc857da3	-0.01629526
220	0x3cb3219b	0.02186661
221	0x3d0ae530	0.033909976
222	0x3d65ce0a	0.056104697
223	0x3cf713cf	0.030160813
224	0xbb59d071	-0.0033235813
225	0xbd90a9ea	-0.070636585
226	0xbd523f61	-0.051329974
227	0x3d49c70e	0.0492621
228	0x3d67ad26	0.05656161
229	0x3d093b06	0.033503555
230	0x3d1fa41a	0.03897486
231	0x3c28baec	0.010298472
232	0x3c2f793c	0.010710057
233	0xbd175118	-0.03694257
234	0x3c27d6a0	0.010244042
235	0x3d0231ea	0.031785883
236	0x3d1d1ee8	0.038359553
237	0xbc973e49	-0.018462317
238	0xbcb526c8	-0.022113219
239	0xbd8d79c6	-0.06907992
240	0x3c6eb552	0.014569597
241	0x3d15f327	0.03660884
242	0xbbfe0195	-0.0077516534
243	0x3a51255d	0.0007978285
244	0x3be2db5f	0.0069231237
245	0xbbd31171	-0.006441288
246	0xbccc1b04	-0.024915226
247	0xbc2db1d4	-0.01060148
248	0xbc9cbb2f	-0.019132225
249	0x3abb9c9d	0.0014313642
250	0x3d06fef2	0.03295798
251	0xbccbb6b6	-0.024867397
252	0xbc078561	-0.008271546
253	0xbc8c62a7	-0.017136885
254	0xbb1dada8	-0.0024059806
255	0xbcd1cbe5	-0.02560992
