dataset/US-10699218-B2/US-10699218-B2_claim_emb.npy (npy, 40064 bytes, 1 tensors)

array f4 [13, 768]
-0.05013651 -0.025816245 0.0037814816 -0.024996167 0.004981569 -0.011898043 0.0422948 0.0010213784
-0.04289674 0.06834463 -0.010970883 0.04219326 0.0035560073 -0.002351979 0.008578999 -0.0401501
0.036593672 0.013708378 -0.002024279 -0.0121327005 -0.0062755365 0.007226638 -0.0046477336 0.036515035
-0.066125125 -0.026269263 -0.061011784 -0.0268285 -0.038354054 -0.10570316 -0.01947808 0.096229985
-0.023373868 -0.031476416 2.7483047e-06 0.016029961 -0.015515992 0.008807352 0.03299497 0.055652883
-0.04514805 -0.06055658 0.009227463 -0.0013051213 -0.01842575 0.0038083366 0.010982087 0.005344889
0.009941375 -0.026289117 -0.014212629 0.009204125 -0.06734154 -0.02697661 0.042300258 -0.03879953
0.015399413 -0.008223539 0.02787998 -0.011779987 -0.014469555 0.0045524007 -0.01780653 -0.043191165
0.041097473 -0.018599471 -0.01752216 -0.00070647843 0.0021803987 0.009043029 -0.015344616 -0.019389693
-0.008768287 0.08696377 -0.037839636 -0.023871416 -0.02594924 -0.0048168735 -2.1722977e-05 -0.021598931
0.012501703 0.052375894 0.010593888 0.07189813 0.04781334 0.09596024 0.026534501 -0.063752994
-0.0044562025 -0.03880273 -0.04849286 -0.021550266 0.04224935 0.062506355 -0.01960884 -0.0016238571
0.030513266 -0.10161755 0.02123381 -0.022614177 -0.006176323 0.014980792 0.0266423 0.041615274
-0.0058287163 -0.035685353 0.0032876818 0.025814883 9.271823e-05 0.058480475 -0.061844427 -0.006287023
-0.063322306 -0.040077295 -0.012015262 0.012696938 -0.064319946 0.0047649136 0.0014125017 -0.02331156
-0.042639013 0.046758045 -0.012753194 0.035018582 0.04488946 0.0145646185 -0.10919388 0.00939278
-0.010537965 0.05351042 -0.039425347 -0.03228638 0.008782593 0.014151901 0.031488884 0.04136936
-0.030685443 -0.0053576604 0.047200702 -0.022296196 0.029533966 0.058597382 -0.019760808 -0.0010033597
0.026309628 0.011956971 0.015668845 0.0037811538 -0.013215512 -0.020634983 0.05146546 0.043257806
0.0026131412 0.042844575 0.08101792 0.0062731714 -0.020599356 0.009371293 0.030846175 0.02132865
0.059372198 0.03979641 0.035172116 0.01091923 -0.037316374 0.029684303 0.0057693566 -0.097805254
-0.021003798 0.020336632 -0.017443761 -0.021152131 -0.010919506 0.011950931 -0.021836193 0.055601105
-0.02680937 0.01658002 0.002851382 -0.08542785 0.0367676 -0.030879157 0.06221012 0.055115607
0.051637884 -0.04531592 0.021139594 0.047053676 -0.043465946 -0.00061199436 0.0043972046 0.007914821
0.048928022 -0.024298556 -0.004140093 -0.021637404 -0.0026994492 -0.033902016 0.022891354 -0.011280262
0.0077012195 0.023531733 0.06785488 0.051352877 0.04477672 -0.003348753 0.054307576 -0.044395205
0.02221512 0.034745123 -0.06660168 -0.018441228 -0.030192584 0.042587765 -0.010307293 0.09881447
0.002630235 -0.017342823 -0.018176168 -8.6557055e-05 0.021635028 0.03820747 0.06350483 0.03977736
-0.0021738433 -0.061131947 -0.04938954 0.0528778 0.056436576 0.012361196 0.03149195 0.014888417
-0.00064217206 -0.029797994 0.011917985 0.017243944 0.020906312 -0.022877157 -0.020378819 -0.052345514
0.021683201 0.04709132 -0.011465587 0.015452421 0.017784568 -0.008272491 -0.04826433 -0.013331227
-0.038228285 0.012339339 0.04759103 -0.014463113 -0.019394312 -0.012278738 0.011346951 -0.037158288
00000000: f15b 4dbd 977c d3bc bcd2 773b c3c4 ccbc
00000010: 6e3c a33b 02f0 42bc 503d 2d3d c6df 853a
00000020: 7eb4 2fbd 45f8 8b3d 38bf 33bc d7d2 2c3d
00000030: e70b 693b a923 1abb ee8e 0c3c 6e74 24bd
00000040: 3fe3 153d 1b99 603c c4a9 04bb 3cc8 46bc
00000050: 04a3 cdbb 6fcd ec3b 044c 98bb ca90 153d
00000060: 9c6c 87bd a332 d7bc 7ee7 79bd 71c7 dbbc
00000070: 2419 1dbd e67a d8bd 7f90 9fbc 3a14 c53d
00000080: 8e7a bfbc 6aed 00bd 846f 3836 4451 833c
00000090: ca36 7ebc b64c 103c bc25 073d 47f4 633d
000000a0: 29ed 38bd 2d0a 78bd c92e 173c 9b10 abba
000000b0: 99f1 96bc 4995 793b 36ee 333c 2e24 af3b
000000c0: 26e1 223c 465c d7bc 16dc 68bc e6cc 163c
000000d0: 5cea 89bd 0dfe dcbc 0943 2d3d 42ec 1ebd
000000e0: d24d 7c3c 06bc 06bc 8e64 e43c d900 41bc
000000f0: b611 6dbc 4e2c 953b 00df 91bc 38e9 30bd
00000100: d355 283d eb5d 98bc a28a 8fbc f732 39ba
00000110: 05e5 0e3b 3629 143c fc67 7bbc 22d7 9ebc
00000120: dca8 0fbc 101a b23d bcfd 1abd fd8d c3bc
00000130: 8093 d4bc ddd6 9dbb bd39 b6b7 3ef0 b0bc
00000140: f1d3 4c3c 1b88 563d fd91 2d3c 543f 933d
00000150: ecd7 433d cd86 c43d e25e d93c ee90 82bd
00000160: 5605 92bb 9def 1ebd 73a0 46bd 2f8a b0bc
00000170: a80d 2d3d 5503 803d b8a2 a0bc 9ad7 d4ba
00000180: f5f6 f93c dd1c d0bd 87f2 ad3c 5e41 b9bc
00000190: c162 cabb ff71 753c f440 da3c c774 2a3d
000001a0: d1fe bebb ce2a 12bd 2676 573b bc79 d33c
000001b0: b871 c238 3989 6f3d 9550 7dbd 5f03 cebb
000001c0: 20af 81bd 1728 24bd a9db 44bc d106 503c
000001d0: 2dba 83bd fe22 9c3b b123 b93a e2f7 bebc
000001e0: 3fa6 2ebd 5d85 3f3d c6f2 50bc a56f 0f3d
000001f0: 03de 373d 70a0 6e3c 0aa1 dfbd 2de4 193c
00000200: 6ea7 2cbc be2d 5b3d 797c 21bd b93e 04bd
00000210: dde4 0f3c 60dd 673c 7dfa 003d eb72 293d
00000220: 0a60 fbbc 508f afbb 8655 413d 83a6 b6bc
00000230: 37f1 f13c cf03 703d 6be1 a1bc 2a83 83ba
00000240: 4a87 d73c 2ce7 433c f35b 803c 3ccd 773b
00000250: e085 58bc b20a a9bc 72cd 523d 192f 313d
00000260: 3c41 2b3b cb7d 2f3d b9ec a53d 2d8f cd3b
00000270: fbbf a8bc 0d8a 193c 1eb1 fc3c 6cb9 ae3c
00000280: 4330 733d 8f01 233d a310 103d 92e6 323c
00000290: 0ed9 18bd 7f2c f33c df0c bd3b 1f4e c8bd
000002a0: 2810 acbc 0299 a63c 38e6 8ebc 3c47 adbc
000002b0: bae7 32bc d6cd 433c d1e1 b2bc fcbd 633d
000002c0: 539f dbbc d2d2 873c 40de 3a3b ccf4 aebd
000002d0: 9f99 163d 49f6 fcbc 0ad0 7e3d e7c0 613d
000002e0: 3f82 533d 309d 39bd f12c ad3c 5bbb 403d
000002f0: 5909 32bd 3f6e 20ba 6d16 903b 2aad 013c
00000300: c068 483d c40d c7bc 9ea9 87bb ed40 b1bc
00000310: 3ee9 30bb d7dc 0abd a686 bb3c d9d0 38bc
00000320: 835a fc3b 9fc5 c03c 80f7 8a3d 6557 523d
00000330: cb67 373d c176 5bbb 9f71 5e3d bfd7 35bd
00000340: 7cfc b53c e750 0e3d 7666 88bd 0f12 97bc
00000350: 7056 f7bc 8270 2e3d ecdf 28bc 3e5f ca3d
00000360: 0560 2c3b 8912 8ebc 30e6 94bc f785 b5b8
00000370: f13b b13c 707f 1c3d d20e 823d 96ed 223d
00000380: 0a77 0ebb 7e65 7abd b04c 4abd 6496 583d
00000390: 0a2a 673d 9d86 4a3c b4fd 003d 8cee 733c
000003a0: 7057 28ba ec1a f4bc a743 433c 2c43 8d3c
000003b0: b743 ab3c e068 bbbc 7bf1 a6bc 4068 56bd
000003c0: f8a0 b13c d4e2 403d 28da 3bbc 272c 7d3c
000003d0: f1b0 913c 5889 07bc d1b0 45bd 386b 5abc
000003e0: 4395 1cbd f02a 4a3c d0ee 423d b1f6 6cbc
000003f0: d2e0 9ebc c32c 49bc 90e8 393c 4a33 18bd
