dataset/US-11741309-B2/US-11741309-B2_abstract_emb.npy (npy, 3200 bytes, 1 tensors)

array f4 [768]
000000 57 19 61 bd 0e b2 df bc eb 22 e3 bb 7a 85 b7 bc
       -0.054955807 -0.027306583 -0.006931653 -0.022402514
000010 e2 e8 e7 b9 db 88 a9 bc ed 55 4e 3d f6 c9 44 3c
       -0.00044233265 -0.02069514 0.050374914 0.012011042
000020 2b 75 0a bd 7f 89 90 3d 9f d9 88 bb 07 7c 8a 3c
       -0.033803146 0.07057475 -0.004176333 0.016904844
000030 95 8a e9 3b d2 dc 80 bb 47 d3 cf 3b 71 e3 25 bd
       0.007127116 -0.003932574 0.006342325 -0.04050011
000040 34 74 37 3d 78 6d 32 3c 33 57 0b 3c 2e 2b c9 3a
       0.044788554 0.010890357 0.008504677 0.0015347952
000050 0e 23 3a bc 9d c4 84 3c ea 62 5d bc ab 34 05 3d
       -0.011360897 0.016207034 -0.0135123525 0.03252093
000060 90 51 7d bd ae 12 f4 bc 76 68 63 bd 7b 6c e2 bc
       -0.061845362 -0.029794063 -0.055519544 -0.027639618
000070 58 cc 18 bd 9d ef c7 bd 20 86 dc bc fb 75 b8 3d
       -0.037304252 -0.097624995 -0.026919425 0.09006878
000080 40 6a 0f bd 61 f1 0b bd 9d 22 32 36 22 9d b7 3c
       -0.035013437 -0.034165744 2.6544215e-06 0.022413794
000090 c3 8e bf bc 80 99 7d 3c ea 93 3a 3d 7d 61 5b 3d
       -0.023383504 0.015478492 0.045551218 0.05355977
0000a0 fe ae 1f bd de a0 2d bd e4 69 17 3c 7e 2a bb 3b
       -0.038985245 -0.042389743 0.009241555 0.0057118526
0000b0 46 64 f2 bc ac db 2a 3b 91 20 08 3c 86 d8 8b 3c
       -0.02958883 0.0026070876 0.008308546 0.01707102
0000c0 cb 7c ec 3b f6 d6 f1 bc b9 c4 73 bc d1 03 13 bc
       0.007217025 -0.029521447 -0.014878445 -0.008973078
0000d0 e9 69 44 bd 94 d6 a6 bc e8 01 31 3d 5d b1 52 bd
       -0.047952566 -0.02036599 0.04321471 -0.051438678
0000e0 d8 b9 e5 3b 8c 3c a7 bc b5 c0 16 3d 77 20 cd 3b
       0.0070106797 -0.020414613 0.036804873 0.0062599736
0000f0 91 a3 cd bc d9 5a 05 3c 97 1e 85 bc 01 e9 25 bd
       -0.025102409 0.008139336 -0.016249938 -0.040505413
000100 00 68 25 3d e2 e7 5b bc bf fc d1 bc 28 e1 ad ba
       0.040382385 -0.013421984 -0.025633214 -0.0013265954
000110 77 a0 c9 3b e1 11 c2 3b 2b f8 04 bc 06 bc 45 bc
       0.006153162 0.0059225415 -0.0081158085 -0.012068754
000120 62 fa 72 bb 57 7b ba 3d a7 03 e6 bc 9b 0d 01 bd
       -0.003707551 0.091055565 -0.028077913 -0.031507116
000130 c5 ee 03 bd fd 70 da 3b cf 37 e1 bb 7e a9 84 bc
       -0.03221013 0.0066663013 -0.006873108 -0.016194101
000140 d1 c8 bd 3b 02 41 02 3d 7f 67 96 3c bc 30 94 3d
       0.0057917614 0.031800278 0.018359898 0.07235858
000150 93 53 6b 3d 24 2b cd 3d cc b0 ad 3c 86 8d 87 bd
       0.05745275 0.10017994 0.021202467 -0.0661879
000160 2d e8 db bb 8a 07 4f bd 17 69 8f bd cc 0b 0a bc
       -0.006711027 -0.0505443 -0.07002466 -0.008425664
000170 74 f9 60 3d dd 57 54 3d 10 e6 97 bc ef ed e8 3b
       0.054925397 0.051841605 -0.01854232 0.007108442
000180 00 78 02 3d 71 ef 99 bd 8f e5 c0 3c c5 c8 16 3c
       0.031852722 -0.07516373 0.023546962 0.009203141
000190 0d 2c 04 3d 86 b6 c7 3b 6f a6 b2 3b b5 f2 2e 3d
       0.032268573 0.0060947565 0.0054519693 0.042711932
0001a0 df 98 59 bc 01 4f 02 bd 8d 38 d0 3b de c9 f1 3b
       -0.013281076 -0.031813625 0.0063543976 0.007378801
0001b0 66 9d 6e 3c 56 ad 7c 3d fd 36 96 bd 75 a1 8a bb
       0.014563894 0.061688744 -0.07334707 -0.004230673
0001c0 63 02 92 bd e5 80 1d bd 4f 7e 6e bc 91 d5 46 3c
       -0.071293615 -0.038453 -0.0145564815 0.012135879
0001d0 06 ce 7a bd 74 e6 15 bb c8 31 81 3b 77 ac d8 bc
       -0.061231636 -0.0022872956 0.003942702 -0.026449425
0001e0 64 7e 26 bd b0 49 25 3d 89 9b 08 bb 1f 93 e6 3c
       -0.04064788 0.040353477 -0.002084466 0.028146325
0001f0 69 9b 28 3d 0c e7 ad 3b ca a4 be bd 7a 89 85 3c
       0.041163836 0.005307084 -0.09308775 0.016300905
000200 4a 6b 9e bc 74 24 4f 3d 9f e0 0f bd b7 95 24 bd
       -0.019338269 0.050571874 -0.035126325 -0.04018184
000210 c1 71 92 3c 31 e3 73 bb 1f c9 b1 3c 84 a0 28 3d
       0.017876508 -0.0037214274 0.021702347 0.041168705
000220 10 61 9c bc 57 f1 27 bc 5e e7 26 3d 0e d7 b8 bb
       -0.019089252 -0.010250411 0.040747993 -0.005640871
000230 15 8a cb 3c 1a 59 4d 3d fc 69 f8 bc 80 11 ce 3b
       0.024846116 0.050133802 -0.030323975 0.0062887073
000240 f6 cd ee 3c 51 17 13 bb ba 37 5b 3b 19 65 1f bc
       0.029150944 -0.0022444318 0.0033449964 -0.009728693
000250 8a 63 73 bc ec e6 d4 bc 0e e3 7b 3d 63 88 79 3d
       -0.014855275 -0.025989018 0.061495833 0.060921084
000260 dd d9 81 3c 8b 9b 06 3d 24 e7 a1 3d 94 79 75 3c
       0.015850956 0.03286318 0.07905415 0.0149826
000270 2c e5 61 bc a7 b9 41 3b 2e 67 5c 3c d1 40 a0 3c
       -0.013787549 0.002956012 0.013452334 0.019562157
000280 e1 4a 5c 3d 97 80 3c 3d 12 32 fa 3c 8b a3 80 3b
       0.053782348 0.04602107 0.030541454 0.003925746
000290 bc 2b ed bc 3b e5 d1 3c 6c 56 28 3c 23 69 d9 bd
       -0.028951518 0.025622 0.010274511 -0.10615756
0002a0 f5 1e 68 bc aa 49 8f 3c d2 51 3e bd 5d 80 9e bc
       -0.014167537 0.01749118 -0.04646475 -0.019348318
0002b0 93 b9 34 3b d8 02 95 3c 95 87 3d bc 84 5c 3c 3d
       0.0027576431 0.018189833 -0.01156797 0.045986667
0002c0 87 cc d5 bc ce a7 a6 3c f3 b7 92 3a b5 8d b8 bd
       -0.026098503 0.020343687 0.0011193737 -0.090114035
0002d0 7f 11 03 3d f9 8a 23 bd c5 5c 8f 3d a1 81 76 3d
       0.031999107 -0.039927457 0.07000116 0.060182218
0002e0 98 1a 50 3d c1 8e 4b bd f9 8b 05 3d 99 3f 50 3d
       0.05080661 -0.049696688 0.03260419 0.0508419
0002f0 69 35 23 bd b8 7f 1f bc 3e 31 4b 3c 09 fe 05 3c
       -0.039845858 -0.00973504 0.012401877 0.0081782425
000300 12 fa 35 3d 61 f6 00 bd 6b 21 9a bc 2e 9e e6 bc
       0.04442794 -0.031484965 -0.018814763 -0.028151598
000310 53 d6 b6 bc f2 4d 6a bd d6 6a 2f 3c 9d 64 1e bc
       -0.022318995 -0.05720324 0.010706624 -0.009667543
000320 0b a6 03 3c d7 35 0e 3d 3b a5 90 3d bb b3 3f 3d
       0.008035193 0.034719314 0.07062765 0.046802264
000330 28 64 6d 3d cb 47 47 ba fc b5 36 3d c0 8f 3a bd
       0.057956845 -0.00076019455 0.044607148 -0.045547247
000340 31 f7 11 3d fc bf 2b 3d 39 84 8c bd ec 40 aa bb
       0.03563613 0.041931137 -0.06861157 -0.0051957276
000350 19 3a d8 bc 03 17 21 3d 64 d7 09 b9 e5 e3 b7 3d
       -0.02639489 0.039328586 -0.00013145577 0.08979014
000360 8b 53 cf bb e0 1f b4 bc 48 4e 30 bc 36 13 25 bb
       -0.006327098 -0.021987855 -0.010760851 -0.0025188453
000370 cf b7 b5 3c a8 86 be 3c 1f be 63 3d 93 d8 36 3d
       0.022182373 0.023257568 0.055601235 0.044640135
000380 e1 c1 f2 b9 26 6a 7f bd 44 eb 27 bd 4c 14 3e 3d
       -0.00046302288 -0.06235709 -0.04099585 0.046406075
000390 ec 1c 72 3d 29 bd 7a 3c 32 1a f8 3c d5 eb 23 3c
       0.059109613 0.015303888 0.030285928 0.010004957
0003a0 7c de a2 3b 3f 8e 0f bd 95 d8 23 3c ae 63 ac 3c
       0.00497037 -0.035047766 0.010000368 0.021043625
0003b0 03 53 16 3d 0c e7 9a bb a8 0a 04 bd 8d b2 55 bd
       0.03670026 -0.00472725 -0.032236725 -0.052172232
0003c0 1d ce 04 3d 01 e2 1a 3d 46 32 86 bc 66 4f a7 3c
       0.032423127 0.03781319 -0.016381394 0.020423602
0003d0 28 d8 8e 3c 70 87 64 bb 30 3f 19 bd 68 75 bc bb
       0.017437056 -0.0034870766 -0.037413776 -0.0057513006
0003e0 9e 9e ac bc 1d 9b 21 3c 1c 84 5e 3d 4e 54 9e bc
       -0.021071728 0.009863642 0.054325208 -0.019327309
0003f0 18 2a 7b bc 73 f9 e2 bb ee 9f b4 3b d8 64 33 bd
       -0.01532986 -0.0069267093 0.005512229 -0.043797344
