dataset/US-11023107-B2/US-11023107-B2_abstract_emb.npy (npy, 3200 bytes, 1 tensors)

array f4 [768]
000000 3c 73 47 bd c3 e2 db bc f8 d0 c8 ba e2 1a 9c bc
       -0.04869388 -0.026841527 -0.0015321067 -0.019055787
000010 aa 87 a6 bb 9e 02 8c bc 43 e6 13 3d de 88 31 3b
       -0.0050820904 -0.017091092 0.036108267 0.0027089636
000020 11 b2 23 bd ce 5b 7f 3d 0e fb 30 3c ac 33 1d 3d
       -0.03996474 0.06234341 0.010802044 0.038379356
000030 76 ab d8 3c 2a e5 18 3c 5c 74 ba 3c 85 52 16 bd
       0.026448946 0.009331981 0.022760563 -0.03669979
000040 88 6f 3f 3d 53 10 fd 3b ac b4 df 3c 73 c3 98 3b
       0.046737224 0.0077228933 0.02730783 0.0046619712
000050 28 a3 76 bc 94 a4 81 3b 74 73 bb bc 60 c7 24 3d
       -0.015053548 0.003956387 -0.0228822 0.0402292
000060 67 d7 62 bd e0 e1 3c bc ae 3d 7c bd 80 df fe bc
       -0.055381205 -0.011528462 -0.06158226 -0.031112432
000070 c7 3d 05 bd 70 56 b5 bd 08 dc 6a bc de 53 93 3d
       -0.03252962 -0.08854377 -0.014334686 0.07193731
000080 4c e9 28 bd fc 12 1c bd 18 d7 3f 36 00 6e da 3c
       -0.041238114 -0.038104042 2.858642e-06 0.02666378
000090 bb 2a c6 bc cf ff 6f 3c fd 2b f5 3c f5 b9 37 3d
       -0.024190297 0.014648392 0.029928202 0.044855077
0000a0 9e 5a 29 bd 1b 0d 4b bd 04 26 2f 3b 17 0b 6a 3c
       -0.041346185 -0.049573045 0.002672554 0.014284871
0000b0 bf a9 9a bc 19 45 e5 bb 55 1a be 3c 02 75 db 3c
       -0.01887977 -0.0069967625 0.023205915 0.026789192
0000c0 2c 8e 36 39 fa 52 46 bd e7 f2 56 bc ed 3a a9 3a
       0.00017409836 -0.048418976 -0.013119436 0.0012911238
0000d0 f5 8e 9a bd 52 9c 9f bc e4 d2 25 3d 2f 1c 50 bd
       -0.07546798 -0.019483719 0.040484324 -0.050808128
0000e0 a4 2c 8d 3b 9b 24 8c bc 19 3a 29 3d f3 5a 5f bb
       0.0043083 -0.017107299 0.041315172 -0.003408131
0000f0 3f 7d 94 bc cc e5 36 bc 2a f4 39 bc 1a 37 55 bd
       -0.018126128 -0.011163186 -0.011349717 -0.052054502
000100 34 1b 31 3d 30 58 cf bc 40 25 e0 bc 7d 85 98 bc
       0.043238834 -0.025310606 -0.027361512 -0.01861834
000110 f6 e3 28 3c 90 7e e8 ba fd 49 10 bc 50 a4 2b bd
       0.010308256 -0.0017737914 -0.008806703 -0.041904747
000120 39 82 67 bc 4d 47 ca 3d 7f 25 26 bd c4 60 24 bd
       -0.014130169 0.09876881 -0.040563103 -0.040131345
000130 0b 6b dd bc e3 32 c7 3a 0b 23 86 bb e3 d7 e6 bc
       -0.027028581 0.001519766 -0.004093533 -0.028179115
000140 33 dc d6 3c e5 76 82 3d 3e db bc 3b 99 27 67 3d
       0.026228046 0.063703336 0.0057634404 0.056434248
000150 12 f1 52 3d 5b fc a4 3d 54 b8 11 3d df f3 90 bd
       0.051499434 0.080559455 0.03557618 -0.07077765
000160 a6 01 94 bc a0 c0 f7 bc 04 56 98 bd 71 4c bd bc
       -0.018067192 -0.030243218 -0.07438281 -0.02310774
000170 c3 4f 60 3d 71 7c 36 3d 79 46 a2 bc 42 af 4e ba
       0.054763567 0.04455227 -0.019808995 -0.0007884392
000180 7a 3f cc 3c 0c a6 d1 bd ea 37 0a 3d e1 b2 0e bc
       0.024932612 -0.10236749 0.03374473 -0.00870964
000190 1f 8e 01 3d cf c8 ff 3a c4 7c 83 3c b8 c0 0e 3d
       0.031629678 0.0019514802 0.016050704 0.03485176
0001a0 91 2b 02 bb 3f e8 cb bc 55 04 8e 3b c6 86 ea 3c
       -0.0019862393 -0.024891017 0.0043340125 0.028628718
0001b0 cd 0c 03 bc 7b 04 80 3d 4c 08 88 bd 92 0e 3c 3b
       -0.007998657 0.062508546 -0.066422075 0.0028695208
0001c0 cf 59 59 bd 73 e7 64 bd bd 78 85 bc 29 dc 90 3c
       -0.053064164 -0.05588479 -0.016292924 0.017683106
0001d0 d9 fc 51 bd 57 5c 81 bc e8 a9 4e 3c ee 49 95 bc
       -0.051266525 -0.015791101 0.012613751 -0.018223729
0001e0 fc b8 1d bd ad 9b 53 3d 4f 77 38 bc ee 62 04 3d
       -0.038506493 0.051662136 -0.011258914 0.03232091
0001f0 58 2f 16 3d a7 c9 bb 3c e8 4d ba bd a3 79 2f 3c
       0.036666244 0.022923304 -0.09096891 0.010710153
000200 d2 7e 9e bc d2 20 33 3d 08 2f 37 bd fd 1a 0f bd
       -0.019347582 0.04373247 -0.044722587 -0.034937847
000210 57 64 63 3c 24 e8 14 39 42 13 a0 3c b1 22 dc 3c
       0.013878903 0.00014200859 0.019540433 0.02687201
000220 40 8e cc bc 21 80 19 ba e2 37 3a 3d 3b fd 0f bd
       -0.024970174 -0.00058555795 0.04546345 -0.03515361
000230 4e 9e ea 3b d2 b7 3e 3d 04 8b 01 bd 9e b2 57 3b
       0.0071599847 0.046562023 -0.031626716 0.003291286
000240 83 2f f2 3c 8b 78 16 bb be 95 8b 3b f7 ad 1a 3c
       0.029563671 -0.0022960033 0.004259794 0.0094408905
000250 1b 5d c2 bb 5d 8d 1a bc d4 17 3d 3d ff 52 8c 3d
       -0.005931509 -0.009433118 0.046165302 0.06851768
000260 5f fd a3 3c 45 95 19 3d 4c 41 a1 3d 3a 20 29 3a
       0.020018278 0.03749587 0.078737825 0.00064516405
000270 c8 3c f3 3b ec db 3c bc d0 40 83 3c e3 fd d7 3c
       0.007423017 -0.011527043 0.016022116 0.02636618
000280 2c 09 5a 3d d0 cc 1c 3d 21 19 bb 3c d9 44 a3 ba
       0.053231403 0.038281262 0.02283913 -0.0012456431
000290 62 f4 fa bc 8d 59 ad 3b 4e 56 81 bc ef 5a d1 bd
       -0.030634109 0.0052902163 -0.015788224 -0.10222422
0002a0 bd c7 14 bc 04 0f 98 3c 85 53 37 bc a2 80 53 bc
       -0.009080824 0.018561848 -0.011189346 -0.012909086
0002b0 db 3c 32 bc 11 73 41 3c c8 d2 be bb 8d 66 30 3d
       -0.010878767 0.011807219 -0.005823467 0.04306655
0002c0 26 e0 04 bd 18 f6 91 3c c8 a1 e0 bb 88 cc 92 bd
       -0.032440327 0.017817542 -0.0068552233 -0.071679175
0002d0 a2 77 d7 3c f0 a4 e2 bc 74 51 6b 3d b9 6b 6e 3d
       0.026302163 -0.027666539 0.057450727 0.0582082
0002e0 0e 1d 3e 3d b6 62 1e bd df ea 14 3c aa 73 6b 3d
       0.046414427 -0.038668357 0.009089201 0.057483353
0002f0 29 70 e7 bc 12 26 b8 bc ef c3 5c bb 7b a9 a4 3b
       -0.028251724 -0.02247909 -0.0033686121 0.0050250865
000300 d2 9f 4e 3d 68 7d ce bc 03 82 97 bb e4 81 1b bc
       0.050445385 -0.025206283 -0.004623653 -0.009491418
000310 53 43 3e bc be 1c 31 bd 84 9a 0a 3d ea 1d 2c ba
       -0.011612731 -0.0432403 0.033838764 -0.0006565737
000320 d7 d6 39 bb 18 10 fd 3c cc c9 b6 3d 1b 97 60 3d
       -0.0028356814 0.030891463 0.089252084 0.054831605
000330 3c 0a 76 3d 77 33 07 3c 98 05 89 3d d6 89 46 bd
       0.060068354 0.008252016 0.0669052 -0.048471294
000340 11 9d d3 3c bb 27 21 3d d5 94 62 bd 13 4f 15 bc
       0.025831731 0.03934453 -0.05531772 -0.009113091
000350 1c 91 02 bd 7c 4a 28 3d cc 96 b5 bc c7 d2 ad 3d
       -0.03187667 0.04108666 -0.022166632 0.08487468
000360 e0 05 cb bb 0e 4b ea bb e1 35 93 bc f5 11 e1 3b
       -0.0061957687 -0.0071500605 -0.017970027 0.0068685957
000370 ab 25 76 3c 29 48 80 3c d3 3d 6b 3d e3 b8 05 3d
       0.015023629 0.015659409 0.057432007 0.032647025
000380 39 43 86 bc 7c e2 46 bd 0c bf 17 bd bc b0 37 3d
       -0.016389476 -0.048555836 -0.03704743 0.04484628
000390 c5 c9 53 3d 33 54 de 3c 98 bf 9c 3c c6 7a 84 3c
       0.051706094 0.027139759 0.019134328 0.016171824
0003a0 e7 97 92 3b 61 43 4a bd bb e6 a0 3c ea f0 d1 3c
       0.0044736746 -0.049380664 0.01964127 0.025627572
0003b0 7a 71 17 3d 77 a9 d6 ba cd ed d1 bc e6 e6 8f bd
       0.036973454 -0.0016377409 -0.025626088 -0.07026462
0003c0 0a 91 e2 3c b1 50 55 3d 1c d5 9e 3a 26 44 c3 3c
       0.02765705 0.052078906 0.0012117955 0.023836207
0003d0 ab 85 d2 3c f8 0e 19 bb 69 4d 80 bd 94 9f 78 bc
       0.025698503 -0.002335487 -0.06264765 -0.015174765
0003e0 bd 35 d2 bc 4f 5c 43 bb 75 15 49 3d 79 bf 5c bc
       -0.02566039 -0.002980966 0.04909273 -0.013473385
0003f0 6b 3a 7d bc c1 c5 83 bc 01 5c e4 3c 50 b2 d8 bc
       -0.015455822 -0.016085507 0.027875902 -0.026452214
