dataset/US-11237723-B2/US-11237723-B2_abstract_emb.npy (npy, 3200 bytes, 1 tensors)

array f4 [768]
00000000: 4fe8 8ebd 033c 08bd d196 78bc 525f a2bc
00000010: 04ec 97bc ea08 bbbc 3f65 6c3d 6d3a 833c
00000020: e262 efbc 476a 833d 7748 4e38 f4c4 1e3c
00000030: ec7d 293c ca59 19ba 9516 fe3b 1a68 81bd
00000040: fb47 c43c 59f4 b43c 5626 843c 8a12 b6ba
00000050: 6f68 c33b 68bd 883b 0ec2 cabc 575f 043d
00000060: 6851 6ebd 30d5 3ebd 4924 4abd b952 abbc
00000070: 9f0e 1abd f38b d4bd c107 93bc 5914 b93d
00000080: 672c 18bd 6c43 31bd eb64 1b36 2d80 db3c
00000090: fa85 82bc 64da c33c 20b2 2f3d f18e 723d
000000a0: d93a 40bc 110b 0bbd 0932 913c 3a9b 383c
000000b0: cf3d ddbb 3315 983c 8e0b 04bc d0c9 c33c
000000c0: 6981 e0ba d310 99bc dcec 3dbc 95ad 4dbc
000000d0: 0198 05bd 5b2b 1abb 0ab4 163d 435b 11bd
000000e0: 712b 78bb 8682 22bc 90ae e73c 1a05 5fbc
000000f0: 78a8 43bc d626 f23b c847 6dbc be9b 14bd
00000100: e8e6 0c3d a6a9 26bc d4f8 f1bc b2ed 47bc
00000110: 548b 0bbc c1c9 f83b dcc2 f5bc 7cce c5bc
00000120: 8aa1 7b3b ae75 a23d 6ade f4bc 8972 4dbd
00000130: 514c a0bc 995c 303b 709b 1fbc ebd4 0ebc
00000140: 8b27 f93a d725 993c f8d3 1b3c c851 843d
00000150: f3c6 713d d489 753d c6db f23c 0580 b2bd
00000160: 7848 c2ba 8711 59bd 17eb 27bd 0c7b 42bb
00000170: 49ad 703d 948e 2e3d c999 b9bc f33f c73b
00000180: 2cb9 063d 7177 83bd 1167 953c 5e0a 72bc
00000190: 6923 163d 3f4d 193c f11b b43b b8bf 1d3d
000001a0: f437 d5bc 1db8 32bd 2a23 26bc 3e47 153c
000001b0: 90e9 6e3c e417 7a3d a98b 9dbd 460f c13b
000001c0: ee32 8dbd 4485 10bd 2ee2 3fbc cf4e 533b
000001d0: f8d1 8ebd 71be 16bb 1d82 063c a51c b5bc
000001e0: bee9 50bd b0c9 193d 7335 253c 52a0 0a3d
000001f0: ef32 4a3d ecc0 d83c 7854 a6bd a4dd fb3b
00000200: 0c12 e0bc e7fb 163d 7ce3 3fbd 2959 cdbc
00000210: a0a7 833c 34c4 abbc 00d0 1b3d 2545 c13c
00000220: 74a9 edbc 5295 5fbc b921 7c3d 8598 cc3b
00000230: 5419 a83c 8f74 543d 16cc 9ebc 0e10 783c
00000240: c045 2c3d 1329 efbb cab6 2fbc 228e 8c3a
00000250: a0a8 b8bc 07cf 87bc cf24 7f3d 0cfb 963d
00000260: 9335 493c 153e 083d 0cbf 853d 8a6c f43b
00000270: 8fe6 25bd 18f5 b83a 1a51 b83c 7a3c c03c
00000280: caf2 603d 14bd 163d 8be1 ad3c 4507 b0ba
00000290: 1cbe 87bc 0799 6f3d ca73 5cbc d5e8 ccbd
000002a0: 9839 a539 26d7 e03b b548 5fbd 4487 e3bc
000002b0: 45da f0bb 6989 053d 0632 92bc 6510 863c
000002c0: e98c febb 5c2c 0bbc e4ba b03b 2bb8 c9bd
000002d0: 31eb 113d 2b47 0cbd ec01 a63d 5e86 443d
000002e0: ddbe dd3c ea6d 3ebd bd57 fa3c ee28 403d
000002f0: deaf c2bc fbd8 3bbc a5fd d93c 69da 663c
00000300: b71b c93c 2d1e e4bc 5d7d a5bc 4275 cdbc
00000310: 1ab1 b4bb 5194 8bbd df6b bd3b 9438 10bc
00000320: 7f55 e7bb 7c25 5d3d ea01 803d 5832 2b3d
00000330: 34ba 493d 5e1c 48bb cd0e ab3c 7706 01bd
00000340: a5e9 fd3c b2e8 323d 0ca2 68bd 69c2 833b
00000350: 541d 9fbc a5db 333d 4883 e13c b0dc 9c3d
00000360: 6366 b6bb 9a17 3abb 3f20 89bb 2cf7 c4bc
00000370: 8087 d43c 156b 053d 15a8 8c3d 4917 1a3d
00000380: c01e a13c dfb5 3abd d910 03bd 96c6 533d
00000390: 8682 7d3d 15a8 a93c 29b6 233d b6af 383c
000003a0: 7ff7 803c 28fa 2fbd 8f3a dc3c 843a 1d3d
000003b0: e521 3d3d bf58 b6bc 1147 ddbc c9f1 14bd
000003c0: fcee f43c c714 e03c 5edd 98bc e002 233c
000003d0: 39fd 05bc 6363 14bc 7028 fdbc 1287 513c
000003e0: c697 c8bc 749f d63b b79a 6d3d bb90 99bc
000003f0: 53da 30bb 5242 3fbc 405a c9bc 0b04 24bd
-0.06977903 -0.033260357 -0.015172676 -0.019820843 -0.018545158 -0.022831399 0.057713743 0.01601907
-0.029221956 0.06416755 4.9181715e-05 0.009690512 0.0103449635 -0.00058498664 0.007754157 -0.06318684
0.023960104 0.02208917 0.016131561 -0.0013891023 0.005963377 0.0041729696 -0.024750736 0.032317486
-0.058183104 -0.04659003 -0.04935101 -0.020913469 -0.0376116 -0.10378256 -0.017948033 0.09037084
-0.03715172 -0.04327719 2.3155542e-06 0.026794517 -0.015933026 0.023907848 0.042894483 0.05921835
-0.01173278 -0.0339461 0.017724054 0.011267478 -0.006751753 0.018564796 -0.0080593955 0.023899943
-0.0017128411 -0.01868478 -0.011592116 -0.012553592 -0.032615665 -0.0023524377 0.036792792 -0.035487425
-0.003786769 -0.0099188145 0.02828148 -0.013612056 -0.011942022 0.0073898835 -0.014482446 -0.03628134
0.034399897 -0.010172283 -0.029537596 -0.012202667 -0.008517105 0.0075924103 -0.030000143 -0.024146311
0.0038395845 0.07932602 -0.029891212 -0.050158057 -0.01956764 0.0026910661 -0.009741649 -0.008717756
0.0019008977 0.018694801 0.0095109865 0.06460911 0.059027623 0.059945896 0.029645812 -0.08715824
-0.0014822623 -0.05299523 -0.040995684 -0.0029675392 0.058759008 0.04261644 -0.022656338 0.0060806214
0.032891437 -0.06419266 0.018237622 -0.01477298 0.036654864 0.009356796 0.005496495 0.038512915
-0.026027657 -0.043632615 -0.01014022 0.009111224 0.014582053 0.06105794 -0.07692654 0.0058917133
-0.0689448 -0.035283342 -0.01171164 0.0032243019 -0.06973642 -0.0023001696 0.008209732 -0.022108385
-0.051004164 0.03754586 0.010083544 0.0338443 0.04936498 0.02645918 -0.0812158 0.0076863337
-0.027352355 0.036861327 -0.046847805 -0.025066929 0.01607114 -0.02096758 0.03804016 0.023592541
-0.029011466 -0.013646441 0.061555598 0.0062437677 0.02051989 0.05186897 -0.019384425 0.0151405465
0.042058706 -0.0072985976 -0.010724733 0.0010723511 -0.022541344 -0.01657821 0.062290963 0.07372102
0.0122808395 0.03326233 0.0653058 0.007459228 -0.04050308 0.001411113 0.02249961 0.023466337
0.05491904 0.036801413 0.021225711 -0.0013429901 -0.016570143 0.058495548 -0.013455341 -0.10005347
0.00031514163 0.006861585 -0.0545127 -0.02777446 -0.0073502385 0.032601748 -0.017846119 0.01636524
-0.0077682626 -0.008494463 0.005393373 -0.098495804 0.035624687 -0.03424756 0.08105835 0.047979705
0.02706855 -0.04649154 0.030559415 0.046914034 -0.0237655 -0.011465306 0.026610205 0.014090159
0.024549348 -0.02784642 -0.02020138 -0.025080327 -0.005514276 -0.068153985 0.0057806815 -0.008802552
-0.0070597525 0.053990826 0.06250365 0.04179606 0.049249843 -0.0030534486 0.020881081 -0.031500306
0.0309952 0.043678947 -0.056795165 0.004020978 -0.019423164 0.04391064 0.02752842 0.0765928
-0.0055664047 -0.0028395415 -0.0041847522 -0.024043642 0.025943518 0.032572825 0.068679966 0.037619863
0.019667983 -0.045583602 -0.03199849 0.05170306 0.061892055 0.02071003 0.039968643 0.0112723615
0.015743015 -0.042963177 0.026883392 0.038385883 0.046174902 -0.022259114 -0.027011426 -0.036363397
0.029899113 0.027353657 -0.018660244 0.009949416 -0.008178049 -0.009056899 -0.030903071 0.012788551
-0.024486434 0.00654977 0.058008876 -0.01874577 -0.00269856 -0.011673527 -0.024579167 -0.04004292
