dataset/US-11580261-B2/US-11580261-B2_abstract_emb.npy (npy, 3200 bytes, 1 tensors)

array f4 [768]
-0.06030902 -0.022531802 -0.008562134 -0.025887102 0.0015470173 -0.025586564 0.056012534 0.014836823
-0.03553368 0.06839459 -0.011382485 0.032725748 0.017909836 0.0041730334 0.004963761 -0.046132
0.044979747 0.019731326 0.01841736 -0.00939601 -0.008339563 0.0028679923 -0.010233069 0.037768733
-0.06961076 -0.032311525 -0.058613945 -0.013939546 -0.039794903 -0.10312432 -0.008279461 0.092933156
-0.025970154 -0.032305267 2.6047467e-06 0.02508096 -0.0153042935 0.020630065 0.035169132 0.058072045
-0.044295844 -0.055129275 0.0100857485 0.00034843976 -0.015064252 0.0032203447 0.0069434596 0.02884189
0.008656338 -0.01979478 -0.014812565 -0.0041674585 -0.04770697 -0.018851174 0.05390221 -0.03398396
0.0035101047 -0.028527867 0.029909343 -0.0063308296 -0.014822976 6.482438e-05 -0.018515721 -0.04501223
0.03164666 -0.020460486 -0.031828728 -0.0026015383 -0.0009673366 0.00795023 -0.016808717 -0.025906121
-0.014701679 0.08819317 -0.03212803 -0.03479952 -0.025852706 -0.007003518 -0.005151105 -0.011996476
0.016189657 0.035561543 0.009285137 0.06807875 0.04779797 0.08088679 0.03037992 -0.07256209
0.002250206 -0.03477115 -0.03882245 -0.02076042 0.054061454 0.047838863 -0.02354195 0.005928911
0.030346312 -0.0822279 0.020325858 -0.013758718 0.02285598 0.0033738618 0.018155029 0.041873377
-0.018227013 -0.046821322 -0.0009513389 0.022114499 0.004198414 0.072284244 -0.06685415 0.0026493843
-0.07391994 -0.04664449 -0.019289741 0.01004381 -0.06302816 -0.0012345003 0.013409376 -0.02089245
-0.03395704 0.04134294 -0.00556228 0.034817103 0.04087957 0.021805413 -0.0982172 0.008063044
-0.02748268 0.04281975 -0.045723055 -0.034753233 0.011943903 -0.006065223 0.035059985 0.02919224
-0.028991058 -0.0062814755 0.040912867 -0.01651158 0.020372145 0.047241535 -0.018725427 0.0006210761
0.030872446 0.008894532 -0.0028505763 0.0012953625 -0.01099576 -0.019639488 0.050872862 0.04532867
-0.0027735666 0.04302915 0.0628644 0.00036136984 -0.01889812 0.001621006 0.029262213 0.029797334
0.061985746 0.0456097 0.027969774 0.00788562 -0.02100239 0.04464418 -0.0058689113 -0.10590749
-0.0073387045 0.008536371 -0.032057114 -0.02099626 -0.005637682 0.008240885 -0.0112644015 0.042037286
-0.01917552 0.00092865113 0.00088861276 -0.09262169 0.03274893 -0.023029814 0.068087906 0.047745768
0.05261695 -0.048968263 0.025740538 0.047515247 -0.035791963 -0.011382643 0.005208582 0.012544732
0.03428454 -0.0150585435 -0.009022721 -0.02040036 -0.017740175 -0.03948421 0.019940285 -0.0035953892
0.00094313035 0.04191816 0.067644574 0.050984837 0.04689554 0.0016466341 0.051263317 -0.037151963
0.030423118 0.04076037 -0.06398156 -0.0050079 -0.031853266 0.050890695 -0.0014813736 0.09561087
-0.011143912 -0.010876114 -0.0058630016 -0.014383333 0.027714398 0.017679285 0.065976664 0.036506314
-0.014390565 -0.06521191 -0.04573582 0.04190732 0.056401253 0.025555192 0.031854857 0.011905359
0.0007565733 -0.032593425 0.029959219 0.025122207 0.037348337 -0.014582783 -0.025012266 -0.05216742
0.031679146 0.04999379 -0.013191136 0.015161915 0.0100077195 -0.01149684 -0.047090996 0.00024536796
-0.036211375 0.022022737 0.064910926 -0.018044503 -0.020914938 0.002069095 -0.0051486767 -0.041988105
00000000: 9706 77bd 9d94 b8bc 3148 0cbc 3011 d4bc
00000010: 49c5 ca3a ea9a d1bc 666d 653d 2516 733c
00000020: c48b 11bd 7612 8c3d 9a7d 3abc 6f0b 063d
00000030: a6b7 923c f1bd 883b 0ca7 a23b e8f4 3cbd
00000040: af3c 383d 97a3 a13c 01e0 963c b9f1 19bc
00000050: aaa2 08bc edf4 3b3b 9aa8 27bc 63b3 1a3d
00000060: 1690 8ebd 1759 04bd 2d15 70bd b262 64bc
00000070: fbff 22bd d832 d3bd 94a6 07bc bd53 be3d
00000080: 5cbf d4bc 8752 04bd 35cd 2e36 9676 cd3c
00000090: dcbe 7abc 6200 a93c 820d 103d f4dc 6d3d
000000a0: 8f6f 35bd 3ccf 61bd b23e 253c cbae b639
000000b0: 0dd0 76bc 6b0c 533b f685 e33b d445 ec3c
000000c0: 50d3 0d3c aa28 a2bc 67b0 72bc 2d8f 88bb
000000d0: 6268 43bd c76d 9abc 90c8 5c3d c432 0bbd
000000e0: c909 663b 46b3 e9bc 7004 f53c d972 cfbb
000000f0: 11dc 72bc 53f2 8738 48ae 97bc be5e 38bd
00000100: ee9f 013d c09c a7bc d75e 02bd 927e 2abb
00000110: dc94 7dba ae41 023c 6fb2 89bc 1339 d4bc
00000120: 50df 70bc 9f9e b43d ae98 03bd f189 0ebd
00000130: 0ec9 d3bc c47d e5bb 9aca a8bb de8c 44bc
00000140: 2ca0 843c fba8 113d b020 183c df6c 8b3d
00000150: cec7 433d f9a7 a53d 4fdf f83c 6f9b 94bd
00000160: 3178 133b 326c 0ebd 4a04 1fbd c211 aabc
00000170: 8b6f 5d3d aff2 433d 0cdb c0bc 4f47 c23b
00000180: d498 f83c 1a67 a8bd 6a82 a63c 3f6c 61bc
00000190: 773c bb3c 021c 5d3b dbb9 943c 6b83 2b3d
000001a0: d150 95bc b7c7 3fbd 4663 79ba 7729 b53c
000001b0: d992 893b c309 943d d4ea 88bd 4ba1 2d3b
000001c0: 5663 97bd 4b0e 3fbd 8505 9ebc cb8e 243c
000001d0: e814 81bd f5ce a1ba 00b3 5b3c a526 abbc
000001e0: 8a16 0bbd 3757 293d c943 b6bb 619c 0e3d
000001f0: 5671 273d 44a1 b23c 1926 c9bd dc1a 043c
00000200: 5b23 e1bc c363 2f3d 1948 3bbd 6859 0ebd
00000210: 5cb0 433c c7be c6bb 0f9b 0f3d 9124 ef3c
00000220: a87e edbc d6d4 cdbb 4094 273d 4b43 87bc
00000230: 7ce3 a63c 5780 413d 1166 99bc b6cf 223a
00000240: 36e8 fc3c 5fba 113c bcd0 3abb 27c9 a93a
00000250: 8f27 34bc fee2 a0bc 1060 503d 8eaa 393d
00000260: bac4 35bb 563f 303d 0dbf 803d 3d76 bd39
00000270: 3bd0 9abc f077 d43a 4fb7 ef3c 8a19 f43c
00000280: c4e4 7d3d 3dd1 3a3d de20 e53c b032 013c
00000290: 340d acbc d1dc 363d ff4f c0bb 07e6 d8bd
000002a0: 8479 f0bb 23dc 0b3c 524e 03bd 5900 acbc
000002b0: 4ebc b8bb c704 073c 538e 38bc 4a2f 2c3d
000002c0: fb15 9dbc b970 733a cbf1 683a 71b0 bdbd
000002d0: be23 063d 05a9 bcbc ac71 8b3d 1191 433d
000002e0: df84 573d f292 48bd d2dd d23c 599f 423d
000002f0: 989a 12bd 447e 3abc c1ac aa3b 6b88 4d3c
00000300: f26d 0c3d 1cb8 76bc 09d4 13bc a81e a7bc
00000310: d853 91bc 32ba 21bd cf59 a33c 9fa0 6bbb
00000320: 683c 773a 60b2 2b3d 3d89 8a3d 7ad5 503d
00000330: 8a15 403d dfd3 d73a 7cf9 513d a82c 18bd
00000340: e739 f93c 59f4 263d c408 83bd 4f19 a4bb
00000350: 9278 02bd c372 503d a62a c2ba a2cf c33d
00000360: f494 36bc ba31 32bc 6c1e c0bb 12a8 6bbc
00000370: 4e09 e33c 26d4 903c c61e 873d a587 153d
00000380: 68c6 6bbc d28d 85bd 7c55 3bbd 03a7 2b3d
00000390: 0005 673d 1f59 d13c 3d7a 023d b20e 433c
000003a0: c654 463a af80 05bd 096d f53c 16cd cd3c
000003b0: 92fa 183d a0ec 6ebc 86e6 ccbc 81ad 55bd
000003c0: fec1 013d 4ac6 4c3d a21f 58bc ae69 783c
000003d0: 6bf7 233c 3e5d 3cbc 7de2 40bd bba4 8039
000003e0: 6152 14bd 0769 b43c 05f0 843d 11d2 93bc
000003f0: ce55 abbc a799 073b 3bb6 a8bb b8fb 2bbd
