dataset/US-11403538-B1/US-11403538-B1_abstract_emb.npy (npy, 3200 bytes, 1 tensors)

array f4 [768]
0	0xbd8c1774	-0.06840411
1	0xbd1bd4ef	-0.038044866
2	0xbc5a3c8d	-0.0133201005
3	0xbc9c4cdd	-0.01907962
4	0xbc64aba8	-0.013956942
5	0xbc8b010c	-0.016968273
6	0x3d3ba80c	0.04581456
7	0x3c93b1d5	0.018029133
8	0xbd050965	-0.032479662
9	0x3d7e6081	0.062103752
10	0x39e283eb	0.00043204366
11	0x3d000962	0.03125895
12	0x3c3cb1db	0.011517013
13	0x3c6d0966	0.014467573
14	0x3ba27e84	0.0049589295
15	0xbd415fe8	-0.047210604
16	0x3ccde46d	0.025133336
17	0x3cb0aca9	0.021566706
18	0x3ca466c6	0.020068537
19	0xbc5a8b14	-0.013338823
20	0x38d33b8f	0.00010072358
21	0x3c0d2251	0.008614139
22	0xbd2105a3	-0.039312016
23	0x3d256e75	0.040388543
24	0xbd70f58f	-0.058827933
25	0xbd1754ce	-0.03694611
26	0xbd4c1f67	-0.049834635
27	0xbcc37ac9	-0.02386226
28	0xbd2249f1	-0.039621297
29	0xbdd4cd94	-0.103907734
30	0xbc5c0713	-0.013429421
31	0x3da4cd6d	0.08046994
32	0xbd340dea	-0.043958582
33	0xbd42f4a5	-0.047596592
34	0x362bd573	2.560523e-06
35	0x3d0daaad	0.034586597
36	0xbcc1a949	-0.023640292
37	0x3ccdb739	0.025111781
38	0x3d2424fd	0.040074337
39	0x3d72ccb6	0.05927726
40	0xbd00c540	-0.031438112
41	0xbd1b97a2	-0.037986405
42	0x3ca59614	0.020213164
43	0x3c0a978c	0.008458983
44	0xbc9ef39d	-0.019403273
45	0x3b85cd56	0.004083316
46	0x3c3f4184	0.011673335
47	0x3d031c8c	0.032009646
48	0xbaf4ae12	-0.00186676
49	0xbced9855	-0.029003302
50	0xbc5d9a8f	-0.013525619
51	0xbc352932	-0.011057185
52	0xbd438e60	-0.0477432
53	0xbbe616af	-0.007021747
54	0x3d632400	0.055454254
55	0xbd087dac	-0.033322975
56	0x3c6301fe	0.013855455
57	0xbd11ee17	-0.03562745
58	0x3cd9c840	0.026584744
59	0xba9db0c5	-0.0012030831
60	0xbc176e44	-0.009242598
61	0xbb0463f2	-0.0020201174
62	0xbcac9e39	-0.02107154
63	0xbd1cc62e	-0.038274936
64	0x3d396c47	0.045269277
65	0xbc0b6323	-0.008507523
66	0xbce19430	-0.027536482
67	0xbc93ab11	-0.018025907
68	0xbc593435	-0.013257076
69	0x3c3cf538	0.011533074
70	0xbc42ce9b	-0.011890079
71	0xbc9ed7b9	-0.019389974
72	0xbc4628d0	-0.012094691
73	0x3db291d1	0.087192185
74	0xbce895cf	-0.028391747
75	0xbd1f7129	-0.038926277
76	0xbc63e0a4	-0.013908539
77	0x3b84f6a5	0.0040577226
78	0xbbf5daf1	-0.0075029065
79	0xbbe6f943	-0.0070487573
80	0x3ba3cfda	0.004999143
81	0x3d2d0018	0.042236418
82	0x3c79f0bc	0.015255149
83	0x3d8aa08e	0.067689046
84	0x3d68ad9c	0.05680619
85	0x3da79b9b	0.08183976
86	0x3d0d26f6	0.034460984
87	0xbd86b321	-0.06577135
88	0x3bdad837	0.006678607
89	0xbd225c9c	-0.0396391
90	0xbd78d1c9	-0.06074694
91	0xbc33ec15	-0.010981579
92	0x3d809afc	0.06279561
93	0x3d596829	0.05307785
94	0xbc672578	-0.014108054
95	0x3c29400f	0.010330214
96	0x3d29f6fa	0.0414953
97	0xbd72b2a2	-0.05925239
98	0x3cb16c6f	0.02165815
99	0x3ab0e743	0.0013496656
100	0x3cf89e51	0.030348929
101	0x3c0b7fe0	0.0085143745
102	0x3b6b8ada	0.0035940916
103	0x3d304a28	0.04303947
104	0xbcb41938	-0.021984681
105	0xbd201d52	-0.039090462
106	0xb9d2bac5	-0.00040193475
107	0x3b42b5a6	0.0029710322
108	0x3ccad8ba	0.024761546
109	0x3d93fd42	0.072260395
110	0xbd75d88a	-0.06002096
111	0x3bfb6cd5	0.007672886
112	0xbd808853	-0.06276002
113	0xbd4f359d	-0.05058824
114	0xbcd716b7	-0.026255948
115	0x3c6ad412	0.014332788
116	0xbd6f26e1	-0.058386687
117	0xbae0bb59	-0.0017145678
118	0xbabffbd4	-0.0014647194
119	0xbcea48af	-0.028599111
120	0xbd34136c	-0.043963835
121	0x3d0af2d2	0.033922978
122	0x3a79990e	0.0009521403
123	0x3d043944	0.032281175
124	0x3d1a002f	0.03759783
125	0x3c6264a2	0.013817938
126	0xbdc4b067	-0.096039586
127	0x3c39019a	0.011291886
128	0xbccc761d	-0.024958665
129	0x3d509981	0.050927643
130	0xbd366c35	-0.044536788
131	0xbd19fa85	-0.03759243
132	0x3a412b1d	0.000736879
133	0xbc2fe18c	-0.010734927
134	0x3d250d2c	0.040295765
135	0x3cb853d0	0.022500902
136	0xbc987bbc	-0.018613689
137	0xbad05f58	-0.0015897555
138	0x3d3fbacf	0.046809014
139	0xbb34eba4	-0.0027606273
140	0x3c5e6cf0	0.013575777
141	0x3cfed8f1	0.031109305
142	0xbccccec0	-0.02500093
143	0x3b6dd372	0.0036289361
144	0x3d23a947	0.039956357
145	0xbb8a32f2	-0.004217499
146	0xbc0a255a	-0.008431757
147	0xbb11c24a	-0.002224105
148	0xbc21a9b9	-0.009867125
149	0xbce4752b	-0.027887901
150	0x3d4c65e1	0.049901847
151	0x3d7a5477	0.06111571
152	0x3c876780	0.016528845
153	0x3d4e9c56	0.050442062
154	0x3d84efe7	0.0649107
155	0x3b031867	0.0020003559
156	0xbcdb92c7	-0.026803387
157	0x3b8afeda	0.0042418065
158	0x3ccc7761	0.024959268
159	0x3c5aadca	0.013347099
160	0x3d8adb99	0.06780166
161	0x3d1af350	0.037829697
162	0x3cbc90aa	0.0230182
163	0x3b9452e4	0.004526483
164	0xbc38ca22	-0.011278661
165	0x3d5e015f	0.054200526
166	0xba84e0d5	-0.0010137806
167	0xbdd635ce	-0.10459481
168	0xbb03896b	-0.002007092
169	0x3c54ede8	0.012996174
170	0xbd34fb86	-0.044185184
171	0xbce57128	-0.028008059
172	0xbc84dff4	-0.01622007
173	0x3cb3fb69	0.021970468
174	0xbd02794c	-0.03185396
175	0x3cc0f2f8	0.023553357
176	0xbc976df7	-0.018485053
177	0x3b7fca00	0.0039030313
178	0xbb2cb194	-0.0026350962
179	0xbdb8e167	-0.09027367
180	0x3ce1c3fe	0.027559277
181	0xbd2cd9a4	-0.042199746
182	0x3d909d29	0.07061226
183	0x3d63d96a	0.055627264
184	0x3d2f9160	0.04286325
185	0xbd4b6997	-0.049661245
186	0x3d22b4c4	0.039723173
187	0x3d35e681	0.04440928
188	0xbce977e3	-0.02849955
189	0xbbc93abc	-0.006141035
190	0x3c3462b6	0.011009863
191	0x3c0edf7a	0.008720273
192	0x3ce04d78	0.02738069
193	0xbcc3235d	-0.023820573
194	0xbca2f48a	-0.019891996
195	0xbccc7865	-0.024959752
196	0xbc3b4f95	-0.011432548
197	0xbd33700f	-0.04380804
198	0x3c2ab70c	0.010419618
199	0xbc00c3bf	-0.0078591695
200	0xbbcdd3a5	-0.0062813335
201	0x3d2fa6ee	0.042883806
202	0x3d8b1838	0.06791729
203	0x3d3172e4	0.04332246
204	0x3d305539	0.043050025
205	0xbc39158d	-0.011296642
206	0x3d17327a	0.036913373
207	0xbd0a807e	-0.033813946
208	0x3c9cc04a	0.01913466
209	0x3d579deb	0.052640837
210	0xbda4c698	-0.08045691
211	0xbb1f83a8	-0.0024339948
212	0xbce55eaa	-0.02799924
213	0x3d5693f7	0.052387204
214	0x3c75bd7c	0.01499879
215	0x3da856aa	0.08219655
216	0xbbdfb969	-0.0068275225
217	0xba4232c4	-0.00074080774
218	0xbbad34cb	-0.0052858344
219	0xbc8776ed	-0.0165362
220	0x3c223e89	0.009902605
221	0x3cb3e031	0.021957489
222	0x3d8df577	0.06931584
223	0x3d50b604	0.050954834
224	0x3a6fbb87	0.000914507
225	0xbd615f4b	-0.05502252
226	0xbd15265a	-0.036413528
227	0x3d3b6aca	0.04575614
228	0x3d67acbc	0.056561217
229	0x3c9104fc	0.017702572
230	0x3ce956dd	0.028483802
231	0x3c5a839a	0.01333704
232	0x3c138a59	0.009005153
233	0xbd173361	-0.036914233
234	0x3cad8fdb	0.02118676
235	0x3cc6e042	0.024276856
236	0x3d487d52	0.04894764
237	0xbc157bd5	-0.009123762
238	0xbc55bf23	-0.013046059
239	0xbd5eeb63	-0.0544237
240	0x3d01a003	0.03164674
241	0x3d16fb40	0.036860704
242	0xbc4ba1a4	-0.012428675
243	0x3c64a177	0.013954512
244	0xbbc49261	-0.005998895
245	0xbc22ba99	-0.009932184
246	0xbcf24684	-0.02957464
247	0xbb8b0837	-0.0042429226
248	0xbcdeba40	-0.02718842
249	0x3c064278	0.008194558
250	0x3d6957a2	0.05696834
251	0xbccc14fb	-0.024912348
252	0xbc04bec6	-0.008102125
253	0xbb1dd4aa	-0.0024083056
254	0xbc499f2f	-0.012306019
255	0xbd2f753a	-0.042836405
