dataset/US-11684439-B2/US-11684439-B2_claim_emb.npy (npy, 83072 bytes, 1 tensors)

array f4 [27, 768]
0	0xbd831a5e	-0.064015135
1	0xbcdc7867	-0.026912881
2	0xbc5a4457	-0.013321958
3	0xbd030a7a	-0.031992413
4	0xbc363b30	-0.01112251
5	0xbc7f0e48	-0.01556737
6	0x3d74c2a3	0.059755933
7	0x3c8db5d4	0.017298616
8	0xbcde9fe7	-0.027175857
9	0x3d874627	0.066051774
10	0x38357e6d	4.3271506e-05
11	0x3d325a36	0.043543063
12	0x3ca0cb48	0.019628182
13	0x3c0feecb	0.00878496
14	0x3b844e2d	0.0040376396
15	0xbd39f64e	-0.04540091
16	0x3c9e273d	0.01930582
17	0x3ccb4cd4	0.024816908
18	0x3c183b73	0.009291518
19	0xbc3f9045	-0.011692111
20	0xbb83f58b	-0.0040270737
21	0x3c05c282	0.00816405
22	0xbd09072c	-0.033454105
23	0x3d322e5d	0.043501247
24	0xbd8309d8	-0.06398362
25	0xbd19627b	-0.037447434
26	0xbd78ab8e	-0.060710482
27	0xbc4e67de	-0.012598006
28	0xbccefad6	-0.025266092
29	0xbdf680fc	-0.120363206
30	0xbb9f9b6e	-0.0048708236
31	0x3db8c5af	0.0902208
32	0xbcdea7c3	-0.027179604
33	0xbd3ed06f	-0.046585497
34	0x362e65c2	2.5987251e-06
35	0x3d1c5258	0.038164467
36	0xbcfa4e45	-0.0305549
37	0x3cf57018	0.029960677
38	0x3d0d8df8	0.03455922
39	0x3d63186a	0.055443205
40	0xbd09c6d1	-0.03363687
41	0xbcf2b0ad	-0.029625261
42	0x3cd5d5bd	0.026102895
43	0x3c8cc14c	0.017182015
44	0xbcec6497	-0.028856559
45	0xbb2a6433	-0.0025999665
46	0x3c8cd676	0.017192107
47	0x3ca2cade	0.019872125
48	0xbbccd6a2	-0.006251172
49	0xbc97d3fb	-0.018533697
50	0xbc2cb065	-0.010540103
51	0xbc67ddb5	-0.01415198
52	0xbd6fa455	-0.05850633
53	0xbc5030ed	-0.012706977
54	0x3d4405bf	0.047857042
55	0xbcb99871	-0.022655698
56	0x3cb79732	0.022410963
57	0xbb331bcc	-0.00273298
58	0x3c95499e	0.01822358
59	0xbc74f52c	-0.014951032
60	0xbc22316f	-0.009899481
61	0xbbf202a1	-0.0073855673
62	0xbcd8bb9c	-0.026456647
63	0xbd12303b	-0.035690527
64	0x3d246ce3	0.040142905
65	0xbc4c3787	-0.012464411
66	0xbc96400b	-0.018341085
67	0xbce307be	-0.027713653
68	0xbc1177af	-0.008878632
69	0x3c9d477c	0.019199125
70	0xbc8d6b68	-0.01726313
71	0xbcc89058	-0.024482891
72	0xb9bfdcd6	-0.00036594894
73	0x3dc0af81	0.09408475
74	0xbd3a5c7d	-0.04549836
75	0xbd38629e	-0.045015924
76	0xbc884794	-0.016635694
77	0xbbad5a74	-0.005290324
78	0xbb167ee8	-0.0022963826
79	0xbc05fe11	-0.00817825
80	0x3c285b32	0.010275649
81	0x3d760f36	0.0600731
82	0x3c3c11bf	0.01147884
83	0x3d9320ff	0.07184028
84	0x3d516966	0.051125906
85	0x3dba3793	0.09092631
86	0x3ce388b6	0.02777515
87	0xbd6a9001	-0.05726624
88	0x3a19a85a	0.0005861573
89	0xbd3cdcfd	-0.04610919
90	0xbd4464ab	-0.047947567
91	0xbcc1c7d8	-0.023654863
92	0x3d70f4ae	0.058827095
93	0x3d4c7126	0.049912594
94	0xbc1c84f2	-0.009553181
95	0x3bf79aec	0.00755631
96	0x3cdda90f	0.027058152
97	0xbd934b7e	-0.07192133
98	0x3d1b61f6	0.03793522
99	0x3be46d3a	0.0069710286
100	0x3cc66514	0.02421812
101	0x3c630586	0.013856297
102	0x3c4e1dc2	0.012580337
103	0x3d1355ed	0.035970617
104	0xbd1245de	-0.03571116
105	0xbcf55aca	-0.029950518
106	0xbbddf82a	-0.006773968
107	0x39acd889	0.00032967728
108	0x3cb9fd99	0.022703933
109	0x3d8cf1cf	0.06882059
110	0xbd5debb1	-0.05417985
111	0x3bd0408e	0.006355352
112	0xbd6282ac	-0.0553004
113	0xbd10e134	-0.03537102
114	0xbcf49cca	-0.02985992
115	0x3c3a9542	0.011388125
116	0xbd8a9586	-0.067668006
117	0xb99f956b	-0.00030438168
118	0xbb6563fb	-0.003500222
119	0xbd166a6e	-0.036722593
120	0xbcc91e7a	-0.024550665
121	0x3cfc1f7a	0.030776728
122	0xbc968e0a	-0.018378276
123	0x3d1f09be	0.03882765
124	0x3cf964f0	0.030443639
125	0x3c7ab11b	0.015301014
126	0xbdde8c03	-0.10866549
127	0x3c52c5f5	0.012864579
128	0xbc48a16f	-0.01224552
129	0x3d3f5b9c	0.046718225
130	0xbd4e21c9	-0.05032519
131	0xbd0eed22	-0.034894116
132	0xb9d83052	-0.00041234732
133	0xbbe4652a	-0.0069700675
134	0x3d06879b	0.032844167
135	0x3d122c80	0.03568697
136	0xbc5d6bf7	-0.01351451
137	0xba04b88a	-0.0005062899
138	0x3d36cac3	0.044626962
139	0xbb6d3427	-0.0036194415
140	0x3c90e3fe	0.01768684
141	0x3cbefcb3	0.023313856
142	0xbcca50b8	-0.024696693
143	0xbb6c667a	-0.0036071823
144	0x3d109458	0.03529772
145	0xbc31466b	-0.010820012
146	0xbba6c572	-0.0050894553
147	0xbc5a7505	-0.013333564
148	0xbb960963	-0.0045787557
149	0xbc34a05e	-0.011024563
150	0x3d6e4b94	0.058177546
151	0x3d7f718a	0.06236414
152	0xbb83c4a8	-0.004021246
153	0x3d472207	0.048616435
154	0x3d920544	0.071299106
155	0xbb284d3b	-0.0025680799
156	0xbcedaf5d	-0.029014284
157	0xba1df1a1	-0.000602508
158	0x3ca65692	0.020304952
159	0x3c6a09e4	0.014284585
160	0x3d5fecae	0.054669075
161	0x3d157702	0.036490448
162	0x3d1bb7e3	0.038017165
163	0xbace9a93	-0.001576262
164	0xbc5a75e5	-0.013333772
165	0x3d41b262	0.04728926
166	0x3b06b3f0	0.0020554028
167	0xbdd99a1d	-0.10625098
168	0xbc7b37f2	-0.015333163
169	0x3cb88167	0.022522641
170	0xbcee18bf	-0.029064534
171	0xbd0146f4	-0.031561807
172	0xbc864019	-0.016387986
173	0x3c305880	0.010763288
174	0xbcec1dc9	-0.028822796
175	0x3cf02f9d	0.029319579
176	0xbae7712e	-0.0017657632
177	0xbbf5f9c8	-0.007506583
178	0x3aa71651	0.001274774
179	0xbda04888	-0.07826334
180	0x3ca923a8	0.020646885
181	0xbd1259d0	-0.035730183
182	0x3d87fbc2	0.06639816
183	0x3d76cec2	0.060255773
184	0x3d5759eb	0.052575987
185	0xbcfaf61d	-0.030634934
186	0x3cd086fe	0.025454994
187	0x3d4cbf12	0.049986906
188	0xbcd7bac8	-0.026334181
189	0xbc2fd324	-0.010731492
190	0x3c2dd402	0.010609629
191	0x3c5ac35e	0.013352243
192	0x3d4e5b66	0.050380133
193	0xbaeb247f	-0.0017939954
194	0xbc7e439e	-0.015519051
195	0xbc7a4131	-0.015274332
196	0x3b5f9fe8	0.003412241
197	0xbd235fad	-0.039886165
198	0x3cc53631	0.024073692
199	0x3b64ddfc	0.0034922352
200	0xbc476160	-0.012169212
201	0x3ca7ff4c	0.020507477
202	0x3d80a961	0.062823065
203	0x3ccc0bdb	0.024907997
204	0x3d27c558	0.040959686
205	0xbcc9c723	-0.024631089
206	0x3cffc3e8	0.031221345
207	0xbd3f9446	-0.046772264
208	0x3cfdba85	0.030972729
209	0x3d414f07	0.047194507
210	0xbdaf036d	-0.08545575
211	0xbb2b03d1	-0.0026094804
212	0xbcb1db70	-0.021711081
213	0x3d287870	0.041130483
214	0x3b75effd	0.0037527077
215	0x3db550f5	0.08853332
216	0xbc2d6e90	-0.010585442
217	0xbc06b655	-0.008222182
218	0x3bb78a12	0.005601176
219	0xbac13105	-0.001473934
220	0x3c1d1b92	0.009589093
221	0x3d14bb2d	0.036311317
222	0x3d664051	0.05621368
223	0x3d4cb739	0.049979422
224	0x3a19f5de	0.0005873124
225	0xbd428130	-0.047486484
226	0xbd151119	-0.03639326
227	0x3d1d8f16	0.038466536
228	0x3d70109c	0.05860959
229	0x3bb4ac7f	0.005513727
230	0x3cf7bd2e	0.030241575
231	0x3c34e956	0.01104196
232	0x3ba2e5cb	0.004971241
233	0xbcf9560e	-0.030436542
234	0x3c5c350d	0.013440383
235	0x3cec6438	0.028856382
236	0x3d3cd860	0.04610479
237	0xbc1d53aa	-0.009602467
238	0xbba8e54c	-0.0051542874
239	0xbd9a4508	-0.07532698
240	0x3d082b54	0.033244446
241	0x3ce6c669	0.028170781
242	0xbc4f09b1	-0.012636588
243	0x3cd840cb	0.026398083
244	0xbb85eb88	-0.0040869154
245	0xbb17e68b	-0.0023178186
246	0xbd2555b0	-0.04036492
247	0xbc6a2df7	-0.014293185
248	0xbcccaa0d	-0.02498343
249	0x3bec62cc	0.007213926
250	0x3d83dbb3	0.06438389
251	0xbd11928b	-0.035540145
252	0xbb952e5c	-0.0045526456
253	0xbb72321a	-0.0036956132
254	0x3a1f83e0	0.00060850196
255	0xbd54a4c5	-0.05191495
