dataset/US-11379541-B2/US-11379541-B2_claim_emb.npy (npy, 64640 bytes, 1 tensors)

array f4 [21, 768]
00000000: 570e 39bd 8f30 7bbd a7ee 40bc af79 04bd
00000010: 45b0 48bc f8aa c7bc 7a95 613d 5e87 b93a
00000020: f7d1 20bd f714 813d b5b4 de3b 61fd b13c
00000030: bba5 813c 902b 733c 52d9 a73b bbb4 52bd
00000040: aea1 323d 6935 053c 5427 f73c c416 a1ba
00000050: c482 aabb a820 8139 38ef ecbc 7ef3 f83c
00000060: 6992 70bd 8333 acbc e252 57bd 948e b1bc
00000070: 82a6 0dbd 4ae3 cbbd ee0f 1cbc 34fd 9b3d
00000080: b389 0abd 3ba7 11bd 934c 2c36 5ecf fc3c
00000090: a3a2 a8bc e655 b43c 65fa 0e3d 623c 763d
000000a0: 6105 febc b07e 12bd dde6 893c e8b0 933c
000000b0: d7f3 86bc 378f bf3b dd60 623b e523 8e3c
000000c0: dd13 ebbb 531f 18bd ac41 45bc 0242 fa39
000000d0: c052 5ebd 05f9 82bc 0270 623d 1b79 1dbd
000000e0: 78cd 623b fc84 c73a 0c46 193d 83eb cbbb
000000f0: 3d4f 1abc a35c 923b 4eac 82bc 8822 2fbd
00000100: 2ef0 443d ff3e 1cbc c04a e7bc c2e5 90bc
00000110: c9ee 7bbc 7ac7 b83b 21fb 5cbc 9b91 b8bc
00000120: ab96 89bb 5984 b83d 090d fabc 3e03 33bd
00000130: f442 9bbc 9fb5 1aba f0f7 06bc e293 aebc
00000140: 5856 953c 52b8 403d 7e69 34bb a5ca 803d
00000150: c2c4 903d e718 8b3d d0cd 193d 7d0a 91bd
00000160: f937 04bc 4d07 2fbd 0538 81bd 8ecb 2dbc
00000170: 7abf 763d 40dc 263d a004 c0bc 64fa ea3a
00000180: 446a e63c aa8a b2bd 61d4 713c ed27 1a3a
00000190: 0313 dc3c ca9a 253c 9325 1a3b adb1 3d3d
000001a0: 024a 92bc a19e 24bd 2cf3 92bb 1c9e 9c3c
000001b0: d880 343c aa38 843d b627 73bd 8bd6 fc3b
000001c0: 14d7 6fbd 9ead 50bd 0feb b4bc 062f 803c
000001d0: 8519 6ebd 42fa ddbb 0118 353c 60e7 25bd
000001e0: 6107 18bd 36d6 403d 8043 45ba c7e4 fa3c
000001f0: 459c 223d 4459 a73c a36c b7bd d2b4 9f3c
00000200: b0ae 0ebd 7e9a fc3c 66af 52bd 3794 cabc
00000210: 5c3c 1c3c a10a 31bc 1487 bf3c 1d01 033d
00000220: 12cf 09bd 62b1 1cbb bc3a 5a3d 097f 6cbc
00000230: aed8 ce3c 7c89 0e3d 5d83 8abc a6e9 233c
00000240: a621 4f3d b291 20bc ca96 8d3a 420d 2c3c
00000250: bf4d 61bc e6fe aabc a66a 7b3d 283d 883d
00000260: 3769 463b 79f0 313d 6e85 963d e927 053c
00000270: 883e 62bc 0b69 09bb 8708 bb3c 013e c93c
00000280: b5ed 563d d02f 323d 2724 bd3c 76f8 c0b9
00000290: f849 b3bc 5b08 0b3d aef9 13bc 5bcc dcbd
000002a0: b168 9dbb 4c2b a23c 622e 2abd ae29 4ebc
000002b0: f94b c9bc 4699 f93c c571 91bc 8794 ac3c
000002c0: fbd3 afbc cc06 fbbb 0f81 a93b c194 b4bd
000002d0: e1ea fc3c a752 cdbc 91c3 993d ffd8 873d
000002e0: a1f8 1b3d e683 49bd c05c 5b3c 06bb 783d
000002f0: 9c0d ecbc f1a6 cdbc f69f 1d3c b387 903b
00000300: 0538 0d3d 69e1 f6bc 4fb0 6cbc d0e3 a0bc
00000310: 86c8 19bc 3536 3fbd dd0d 873c 75bd 56bc
00000320: c9be dfb7 16c1 303d c87d b43d 213a 6d3d
00000330: 2f84 413d 4070 833b 31b8 403d 906e 1bbd
00000340: 10f1 f23c 57e7 363d 4833 78bd 1410 a2bb
00000350: 484e debc 9169 043d 7ba0 953b 789f a23d
00000360: df6e 1abc f755 eabb fb75 acbb dfca 0ebc
00000370: 4267 cb3c aef5 d63c 66ff aa3d da5e 253d
00000380: 60d8 eabb 7c65 32bd a49f e5bc 7a9f 393d
00000390: 6279 5e3d 0c40 9b3c 8cb6 a93c dec9 753c
000003a0: 96ba ceb9 9e61 48bd e0e3 d63c d37e 1e3d
000003b0: 5500 593d 6123 99bc c6ec 98bc a4f5 82bd
000003c0: 5103 d33c a426 d53c 9dc1 f6bb 0dec e63c
000003d0: 4472 08bb 0d1b e2bb 4cc8 6ebd 6b4a 24bb
000003e0: 3c98 fbbc 78e3 15bc cedf 7b3d 8b37 57bc
000003f0: 9649 9fbb 85f8 4ebc 5ee3 edba 87d1 21bd
-0.04517969 -0.061325606 -0.011775649 -0.03234261 -0.012249057 -0.024373516 0.055074193 0.0014154722
-0.039262738 0.06302827 0.0067964443 0.021727266 0.015826097 0.014841929 0.005122342 -0.05144189
0.04361122 0.00813041 0.03017012 -0.001229011 -0.0052035768 0.00024629128 -0.028922662 0.030389544
-0.058733378 -0.021020656 -0.052569278 -0.021674432 -0.034582622 -0.09955461 -0.009525282 0.07616654
-0.033822726 -0.035559874 2.567457e-06 0.0308606 -0.020585364 0.022013616 0.034906764 0.06011618
-0.031008424 -0.03576535 0.016833717 0.018028691 -0.016473694 0.00584593 0.0034542598 0.0173511
-0.0071739987 -0.037139248 -0.012039583 0.00047732895 -0.054278135 -0.015987882 0.0552826 -0.038445573
0.0034607332 0.0015222128 0.037420318 -0.0062231435 -0.009418306 0.0044666096 -0.015951302 -0.04275754
0.048080616 -0.009536504 -0.028233886 -0.017687682 -0.015376755 0.005639014 -0.013487608 -0.022530368
-0.004198869 0.09009618 -0.030523794 -0.043704264 -0.018952824 -0.00059016974 -0.008237824 -0.02131075
0.018229648 0.04705078 -0.0027528699 0.062886514 0.070687786 0.06791859 0.037549794 -0.070820786
-0.008069986 -0.042731572 -0.06309513 -0.010607613 0.0602412 0.04073739 -0.023439705 0.0017927405
0.028126843 -0.08717854 0.014760108 0.0005880583 0.026864534 0.010107705 0.002352093 0.046312023
-0.017857555 -0.040190343 -0.0044845548 0.019118361 0.011017047 0.0645612 -0.059364043 0.007716005
-0.058554724 -0.050946824 -0.02208474 0.015647423 -0.058129806 -0.006774218 0.011053086 -0.04050386
-0.037116412 0.047079287 -0.0007525012 0.030626668 0.03969981 0.020428307 -0.08956268 0.019495402
-0.034834564 0.030835386 -0.051436804 -0.024728877 0.009535875 -0.010805757 0.02337984 0.031983484
-0.033644743 -0.002390944 0.05327867 -0.014434584 0.025249805 0.034799084 -0.016908342 0.010004437
0.0505692 -0.0098003615 0.0010802385 0.010501208 -0.013751446 -0.020873498 0.061381005 0.0665229
0.0030275115 0.043442223 0.073496684 0.008127191 -0.013808854 -0.0020967152 0.022831215 0.024565699
0.05247279 0.04350263 0.023088528 -0.00036806212 -0.021885857 0.033943515 -0.009031696 -0.10781165
-0.00480374 0.019796036 -0.04154814 -0.012583179 -0.02457236 0.030468594 -0.017754445 0.021066917
-0.021463385 -0.0076607224 0.0051728557 -0.08817435 0.030873718 -0.025063826 0.075080045 0.066331856
0.038078908 -0.049198054 0.013388813 0.060725234 -0.028815083 -0.025104018 0.009620657 0.004410708
0.034477253 -0.03013678 -0.014446332 -0.01963988 -0.009386187 -0.046682555 0.016486103 -0.0131066935
-2.6672513e-05 0.04315289 0.08813053 0.057916764 0.0472452 0.004011184 0.04705066 -0.037947237
0.029655963 0.044654217 -0.06059578 -0.0049457643 -0.027136937 0.03232724 0.00456625 0.079405725
-0.009425848 -0.007151361 -0.005263088 -0.00871536 0.02482951 0.026240196 0.08349495 0.04037366
-0.007166907 -0.043553814 -0.028030224 0.045318104 0.05431498 0.018951438 0.020716928 0.015001742
-0.000394304 -0.04892122 0.026231706 0.038695168 0.052978832 -0.018693628 -0.01866759 -0.063945085
0.025758417 0.026019402 -0.0075304047 0.02818873 -0.002082006 -0.0069001974 -0.058296487 -0.002506877
-0.03071224 -0.009148471 0.061492734 -0.013135801 -0.004861067 -0.012632494 -0.0018149426 -0.03950646
