dataset/US-11337693-B2/US-11337693-B2_abstract_emb.npy (npy, 3200 bytes, 1 tensors)

array f4 [768]
00000000: 01f5 6cbd 956b d8bc bb4c 2fbc bc07 6cbc
00000010: 71cb 0cbb 04a3 91bc 0cd9 7f3d bc28 c33c
00000020: 6db7 13bd 214d 773d 247c d8ba 68b0 2b3d
00000030: 2f13 bf3c e95e cfbb 0ebf 123c cb1c 2ebd
00000040: 15c4 0b3d 3209 cf3c 4390 713c 1dc2 20bc
00000050: 1e78 f7bb aaca 4f3b ff62 67bc b520 293d
00000060: 417d 64bd 869e e2bc a486 66bd 41fd a1bc
00000070: 2a1d f1bc a8d2 e6bd 5e99 89bc c455 b63d
00000080: 366d ebbc e1fa 06bd 9f9d 3536 8b26 a43c
00000090: 2a7f d5bc 06bb 9c3c 0622 093d f981 793d
000000a0: 33df 3dbd 1ffe 3cbd cd43 8b3c 303f ae3b
000000b0: 4b0c a7bc 699b 843c 9999 bf3b f765 bd3c
000000c0: fea8 b83b 8257 ddbc c1d2 6cbc 8aba 86bc
000000d0: 7d7f 7cbd 4b5c 2fbc 3128 513d 6d69 1cbd
000000e0: 765b 653c 456b debc 083a a53c 1d13 e6bb
000000f0: 0740 75bc 328e 573a 8887 cabc 13c7 3fbd
00000100: daea 1d3d d467 3cbc 7580 efbc 704d 6dbc
00000110: 5378 153b b9e4 913b 7042 e7bb 37c9 02bd
00000120: 33ac 09bc 86e7 c33d 48dd 28bd 7097 1dbd
00000130: 20ff c3bc aaf5 59bb f228 00bc 37a9 58bc
00000140: 3551 043c 41a3 583d 18e4 3f3c 330c 953d
00000150: 357f 5b3d c90c ae3d 7069 dc3c ea3b 7bbd
00000160: 1bb3 ec3b ac70 26bd 08e2 75bd a0b5 9fbc
00000170: 74ea 5a3d 3385 653d 95e8 d6bc cd4a 6dbb
00000180: 85f7 1f3d 13cc b0bd b4e3 a73c 1fa4 91bb
00000190: d2c8 eb3c 577f 7d3b b419 413c 352f 2e3d
000001a0: 3e4b b1bc 9ac1 39bd 36bb 36ba 7b3c ac3c
000001b0: c679 133b f3f2 8d3d 2946 77bd 3af7 df3b
000001c0: 5ded 79bd 6789 23bd 0e3a d9bc 1588 573b
000001d0: 3be9 64bd 148a d7bb 5f27 8c3b 1ab2 13bd
000001e0: 0ead 04bd d62d 0d3d 0cc9 82bc 9949 1d3d
000001f0: 23c7 283d dea9 6a3c c1e6 c2bd 6be4 ca3b
00000200: d341 e6bc 1795 283d 351a 4abd 6b62 e3bc
00000210: 1394 0c3c 183b 94ba 08e2 e83c 6aae e03c
00000220: 6e89 a4bc 6ac4 64bb f9ee 303d f905 27bc
00000230: f667 163c 0c58 3d3d f96b e7bc b06b 223b
00000240: 4f4f df3c 69f0 dbbb 6b6f 20bc e2cb 41bc
00000250: 4b52 47bc ab86 18bc 0ead 6c3d 1061 753d
00000260: 814f 893b da81 363d 9dc9 843d 1cf3 4c3a
00000270: b454 e1bc ffdf 1f3b 426d 1a3d 5c14 ef3c
00000280: a1bb 693d 79fd 1b3d cb88 df3c 0568 c73a
00000290: 349d b5bc 9e79 133d 59dd 013b afbe c8bd
000002a0: 03ca 43bb b0e4 913c 77ec f0bc 554b 77bc
000002b0: 5686 22bc 3fed b43b 9aaf 8ebc 5b40 113d
000002c0: 6d72 1ebc 5a02 093c 9cfb 62b9 5898 bfbd
000002d0: 5477 f23c de68 04bd 10d6 913d 33f3 5e3d
000002e0: 49da 1d3d 5061 51bd fb5f 203c 0190 773d
000002f0: d957 09bd fbb0 10bc ca7b f73b dd7c 3d3c
00000300: 4593 1e3d eafa 3bbc 9de6 39bc a44f 97bc
00000310: 12d7 2cbc 2d32 38bd 9e9c c13c 1517 6cbb
00000320: 5c12 d33b 42e9 d53c 5182 953d 0cd3 293d
00000330: 5250 2c3d fa21 11bc 04dc 203d daba 26bd
00000340: 55a1 0e3d 9849 2b3d 9b4d 8ebd eb49 0abc
00000350: 503d b4bc fb2c 053d f256 863b 129a c43d
00000360: 81eb 73bc 150b 663a c55c 9bbb 5054 7abb
00000370: 9c70 c13c 2a5c dc3c 62f0 773d 553c 323d
00000380: 991a c2bb df24 55bd eac6 21bd d3f0 023d
00000390: 1e94 793d 79d5 d33c ad54 f93c 84c5 583c
000003a0: 8736 153c 8866 13bd 37ba b83c 8f85 de3c
000003b0: 875c 293d 5051 f9bb f415 87bc d074 86bd
000003c0: 95ef d93c 27d2 133d 87c9 e1bb 6f39 a53c
000003d0: cdfe 143c e9e8 14bb efe4 3cbd 79f6 18bc
000003e0: e38d 03bd 88c3 0a3c 0c97 7d3d 5fbe d2bc
000003f0: 80e7 7abc 5e34 92ba 40e5 183c 5cc3 2cbd
-0.05785084 -0.026418487 -0.010699446 -0.014406141 -0.0021483565 -0.017777927 0.06246285 0.023823135
-0.0360636 0.06037629 -0.0016516489 0.04191628 0.023324577 -0.006328453 0.008956684 -0.042507928
0.034122545 0.02527294 0.014743867 -0.009811905 -0.007552161 0.003170649 -0.014122724 0.041290957
-0.055783514 -0.02766348 -0.056280747 -0.019774081 -0.029432852 -0.11270648 -0.016796764 0.08903077
-0.0287386 -0.0329541 2.706285e-06 0.02003791 -0.026061613 0.019132148 0.033479713 0.060914967
-0.046355437 -0.046140786 0.017000103 0.005317591 -0.020391604 0.016187387 0.0058471677 0.02311991
0.00563538 -0.027019266 -0.0144545445 -0.01644637 -0.06164502 -0.010703157 0.05106372 -0.03818648
0.013998857 -0.02715076 0.020169273 -0.0070213214 -0.014968879 0.0008222788 -0.02472283 -0.04682071
0.03855405 -0.011499364 -0.029236058 -0.014483795 0.0022807315 0.0044523147 -0.0070574805 -0.031930175
-0.008402872 0.09565644 -0.041226655 -0.0384745 -0.023925364 -0.0033258 -0.007822262 -0.013223938
0.008076002 0.052890066 0.011712097 0.072777174 0.05358811 0.08498532 0.026905745 -0.061336435
0.0072234995 -0.040634796 -0.060030013 -0.019495785 0.05344625 0.05603523 -0.02623395 -0.0036207915
0.039054412 -0.08632674 0.02049432 -0.0044446136 0.028782282 0.0038680637 0.011785913 0.04252549
-0.021642324 -0.04535065 -0.00069706456 0.021024933 0.0022503003 0.069311045 -0.060369644 0.0068348916
-0.061017383 -0.03992596 -0.02651694 0.0032887508 -0.05588649 -0.0065777395 0.0042771543 -0.036058523
-0.0323916 0.03446754 -0.015965007 0.038400266 0.041205537 0.014322726 -0.09516669 0.0061917803
-0.02810756 0.04115781 -0.0493414 -0.02775689 0.0085802255 -0.0011309115 0.028428093 0.027426917
-0.020085063 -0.003490711 0.043196652 -0.010194295 0.00918006 0.046226546 -0.028249728 0.0024783425
0.027259497 -0.0067120087 -0.009792189 -0.011828395 -0.012165616 -0.009309451 0.057782225 0.05990702
0.004190386 0.04455743 0.06483767 0.00078182085 -0.02750621 0.0024394987 0.037701853 0.029184513
0.057063702 0.038083527 0.027286908 0.0015213495 -0.022169687 0.036004655 0.0019815771 -0.09801995
-0.0029875047 0.017809242 -0.02940963 -0.015093644 -0.0099197235 0.005521446 -0.017417718 0.035461765
-0.009670836 0.008362377 -0.00021646771 -0.09355229 0.029597916 -0.03232657 0.07120907 0.05443115
0.03853825 -0.051118195 0.0097885085 0.060440067 -0.033531044 -0.008831258 0.0075525986 0.011565414
0.038714666 -0.011473397 -0.011346486 -0.018470593 -0.010549324 -0.044969726 0.023634251 -0.00360245
0.0064413976 0.026112203 0.073002465 0.041461036 0.042068787 -0.008858198 0.039272323 -0.04070554
0.034821827 0.04181823 -0.06948396 -0.008440475 -0.022001892 0.0325136 0.00409972 0.09599699
-0.0148876915 0.0008775455 -0.0047412836 -0.0038197227 0.023613267 0.026899416 0.06053198 0.04351457
-0.005923581 -0.052037116 -0.03949634 0.03196795 0.06093227 0.025858628 0.030435884 0.013230685
0.009107239 -0.035986453 0.022549732 0.027163295 0.041348007 -0.00760857 -0.01648996 -0.06565249
0.0266035 0.03608909 -0.006890479 0.020168988 0.009093952 -0.0022721833 -0.046116766 -0.009336107
-0.032117736 0.00846947 0.061911628 -0.025725542 -0.015313983 -0.0011154523 0.009332001 -0.042178497
