dataset/US-11120266-B2/US-11120266-B2_abstract_emb.npy (npy, 3200 bytes, 1 tensors)

array f4 [768]
0	0xbd60e7f1	-0.054908697
1	0xbcd25f7c	-0.025680296
2	0x3b2c151f	0.0026257706
3	0xbd31a8f8	-0.04337403
4	0xbc35549e	-0.011067538
5	0xbc763209	-0.015026578
6	0x3d2e7c3d	0.04259895
7	0x3c7e2019	0.015510582
8	0xbcb27b90	-0.021787435
9	0x3d75d84c	0.06002073
10	0xbb98f85d	-0.004668279
11	0x3cc77cf9	0.024351584
12	0x3c7009bc	0.014650758
13	0xbc31e37e	-0.010857461
14	0x3bfecf34	0.0077761654
15	0xbd74f088	-0.0597997
16	0x3d056880	0.032570362
17	0x3ca408dd	0.020023758
18	0x3bf97bd0	0.0076136366
19	0xbbee2c80	-0.0072684884
20	0xbc90dc95	-0.017683307
21	0x3c8fd0aa	0.017555553
22	0xbcb71fb0	-0.022353977
23	0x3d113b37	0.035456862
24	0xbd6e458b	-0.05817179
25	0xbd0713fe	-0.03297805
26	0xbd8728e6	-0.06599598
27	0xbc22dbf4	-0.009940136
28	0xbd2b767d	-0.041861046
29	0xbdbf6eeb	-0.09347328
30	0xbbbb3f81	-0.0057143574
31	0x3dbc873c	0.092054814
32	0xbd07269f	-0.032995816
33	0xbcddbbe1	-0.027067127
34	0x363509eb	2.6976875e-06
35	0x3c3d071a	0.011537338
36	0xbca6b415	-0.020349542
37	0x3c853460	0.016260326
38	0x3d2219da	0.039575435
39	0x3d78c546	0.06073501
40	0xbcc6af0e	-0.024253394
41	0xbd7ebf3f	-0.062194105
42	0x3a4e86a8	0.0007878342
43	0xbb160672	-0.0022892025
44	0xbc7093f6	-0.014683714
45	0x3c11539c	0.008870032
46	0xbabcbe9e	-0.001440007
47	0x3c94484b	0.018100878
48	0x3c057b2f	0.008147045
49	0xbd056031	-0.03256244
50	0xbc1646bb	-0.009172137
51	0xbc282d74	-0.010264743
52	0xbd25c0b6	-0.040466987
53	0xbc877ce6	-0.016539048
54	0x3d676355	0.056491215
55	0xbcdb18b8	-0.026745185
56	0x3cac80d4	0.021057524
57	0xbc9d3a2d	-0.01919278
58	0x3caf261e	0.02138048
59	0xbcd660ac	-0.026169144
60	0xbc4bde4f	-0.012443139
61	0x3c1fac04	0.009745602
62	0xbc249a49	-0.01004655
63	0xbd1af96d	-0.037835527
64	0x3d1d45c4	0.03839661
65	0xbca1eb87	-0.019765629
66	0xbd262021	-0.040557984
67	0x3c02e8a7	0.007990039
68	0x3c1ca3dd	0.009560552
69	0x3c6f8462	0.014618965
70	0xbc9514d2	-0.018198404
71	0xbd0209d0	-0.03174764
72	0x3a684c35	0.00088614534
73	0x3dbec95f	0.09315752
74	0xbcde0fb4	-0.027107097
75	0xbd104825	-0.035225052
76	0xbcd4f38d	-0.02599504
77	0x3c87c766	0.016574573
78	0x39e49477	0.00043598164
79	0xbc93c692	-0.018039022
80	0x3cbcb6eb	0.02303644
81	0x3d3912fd	0.045184124
82	0x3c7706e9	0.015077331
83	0x3d8f471c	0.06995985
84	0x3d8b5896	0.06804006
85	0x3dac1121	0.084017046
86	0x3d0190ff	0.03163242
87	0xbd928a92	-0.071553364
88	0xbb4b5394	-0.0031025158
89	0xbd31622d	-0.04330652
90	0xbd29c147	-0.04144409
91	0xbc85a6ec	-0.016314946
92	0x3d580d38	0.05274698
93	0x3d59677a	0.0530772
94	0xbc6eaf99	-0.014568233
95	0x3b6405aa	0.0034793415
96	0x3d3a592c	0.045495197
97	0xbd8aebb4	-0.06783238
98	0x3d0e476d	0.034736086
99	0xbcc1102c	-0.023567282
100	0x3add7501	0.0016895832
101	0x3b5e96d6	0.0033964417
102	0x3bc67c9b	0.0060573346
103	0x3d26a8a7	0.040688183
104	0xbc458285	-0.012055044
105	0xbd509a0a	-0.050928153
106	0xbc674cbb	-0.014117415
107	0x3c03f4c3	0.008053961
108	0x3cc33d64	0.023832984
109	0x3d93b58d	0.072123624
110	0xbd897b00	-0.067129135
111	0x3c00131c	0.007817056
112	0xbd745b86	-0.059657596
113	0xbd37af93	-0.044845175
114	0xbc836d9a	-0.016043473
115	0x3c880c36	0.016607385
116	0xbd7e3de0	-0.062070727
117	0xb95641ed	-0.0002043319
118	0x3ca00766	0.019534778
119	0xbcfe5726	-0.031047415
120	0xbd1e72f7	-0.038683858
121	0x3cfafdf2	0.030638669
122	0xbc3d5397	-0.011555574
123	0x3cab3864	0.020900913
124	0x3ce6992b	0.028149208
125	0x3c4be45c	0.012444582
126	0xbdc1ee71	-0.09469307
127	0x3c67276d	0.014108521
128	0xbcca9954	-0.024731316
129	0x3d1401bd	0.03613447
130	0xbd0f02b4	-0.034914687
131	0xbd03256d	-0.032018114
132	0x3c363aec	0.0111224465
133	0xb9fa606e	-0.00047755562
134	0x3c9b2f46	0.01894344
135	0x3d30f3c0	0.043201208
136	0xbcbdb8b0	-0.023159355
137	0x3b5807ec	0.0032963706
138	0x3d35e6f3	0.044409703
139	0xbcab7578	-0.020930037
140	0x3cac29df	0.02101606
141	0x3d1d6ef5	0.038435895
142	0xbcd2b5af	-0.0257214
143	0xb85a08c1	-5.1983403e-05
144	0x3cc4a64a	0.024005074
145	0xbbf2b992	-0.0074073756
146	0x3afaaa5f	0.0019124261
147	0xbc3b3c62	-0.011427971
148	0xbc6c2565	-0.014413212
149	0xbcae6c96	-0.021292012
150	0x3d36c7a1	0.044623975
151	0x3d471c5c	0.04861103
152	0x3b0d4234	0.0021554353
153	0x3ce998d1	0.028515251
154	0x3d9ce978	0.07661718
155	0x3c77d418	0.015126251
156	0xbd112974	-0.035439923
157	0x3bb5f497	0.005552839
158	0x3c3da607	0.011575229
159	0x3d22bae7	0.039729025
160	0x3d7c79e3	0.061639678
161	0x3d02d4e9	0.03194133
162	0x3ccae900	0.024769306
163	0x3b43d7cf	0.002988327
164	0xbcc4cdb0	-0.02402386
165	0x3d1ed6b2	0.03877897
166	0xba40e343	-0.00073580834
167	0xbdcd3549	-0.10019929
168	0xbbf337a7	-0.0074224058
169	0x3ca2dec0	0.019881606
170	0xbd203316	-0.03911122
171	0xbc0ef284	-0.008724812
172	0xbca6a9f2	-0.020344708
173	0x3c2020a7	0.00977341
174	0xbc0b95c0	-0.00851959
175	0x3d18af94	0.03727682
176	0xbc972759	-0.01845138
177	0x3b9f6208	0.004863981
178	0x3b4c1ac1	0.0031143876
179	0xbdb48842	-0.088150516
180	0x3cd463b5	0.02592645
181	0xbcab827b	-0.020936241
182	0x3d76d1bf	0.060258623
183	0x3d391641	0.04518724
184	0x3d2f41d2	0.04278738
185	0xbd7658d0	-0.060143292
186	0x3ca61590	0.020273954
187	0x3d12d824	0.03585066
188	0xbcab4467	-0.02090664
189	0xbc277fc6	-0.010223335
190	0x3c2a6ce6	0.01040194
191	0x3c3a64b5	0.0113765495
192	0x3c555611	0.013021008
193	0xbd0e5cc5	-0.03475644
194	0xbb64d6a0	-0.0034917966
195	0xbcb65085	-0.022255192
196	0xbc41c5ab	-0.011826913
197	0xbd23d3f6	-0.039997064
198	0x3d2201a5	0.03955235
199	0xbbf5452a	-0.0074850516
200	0x3c903c44	0.017606862
201	0x3d5df1f0	0.054185808
202	0x3d766229	0.060152207
203	0x3d6ba6fe	0.057532303
204	0x3d5878ca	0.05284957
205	0x3ccca948	0.024983063
206	0x3d73f90d	0.059563685
207	0xbd48e2f9	-0.049044583
208	0x3d020f18	0.031752676
209	0x3d328381	0.043582443
210	0xbda14ff5	-0.07876579
211	0xbbdafeaa	-0.0066831904
212	0xbd088331	-0.03332824
213	0x3d1be68d	0.038061667
214	0x3c104646	0.008805817
215	0x3da4ac38	0.080406606
216	0xba41c5e2	-0.00073918526
217	0xbc38631a	-0.011254096
218	0xbcbebe7d	-0.023284191
219	0xbbbbb524	-0.0057283808
220	0x3d042fa1	0.032271985
221	0x3d3d466e	0.046209745
222	0x3d8a6bc4	0.06758836
223	0x3d020514	0.031743124
224	0x3ba1bfd9	0.0049362
225	0xbd3a9b7d	-0.04555844
226	0xbd261b2a	-0.04055325
227	0x3d62f170	0.055406034
228	0x3d784694	0.060614184
229	0x3c840bce	0.01611891
230	0x3cd1b097	0.0255969
231	0x3c5a3555	0.013318379
232	0x3ade87e8	0.0016977759
233	0xbcdb1c7f	-0.026746986
234	0x3c63662e	0.013879342
235	0x3c74c438	0.01493936
236	0x3d3569ff	0.04429054
237	0xbc71dace	-0.01476164
238	0xbc8d69ae	-0.017262306
239	0xbd64afb7	-0.055831637
240	0x3d17d352	0.037066765
241	0x3cf4df51	0.029891642
242	0x3a9998f9	0.0011718563
243	0x3cb57587	0.022150768
244	0x3c0cd347	0.008595294
245	0xbc799776	-0.015233865
246	0xbd4a1ab4	-0.049341872
247	0xbc80dcfe	-0.015730377
248	0xbcac5809	-0.021038072
249	0x3ba24dbf	0.0049531157
250	0x3d6f58b3	0.0584342
251	0xbd0268c1	-0.031838182
252	0xbc2d9c57	-0.010596356
253	0xbc77ca83	-0.015123966
254	0xbc1eab97	-0.009684465
255	0xbd6a20c6	-0.05716016
