dataset/US-11423233-B2/US-11423233-B2_abstract_emb.npy (npy, 3200 bytes, 1 tensors)

array f4 [768]
0	0xbd8671e3	-0.06564691
1	0xbcdcb270	-0.026940554
2	0xbc0443a2	-0.008072766
3	0xbceaa2c7	-0.028642071
4	0xbbcbc42f	-0.0062184553
5	0xbca03209	-0.019555109
6	0x3d40f785	0.047111053
7	0x3cbaa9d0	0.022786051
8	0xbd05ca02	-0.032663353
9	0x3d8a1efa	0.067441896
10	0x3b2e9a45	0.0026642245
11	0x3ce3d84d	0.027813101
12	0x3c412373	0.011788237
13	0xbb49f5af	-0.0030816605
14	0x3c84ed16	0.016226333
15	0xbd8420e2	-0.064515844
16	0x3d1bfe37	0.038084235
17	0x3ca085f7	0.01959513
18	0x3b66e006	0.0035228743
19	0xbba97f27	-0.0051726284
20	0xbb8e58c1	-0.0043440764
21	0x3b0fe57f	0.0021956859
22	0xbc9a7bf7	-0.01885794
23	0x3d19ca0d	0.037546206
24	0xbd70b38b	-0.058764976
25	0xbd433241	-0.047655348
26	0xbd7843b1	-0.06061143
27	0xbc94e362	-0.01817483
28	0xbd152040	-0.03640771
29	0xbddd3175	-0.10800449
30	0xbcd84664	-0.026400752
31	0x3d9e9519	0.07743282
32	0xbd1f3078	-0.038864583
33	0xbd246b06	-0.040141128
34	0x362b738c	2.5548243e-06
35	0x3cdbcd7b	0.02683138
36	0xbc4a7d0c	-0.012358915
37	0x3ca09ec9	0.019606965
38	0x3d5f5313	0.054522585
39	0x3d8589fd	0.0652046
40	0xbd25fdfe	-0.04052543
41	0xbd1770b1	-0.036972705
42	0x3c7cd2fa	0.01543116
43	0xba8808bf	-0.0010378583
44	0xbc4270ee	-0.011867745
45	0xbb400f56	-0.0029306016
46	0x3bb4f470	0.0055223033
47	0x3d3517a7	0.04421201
48	0x3ba27b6e	0.0049585616
49	0xbc62bbee	-0.013838751
50	0xbc14c14d	-0.00907929
51	0x3a987b9d	0.0011633519
52	0xbd16368a	-0.036673106
53	0xbbe96b3b	-0.0071233786
54	0x3d569139	0.05238459
55	0xbd593d28	-0.05303684
56	0xbbd5d22b	-0.006525298
57	0xbcf838de	-0.030300554
58	0x3ce62c64	0.028097339
59	0x3a84918c	0.0010114177
60	0xbcacbebd	-0.021087045
61	0x3b63172a	0.0034651258
62	0xbc0e659c	-0.008691218
63	0xbd41d00e	-0.047317557
64	0x3c5a8431	0.013337181
65	0xbc564efe	-0.013080357
66	0xbcec8acc	-0.028874777
67	0xbc3cc08d	-0.011520517
68	0xbbd262ac	-0.006420454
69	0x3b9d7f0f	0.0048064063
70	0xbce86462	-0.028368179
71	0xbd009cc9	-0.031399522
72	0xbb352188	-0.0027638394
73	0x3d9dbec4	0.07702401
74	0xbcd6eabe	-0.02623498
75	0xbd608534	-0.054814532
76	0xbcb19724	-0.021678515
77	0xbbd841e4	-0.0065996516
78	0xbba42def	-0.0050103585
79	0xbbcc1dea	-0.006229152
80	0x3c210fd5	0.009830435
81	0x3d08c8f1	0.033394758
82	0x3c1e2b07	0.009653813
83	0x3d550dee	0.052015238
84	0x3d63f004	0.05564882
85	0x3db90cb1	0.09035624
86	0x3d0da138	0.03457758
87	0xbd9f9013	-0.07791152
88	0xbc055116	-0.008137008
89	0xbd473a5c	-0.04863964
90	0xbd3aac4e	-0.04557448
91	0xbcb295c8	-0.021799937
92	0x3d502d6c	0.050824568
93	0x3d0b9283	0.03407527
94	0xbbc5a31d	-0.0060314075
95	0x3b81e831	0.003964447
96	0x3cf22d4b	0.029562613
97	0xbd72d814	-0.0592881
98	0x3cb90260	0.02258414
99	0x39c65f46	0.00037836487
100	0x3d3180f0	0.043335855
101	0x3c5f2287	0.013619072
102	0x3c708476	0.014680019
103	0x3d02a9f7	0.031900372
104	0xbc27ddad	-0.010245723
105	0xbd340ccc	-0.043957517
106	0xbc087c6f	-0.0083304485
107	0x3bec36b0	0.0072086677
108	0x3ca64f59	0.020301508
109	0x3d8fae0f	0.07015621
110	0xbdb29f5a	-0.087218
111	0x3b8c32a0	0.004278496
112	0xbd6fca5f	-0.058542605
113	0xbcc59853	-0.024120485
114	0xbc87fc3b	-0.016599765
115	0x3c6c9e68	0.014442064
116	0xbd93509b	-0.07193109
117	0xbc3eeb67	-0.011652804
118	0x3c3f563c	0.011678275
119	0xbd05299b	-0.03251038
120	0xbd055dfc	-0.032560334
121	0x3d15afd6	0.036544643
122	0x3c294814	0.010332126
123	0x3cc40ca4	0.023931809
124	0x3d32226f	0.04348987
125	0x3d285881	0.04110003
126	0xbdb68f36	-0.08914034
127	0x3c602ba5	0.013682281
128	0xbd1cb5c8	-0.038259298
129	0x3d2f4405	0.042789478
130	0xbd2b3966	-0.041802786
131	0xbcbdbb1d	-0.023160512
132	0x3c4e1c12	0.012579935
133	0xbc72ee9b	-0.014827396
134	0x3caf42da	0.021394182
135	0x3c97a9c3	0.018513566
136	0xbcd33737	-0.025783164
137	0xbc3c5b5a	-0.011496389
138	0x3d4583c9	0.048221383
139	0xbb96b5b4	-0.0045992974
140	0x3cb55f13	0.022140061
141	0x3d45688f	0.048195418
142	0xbcec0cde	-0.02881473
143	0x3c965ae2	0.018353883
144	0x3d0824a4	0.03323807
145	0xbc10db57	-0.008841357
146	0xbcab96d1	-0.020945938
147	0xbbfdbbf4	-0.007743353
148	0xbc730a91	-0.014834062
149	0xbca8dfde	-0.02061456
150	0x3d6b336e	0.057422094
151	0x3d70f86f	0.058830675
152	0x3c218d9b	0.0098604215
153	0x3d1cd54e	0.03828936
154	0x3d80b05d	0.062836386
155	0x3c45fb34	0.012083817
156	0xbd0a67c8	-0.03379038
157	0x3bba83ca	0.00569198
158	0x3cb8599d	0.022503668
159	0x3cf3bac7	0.029752148
160	0x3d5d0c92	0.053967066
161	0x3d27bdf1	0.040952627
162	0x3cdaccb2	0.026708934
163	0x3af5f6a3	0.001876552
164	0xbcf9ced9	-0.03049414
165	0x3d175ae1	0.036951903
166	0x3a5b267a	0.00083599205
167	0xbdd33c2e	-0.10314213
168	0xbba0335b	-0.0048889345
169	0xbbfd6909	-0.0077334684
170	0xbd25f31e	-0.040515058
171	0xbcd80875	-0.02637122
172	0xba805490	-0.0009790827
173	0x3cfe2363	0.031022733
174	0xbbd2eba4	-0.006436782
175	0x3ccf2952	0.025288258
176	0xbcc90950	-0.024540573
177	0x3b4e7b05	0.003150643
178	0xbc18667f	-0.009301781
179	0xbdb5275c	-0.08845398
180	0x3d077776	0.03307291
181	0xbd2b2427	-0.041782524
182	0x3d91f7f1	0.07127369
183	0x3d299fa0	0.041411996
184	0x3d33cc64	0.043896094
185	0xbd314bcc	-0.043285176
186	0x3d077227	0.03306785
187	0x3d24a412	0.040195532
188	0xbcd13891	-0.025539668
189	0xbc7d312a	-0.015453616
190	0x3c85da64	0.016339488
191	0x3b5797f3	0.0032896965
192	0x3ca47658	0.020075962
193	0xbcc6c690	-0.024264604
194	0xbbdbb7d2	-0.0067052627
195	0xbca6dee2	-0.02036995
196	0xbcc039ab	-0.023464998
197	0xbd4c30bd	-0.049851168
198	0x3be1290b	0.006871348
199	0xbc382e27	-0.011241472
200	0xbc09a7a5	-0.008401786
201	0x3d4689d2	0.04847128
202	0x3d8a1c75	0.06743709
203	0x3d167027	0.03672805
204	0x3d28785e	0.041130416
205	0x3adb6ece	0.0016741396
206	0x3d5d610c	0.05404763
207	0xbd19911b	-0.0374919
208	0x3d2206db	0.03955732
209	0x3d05ffb2	0.032714553
210	0xbd85cfd7	-0.06533783
211	0x3c2e0e38	0.010623507
212	0xbcb5bcbd	-0.022184724
213	0x3d2bc0fb	0.041932087
214	0x3c177a46	0.009245461
215	0x3d970985	0.073748626
216	0xbc257e1f	-0.01010087
217	0xbc4f39e6	-0.012648081
218	0xbb7f4616	-0.0038951687
219	0xbbf0b8b6	-0.007346238
220	0x3c81ad7b	0.015829792
221	0x3cc7ec20	0.024404585
222	0x3d9849e0	0.074359655
223	0x3d11d71e	0.035605542
224	0xbc48ec7f	-0.012263416
225	0xbd7b1ea9	-0.061308537
226	0xbd11c392	-0.0355869
227	0x3d14211b	0.036164384
228	0x3d70989c	0.05873929
229	0x3cea9df8	0.028639778
230	0x3d196713	0.037451815
231	0x3c8db38a	0.017297525
232	0x3c36dda1	0.011161239
233	0xbd288e57	-0.04115137
234	0x3ce0a270	0.027421206
235	0x3d19c764	0.03754367
236	0x3d437791	0.04772145
237	0xbc8666b9	-0.016406404
238	0xbc9dc93c	-0.019260995
239	0xbd5b6829	-0.05356613
240	0x3d1219fb	0.03566931
241	0x3cfb0609	0.030642526
242	0xbc3a3d5b	-0.011367167
243	0x3c4fcfb6	0.0126837995
244	0x3aec9450	0.0018049572
245	0xbb85b829	-0.0040807915
246	0xbcedd940	-0.029034257
247	0x3a7c01b8	0.0009613293
248	0xbcc1e96d	-0.023670876
249	0x3b968eb4	0.0045946483
250	0x3d647776	0.05577799
251	0xbcbb8972	-0.022892687
252	0xbc00a8e1	-0.007852764
253	0xbb8707cd	-0.004120803
254	0xbc4ed629	-0.012624302
255	0xbd037f70	-0.032103956
