dataset/US-10748663-B2/US-10748663-B2_abstract_emb.npy (npy, 3200 bytes, 1 tensors)

array f4 [768]
000000 e9 44 44 bd e4 3b 18 bd d2 ec e3 bb e5 79 88 bc
       -0.04791728 -0.03716649 -0.0069557214 -0.016659686
000010 3e b7 cc bb d4 24 a4 bc 5a 5e 40 3d f6 3d a7 3c
       -0.00624743 -0.020037092 0.04696498 0.020415287
000020 17 30 1a bd fb a5 7b 3d 46 47 5b bc 53 f5 fe 3c
       -0.03764352 0.06143759 -0.013383692 0.03112284
000030 c8 e2 8d 3c 1f f6 23 ba 3d 29 03 3c f4 97 40 bd
       0.017320052 -0.00062546314 0.008005437 -0.047019914
000040 f4 f9 ea 3c 73 79 cc 3b 1a 46 89 3b ab 7e 7d ba
       0.02868364 0.006240064 0.004189265 -0.0009670059
000050 34 f1 89 bc a9 70 6f 3c 50 59 89 bc 0b bb 19 3d
       -0.016838647 0.014614263 -0.01676622 0.037531894
000060 7a 14 50 bd 49 9e ac bc 4c 1c 78 bd a2 6a e8 bc
       -0.050800778 -0.02107157 -0.06057386 -0.028371159
000070 2f 90 e7 bc 43 31 d0 bd 82 b5 c4 bc 0e f7 b7 3d
       -0.028266994 -0.10165646 -0.02401233 0.08982669
000080 fd 96 0d bd fa 5f 1d bd da ab 3a 36 6c e8 bf 3c
       -0.03456782 -0.03842161 2.781619e-06 0.023426257
000090 0b e1 ba bc e8 6b 07 3c 8e a9 f3 3c 8d 73 43 3d
       -0.022812387 0.008265473 0.029743936 0.04771762
0000a0 3b 84 2d bd f7 fe 34 bd 20 ec 16 3c 97 d5 14 3c
       -0.042362433 -0.044188466 0.00921157 0.009084127
0000b0 2a 3e d1 bc 90 a9 90 3a 2e 37 0f 3c 5c a8 d0 3c
       -0.025542337 0.0011036862 0.008741183 0.025470905
0000c0 df 5b c8 b9 6f 98 fd bc c0 94 15 bc c3 ff 9b 3a
       -0.00038215422 -0.030956475 -0.009129703 0.0011901784
0000d0 79 46 60 bd 23 68 85 bc 71 9d 51 3d f5 24 4e bd
       -0.054754708 -0.016285008 0.05117554 -0.050328214
0000e0 d0 01 48 3c f9 0d 0b bd dc 52 09 3d b9 ee 3a ba
       0.012207463 -0.033948872 0.033526286 -0.00071309094
0000f0 46 1a 9b bc 2b d0 a5 bb 43 e5 26 bc 5f 61 45 bd
       -0.018933427 -0.005060216 -0.010186496 -0.048188563
000100 d9 3a 24 3d 4a db 84 bc 7c 61 f2 bc b3 3f ce ba
       0.040095184 -0.016217846 -0.0295875 -0.0015735537
000110 ad 74 ce 3b 7d f3 35 3c 88 2b 0e bb a1 a6 9f bc
       0.00630053 0.011105415 -0.0021693427 -0.019488635
000120 00 3f 12 bc 5a a4 c9 3d 47 77 15 bd 02 fe 11 bd
       -0.008926153 0.09845801 -0.036490705 -0.03564263
000130 82 7d c9 bc 64 92 7c 3b 8f e5 6c bb 07 54 ae bc
       -0.02459598 0.0038539404 -0.003614757 -0.021280302
000140 23 44 19 3c 02 20 39 3d d0 70 22 3c 14 29 94 3d
       0.009354624 0.04519654 0.009914592 0.072343975
000150 38 c6 50 3d 1f 72 c4 3d 45 7e de 3c c1 c3 8d bd
       0.050970286 0.09592079 0.02715982 -0.06922103
000160 30 d8 a7 bb 79 46 34 bd 33 bf 85 bd 92 d5 a6 bc
       -0.005122207 -0.04401252 -0.06530609 -0.02036551
000170 f9 0e 5a 3d 43 43 44 3d d8 c3 c8 bc f6 f9 a6 3a
       0.053236935 0.04791571 -0.024507448 0.0012739289
000180 43 75 13 3d e0 e2 b9 bd 92 6b c2 3c 51 41 b5 3a
       0.0360005 -0.09076476 0.023732934 0.001382867
000190 a1 be 93 3c a8 24 37 3c 29 b6 cc 3b b0 1f 30 3d
       0.018035235 0.011178173 0.006247301 0.04299897
0001a0 41 50 8f bc cc 40 19 bd 53 2d 8a 3b 07 33 76 3c
       -0.017494323 -0.03741531 0.004216829 0.015026814
0001b0 2a 6a a4 3a ef 13 68 3d d3 39 a1 bd cc cf 8b 3a
       0.0012543846 0.056659635 -0.07872357 0.0010666787
0001c0 5f 90 77 bd 4b 98 15 bd 00 b1 b1 bc 2f 49 1b 3c
       -0.060440417 -0.03652219 -0.021690845 0.009477898
0001d0 fa 0c 86 bd b8 86 67 bb e6 03 c6 3b c0 1b 09 bd
       -0.06545444 -0.0035328101 0.006042945 -0.03347373
0001e0 9f 7a 32 bd e7 91 22 3d 4c 71 9b bc 47 bc 07 3d
       -0.04357397 0.039689925 -0.018974923 0.03313854
0001f0 6f aa 3d 3d 83 5a 06 3c 5a 00 bd bd 41 ee 80 3c
       0.046305116 0.008200291 -0.09228583 0.015738608
000200 5d 1f d6 bc f9 ee 43 3d 6d 47 2a bd d9 2c 16 bd
       -0.026138002 0.047835324 -0.041572023 -0.036663864
000210 d2 24 73 3c cd 06 c0 ba 4c 4e cd 3c 64 c3 ea 3c
       0.014840322 -0.0014650464 0.025061749 0.028657623
000220 cb 11 d7 bc 30 76 4a bc f1 d0 39 3d bb d5 5b bc
       -0.026253602 -0.01235728 0.045365278 -0.0134176565
000230 c5 12 9e 3c 2c a8 64 3d 3b 2d f2 bc 9c c8 0c 3c
       0.01929606 0.055824444 -0.029562583 0.008592751
000240 5f a6 c9 3c 13 cb 5d bb 41 9d 5d 3b c2 b0 b7 bb
       0.024615465 -0.0033842965 0.0033815654 -0.005605788
000250 3d 9f 98 bc e7 fd 8b bc 90 e8 49 3d 7e 13 6e 3d
       -0.018630618 -0.017088844 0.049294055 0.058124058
000260 5c 98 7a 3c 00 50 0d 3d 82 b9 b1 3d 2c 60 2b 3c
       0.015295114 0.034500122 0.08677961 0.010459941
000270 3b 99 9e bb bb 64 21 3c e9 84 d7 3c 07 36 ce 3c
       -0.004840044 0.009850676 0.026308494 0.025172247
000280 76 ad 52 3d ae a2 0d 3d db 76 59 3c 85 73 bd b9
       0.051434956 0.03457897 0.013272966 -0.00036134958
000290 7d 58 df bc 59 7b dd 3c 74 d4 1f bc 41 de ca bd
       -0.027263874 0.027036356 -0.009755243 -0.09905673
0002a0 b7 9d 68 bc 19 f7 be 3c 11 0a 11 bd 73 63 41 bc
       -0.014197758 0.023311185 -0.03540999 -0.011803496
0002b0 41 29 dc bb 30 68 d2 3c 59 3e 90 bc 96 0d 3f 3d
       -0.006718785 0.025684446 -0.017607855 0.046643816
0002c0 cb 3e 69 bc a1 bc a0 3b 07 95 bc ba 73 3c ad bd
       -0.014236162 0.004905299 -0.0014387675 -0.084587954
0002d0 ee a9 17 3d 47 3b 1f bd 89 e0 8a 3d 55 78 6d 3d
       0.037027292 -0.03887489 0.06781108 0.057976086
0002e0 e3 84 29 3d 9e b2 3d bd 96 d3 05 3d e8 a5 47 3d
       0.041386496 -0.04631292 0.032672487 0.048742205
0002f0 86 d8 20 bd 93 a0 0d bc c2 c8 fc 3b 77 8d 34 3b
       -0.039268993 -0.008644241 0.007714362 0.002755014
000300 d2 e5 46 3d 75 42 0f bd 86 8e 27 bb 11 6d 42 bc
       0.048559017 -0.034975488 -0.0025567128 -0.011866824
000310 4d eb 71 bc cd e3 3a bd a2 a5 a8 3c 9e 4c 04 bc
       -0.014765573 -0.045627404 0.020586792 -0.008074908
000320 af 86 b0 3b 80 18 01 3d e1 36 9b 3d 46 7b 59 3d
       0.0053871493 0.031517506 0.07578827 0.05309608
000330 eb 9a 55 3d 87 9e bb bb d3 91 4f 3d 2b cd 32 bd
       0.052149694 -0.005725685 0.05067618 -0.043652695
000340 fc 14 0e 3d 85 c0 3b 3d 76 4d 70 bd 35 c0 ab bb
       0.03468798 0.045837898 -0.058667623 -0.0052414187
000350 26 3b e3 bc 03 08 16 3d 71 9a 53 bb 03 c4 bc 3d
       -0.027738165 0.036628734 -0.00322881 0.09217074
000360 7a 34 a0 bb 4c 33 77 bc 21 49 92 bc d3 d3 11 3c
       -0.004889068 -0.015087914 -0.017857136 0.0089006005
000370 22 a3 b8 3c 42 72 fb 3c dd 31 81 3d 31 3b 25 3d
       0.022538725 0.03069413 0.06308339 0.040339652
000380 8f 05 f7 3b 3c cf 66 bd 2b 51 29 bd e9 ff 49 3d
       0.0075385044 -0.056349978 -0.041337173 0.04931632
000390 2d 2b 82 3d b7 e8 d7 3c 70 38 b4 3c b1 03 3d 3c
       0.063558914 0.026356084 0.021999568 0.011536525
0003a0 2c da 2b 3c b6 a6 32 bd 11 e8 65 3c 4c 0b 71 3c
       0.010489028 -0.04361602 0.01403238 0.014712166
0003b0 6a 3f 08 3d e8 4e 9d bc 67 f9 e4 bc a8 ef 6d bd
       0.0332636 -0.019202664 -0.027950956 -0.058089882
0003c0 72 66 bd 3c f9 e7 31 3d b6 88 1f bc 7f fb 55 3c
       0.023120139 0.043434117 -0.009737184 0.01306045
0003d0 80 62 a8 3c 83 b2 0f ba 48 29 2d bd 2f f0 f4 bb
       0.020554781 -0.00054816174 -0.042275697 -0.007474921
0003e0 17 04 bc bc c4 e0 1b 3b f4 e8 42 3d f7 97 9b bc
       -0.022951169 0.0023785094 0.047585443 -0.01899336
0003f0 c7 cb a1 bb f5 ed 02 bc cd 6d 42 3c 3f 7c fa bc
       -0.004937622 -0.007991304 0.011866999 -0.030576823
