dataset/US-11481652-B2/US-11481652-B2_claim_emb.npy (npy, 30848 bytes, 1 tensors)

array f4 [10, 768]
-0.062458206 -0.029199528 -0.011195135 -0.023419004 -0.014194233 -0.009106936 0.037035756 0.008414277
-0.03508269 0.058668632 0.0030671684 0.02822617 0.0013144325 -0.011664015 -0.0003310816 -0.05639055
0.026376186 0.029621031 0.007671696 -0.0072538536 -0.00937758 0.011277441 -0.027948676 0.036766052
-0.053167067 -0.025808968 -0.056459267 -0.021553164 -0.029734638 -0.10987351 -0.021270977 0.091371536
-0.032004774 -0.033098843 2.7039125e-06 0.011848064 -0.016967187 0.014503806 0.036117457 0.053502247
-0.02480187 -0.045503747 0.008423337 0.009033159 -0.02206962 0.008229677 0.011257614 0.023320582
0.0018742832 -0.034743804 -0.010854652 -0.0039474196 -0.056901112 -0.011215118 0.056898635 -0.044409458
0.013716978 -0.009459079 0.02816785 -0.013869694 -0.022273596 0.003175514 -0.027959352 -0.034916352
0.05423248 -0.0015074117 -0.0071002617 0.003230488 -0.003418327 0.0063425777 -0.0020693513 -0.016324593
-0.0021270418 0.09073687 -0.030775325 -0.03753596 -0.020698616 0.01555978 -0.013293468 -0.008318985
-0.0022871702 0.047334813 0.013317213 0.07494622 0.07058515 0.09107551 0.02289324 -0.06468649
-0.00022638615 -0.05243442 -0.053604487 -0.010451913 0.05574796 0.043310385 0.0020403368 0.0061531123
0.034703743 -0.07923248 0.020235036 -0.009154205 0.020980787 0.009410744 0.0059647155 0.04154067
-0.0207237 -0.04981893 -0.011863668 0.009495504 0.010544154 0.07016061 -0.06421086 0.014953561
-0.054604575 -0.04000532 -0.011851333 0.0072651166 -0.06557517 -0.005634017 0.011409378 -0.03381437
-0.050020564 0.031002156 -0.009479802 0.038872305 0.039955806 0.010166481 -0.095764294 0.0059746737
-0.023080079 0.04448085 -0.02774377 -0.035653938 0.000768874 0.00023704773 0.032082733 0.033962853
-0.030121487 -1.0557818e-05 0.04970791 -0.00029217545 0.01599003 0.058449995 -0.020441743 0.009784446
0.028879002 -0.0111775985 0.0037954112 -0.005879342 -0.021922242 -0.02670149 0.063141845 0.06485988
0.0073455386 0.034998998 0.07679245 0.009440499 -0.025573919 0.003844007 0.024494907 0.026213186
0.060710195 0.035734184 0.021484602 -0.003725405 -0.019509383 0.043436445 0.0071381717 -0.09228529
-0.013944795 0.017165419 -0.03173174 -0.022778654 -0.011571672 0.024231724 -0.026193203 0.03774209
-0.019401994 0.008568867 0.007826461 -0.09356891 0.037708115 -0.029155387 0.063943714 0.05350817
0.04013432 -0.05632676 0.035186924 0.047397535 -0.02730539 -0.0013780172 0.0071393587 0.019359758
0.02529145 -0.026368909 -0.019240234 -0.026443802 -0.0057705706 -0.029249705 0.0143611645 -0.007375345
0.004201029 0.025994884 0.06264281 0.048798464 0.050054383 -0.006476116 0.049030952 -0.040654756
0.037352726 0.038278334 -0.07517149 -0.010066372 -0.03805628 0.032690864 0.009821548 0.08221166
0.00671899 -0.016420964 -0.017189035 -0.016778784 0.018147785 0.03821963 0.06492365 0.034588963
0.0026235715 -0.046997145 -0.035105363 0.044062417 0.062495872 0.01211428 0.02521085 0.01630882
0.0035263477 -0.026423456 0.006934418 0.0156709 0.03618338 -0.013084102 -0.018762406 -0.0611019
0.029661875 0.036571592 -0.0021464028 0.023371592 0.011338985 -0.014792049 -0.048043523 -0.012965729
-0.021900404 0.0053250208 0.04988442 -0.023665754 -0.0070910202 -0.028314607 0.0035430137 -0.041788787
00000000: 2dd4 7fbd d933 efbc cd6b 37bc 36d9 bfbc
00000010: ee8e 68bc 4235 15bc ceb2 173d 09dc 093c
00000020: deb2 0fbd 854e 703d 8c02 493b 923a e73c
00000030: 0949 ac3a 6d1a 3fbc 0595 adb9 c7f9 66bd
00000040: df12 d83c cea7 f23c da62 fb3b bcb1 edbb
00000050: 6ca4 19bc 04c5 383c 9ff4 e4bc 0098 163d
00000060: b6c5 59bd 546d d3bc d541 67bd 4390 b0bc
00000070: 0e96 f3bc 5d05 e1bd 7940 aebc 0021 bb3d
00000080: 7017 03bd a792 07bd dd74 3536 621e 423c
00000090: c5fe 8abc 5fa1 6d3c e6ef 133d 2c25 5b3d
000000a0: 4b2d cbbc 2362 3abd 0902 0a3c d1ff 133c
000000b0: 59cb b4bc c4d5 063c db71 383c ce0a bf3c
000000c0: 82aa f53a 854f 0ebd b6d7 31bc 5b59 81bb
000000d0: 2411 69bd 9dbf 37bc 8b0e 693d b1e6 35bd
000000e0: 2dbd 603c 41fa 1abc 43c0 e63c b73d 63bc
000000f0: 1e77 b6bc 491c 503b 030b e5bc 7304 0fbd
00000100: e022 5e3d 5894 c5ba 50a9 e8bb 98b6 533b
00000110: 0306 60bb 66d5 cf3b f49d 07bb 27bb 85bc
00000120: d765 0bbb 41d4 b93d 891c fcbc 4fbf 19bd
00000130: 2590 a9bc 73ee 7e3c d9cc 59bc 5a4c 08bc
00000140: 59e4 15bb 26e2 413d 7130 5a3c 677d 993d
00000150: f28e 903d cc85 ba3d 9b8a bb3c 5a7a 84bd
00000160: 1262 6db9 79c5 56bd 6190 5bbd 803e 2bbc
00000170: f957 643d 3b66 313d 2cb7 053b 0ca0 c93b
00000180: 8325 0e3d a344 a2bd f2c3 a53c 85fb 15bc
00000190: e6df ab3c 852f 1a3c a973 c33b 8d26 2a3d
000001a0: c0c4 a9bc ef0e 4cbd d55f 42bc 0893 1b3c
000001b0: 63c1 2c3c 5eb0 8f3d fc80 83bd c8ff 743c
000001c0: 0ca9 5fbd 9edc 23bd 182c 42bc 3710 ee3b
000001d0: 464c 86bd 8f9d b8bb 66ee 3a3c f080 0abd
000001e0: 5de2 4cbd 3cf8 fd3c 2c51 1bbc 9138 1f3d
000001f0: b3a8 233d 5091 263c 1220 c4bd 32c7 c33b
00000200: 6f12 bdbc 8d31 363d e746 e3bc dd09 12bd
00000210: 438e 493a 0490 7839 2f69 033d a21c 0b3d
00000220: 56c1 f6bc 7c21 31b7 859a 4b3d 202f 99b9
00000230: 86fd 823c 4369 6f3d 7175 a7bc f14e 203c
00000240: a893 ec3c 3f22 37bc 6fbc 783b 7fa7 c0bb
00000250: 4696 b3bc 15bd dabc 8350 813d 42d5 843d
00000260: d8b2 f03b 1c5b 0f3d 5c45 9d3d 53ac 1a3c
00000270: 6580 d1bc bceb 7b3b 8ba9 c83c 09bd d63c
00000280: 41ab 783d 025e 123d 7a00 b03c ed25 74bb
00000290: 24d2 9fbc 6aea 313d 53e7 e93b 1200 bdbd
000002a0: b678 64bc 7e9e 8c3c 24f9 01bd 4d9a babc
000002b0: 1c97 3dbc 9c81 c63c 2193 d6bc 7397 1a3d
000002c0: eef0 9ebc 6f64 0c3c 8f3a 003c 0fa1 bfbd
000002d0: d373 1a3d 47d7 eebc ecf4 823d 622b 5b3d
000002e0: e263 243d e4b6 66bd 2a20 103d eb23 423d
000002f0: 8eaf dfbc 969e b4ba 48f1 e93b 5b98 9e3c
00000300: 0430 cf3c 9c03 d8bc b29d 9dbc aca0 d8bc
00000310: 0e17 bdbb 149d efbc 174b 6b3c e1ac f1bb
00000320: c9a8 893b 39f3 d43c e04a 803d e6e0 473d
00000330: d305 4d3d 9935 d4bb aed4 483d 9a85 26bd
00000340: 2cff 183d bec9 1c3d 83f3 99bd 6ded 24bc
00000350: e7e0 1bbd dbe6 053d 8fea 203c 965e a83d
00000360: f92a dc3b 4285 86bc 05d0 8cbc a973 89bc
00000370: aaaa 943c 308c 1c3d b1f6 843d 28ad 0d3d
00000380: 3af0 2b3b 1480 40bd a4ca 0fbd cb7a 343d
00000390: acfb 7f3d f97a 463c fc86 ce3c 139a 853c
000003a0: 4c1a 673b 0176 d8bc 1d3a e33b 4260 803c
000003b0: 0635 143d b45e 56bc 9eb3 99bc fc45 7abd
000003c0: 76fd f23c 18cc 153d aaaa 0cbb c875 bf3c
000003d0: 26c7 393c 5a5a 72bc 49c9 44bd 366e 54bc
000003e0: 7a68 b3bc 837d ae3b 9b53 4c3d afde c1bc
000003f0: ca5b e8bb 09f4 e7bc e831 683b b82a 2bbd
