dataset/US-10963333-B1/US-10963333-B1_claim_emb.npy (npy, 61568 bytes, 1 tensors)

array f4 [20, 768]
00000000: 1e3b 5ebd 37bd 02bd 2215 823b 202f cdbc
00000010: bafd bfbb db90 a6bc 1767 7f3d e0e5 953c
00000020: f5a6 43bd 509e 783d b99d bbbb 37bf 483d
00000030: c2f1 813c 9942 c73a 0c84 b03b 109e 0abd
00000040: 754e 2c3d e800 7b3c 15ca 743c f4fe 90bc
00000050: de2b 5fbc 9e86 e13b 6276 a7bc da87 2d3d
00000060: 6eda 7fbd 21c3 fbbc 169d 7dbd 7a85 22bc
00000070: 6de6 34bd c2ad dbbd 58ed 5cbc f570 ae3d
00000080: f3f7 d2bc f4e2 26bd fd93 3236 e01b c33c
00000090: 8e46 5bbc 0b8f 9c3c addb 0c3d 93c6 6a3d
000000a0: 2a65 22bd 6664 62bd 3816 8d3c 4d67 72bb
000000b0: f753 0cbc a1f5 3a3c f2e4 c4bb ba5c cb3c
000000c0: c3eb 313c f797 08bd a642 04bc 14e9 173b
000000d0: 9536 6cbd 37ff a3bc 8c88 563d 2251 06bd
000000e0: 1c8d aa3b 0da9 0abd 43fa f93c 5fcc 88bc
000000f0: 6bf3 25bc 4e2f 103c 44ee fcbc 0966 44bd
00000100: 4806 213d a9c1 a3bc e0ea 10bd 853e 6bbb
00000110: 4b84 fe3b e382 753b 1f9c 94bc 626b d4bc
00000120: 7543 cabb 582b c93d 3b53 f5bc 621e dabc
00000130: 36b4 cabc 08d5 80bb 9105 d6bb f671 20bc
00000140: c9ab 7e3c 9b61 2f3d 6b5c c23b 899a 8f3d
00000150: 9b7c 403d 30d8 953d 93f4 213d d281 73bd
00000160: 5eeb 9b3b 6e4a 21bd 2226 42bd d4e6 99bc
00000170: bfbf 3f3d ca6c 493d c92d ecbc 1a39 923b
00000180: 311f 033d 53dd 9ebd 12c6 913c dc57 9abc
00000190: 296d 803c b837 e73b 6d37 003d d021 453d
000001a0: 851f 26bb cf1d 51bd 673a 493c 253a 173d
000001b0: e242 9b3a 8be6 923d afed 8abd e66d 843b
000001c0: 453c 96bd 20cf 3dbd 30bd d9bc 9ec3 8d3c
000001d0: 4bcd 5ebd 3a80 0ebc eba5 d33b bb80 dcbc
000001e0: b879 09bd ceec 1f3d 8a95 a8bc 792a ff3c
000001f0: 0c50 4f3d 7da8 ac3c afc4 c2bd 041c cb3b
00000200: 8d53 74bc f61a 3a3d 0e28 39bd d95b f6bc
00000210: f8c4 8d3c a4ba d5bb 39ee ee3c 37f8 983c
00000220: eb95 a9bc ddce cd3b 0e15 183d 2333 c0bc
00000230: 3e9c 293c e708 453d f485 a4bc 694d 08bc
00000240: 9597 b13c 993f 263c 5ea1 29bc 4a55 223b
00000250: 0542 abbb 85c9 73bc 9f39 1f3d 6f19 273d
00000260: 3a01 623b 1142 373d c330 8a3d a021 d63b
00000270: ecf8 90bc ecf5 adba ce4d 053d 77bf d03c
00000280: e186 923d 3c09 0d3d 8423 e43c f866 263c
00000290: ef58 adbc c9bd 433d be10 8abc 542d d4bd
000002a0: 60a3 9e39 f0a1 cb3b 388a abbc 841b a2bc
000002b0: ab4c 6fbc f9ba ba3b 5566 69bc 1403 1e3d
000002c0: 15b4 ebbb 3656 8ebb 2876 40ba e7b3 b1bd
000002d0: 2b7a 033d f07b bfbc 3d1d 8a3d 1b09 2b3d
000002e0: 3790 2a3d 6f58 60bd d183 a53c 7bcb 7d3d
000002f0: 8ad1 28bd ab31 e5bb ab74 6c3c c095 ed3b
00000300: e470 103d 5f9e babc d062 343c 8565 3fbc
00000310: 6fad 9abc 18fa 06bd bf6b 093d bda2 37bc
00000320: 091f f33b 4b1f 153d 8175 933d 2e2c 3b3d
00000330: 91fb 4f3d 11ee e93b cba5 573d 1441 06bd
00000340: c6a4 bb3c 0403 163d f3d2 82bd 5359 863a
00000350: 7820 2ebd b410 463d 5244 a6b9 4663 c23d
00000360: ed68 d1bb 18a6 da3b a8a3 4abc 50a4 06bb
00000370: a2db c43c 7c16 c23c 6f73 723d c002 033d
00000380: 906a 7dba f6e9 5ebd 90e7 38bd 56b8 173d
00000390: a549 3d3d e430 023d bce7 f93c 77a9 d13c
000003a0: f603 893b b22a 14bd f330 c33c 746a c03c
000003b0: 0bd5 343d a7d8 e8bc a22d 8abc 698d 46bd
000003c0: 2d27 0b3d a2db 3a3d 6e86 54bc 1b6a 8e3c
000003d0: 3083 7d3c fd0a 21bc 5edb 56bd 1716 44ba
000003e0: 21ef 08bd dc11 913c 47d1 533d 0e50 bdbc
000003f0: ef41 76bc c469 463b f0f3 0fbc fdb0 06bd
-0.054255597 -0.03191873 0.0039698044 -0.025046885 -0.005859104 -0.020332744 0.062354174 0.01829809
-0.047766645 0.060697854 -0.005725589 0.04901048 0.01586235 0.0015202343 0.005386835 -0.033842146
0.04206701 0.01532004 0.014940758 -0.017699696 -0.013621299 0.0068825027 -0.020442192 0.042365886
-0.06246417 -0.030732693 -0.061917387 -0.009919519 -0.044165064 -0.10726501 -0.013484322 0.085176386
-0.025752997 -0.040743783 2.6610207e-06 0.023817003 -0.013383521 0.019111177 0.034389187 0.05731828
-0.03964726 -0.05527153 0.017222509 -0.0036987842 -0.008564941 0.011411102 -0.0060087377 0.024824489
0.010859433 -0.03334805 -0.008072531 0.0023179697 -0.05766924 -0.020019157 0.052376315 -0.032792218
0.00520481 -0.033852626 0.030514842 -0.016699014 -0.010128836 0.008800341 -0.030875333 -0.04794887
0.03931263 -0.019989805 -0.035380244 -0.003589542 0.0077672354 0.0037462048 -0.01814085 -0.02593011
-0.0061725923 0.0982272 -0.029946914 -0.026625816 -0.024744134 -0.0039316453 -0.0065314253 -0.009792795
0.015543886 0.042817693 0.0059314272 0.07011897 0.046993833 0.07316625 0.039539885 -0.05944998
0.0047582826 -0.039377622 -0.047399648 -0.018786825 0.046813723 0.049176015 -0.028830426 0.0044623734
0.03201217 -0.07757058 0.017794643 -0.018840723 0.015677052 0.0070562027 0.03130286 0.04812795
-0.0025348377 -0.05105382 0.012281991 0.036920685 0.0011845494 0.07172879 -0.06783616 0.004041421
-0.07335714 -0.046340108 -0.02657947 0.017305192 -0.054395 -0.008697564 0.006458988 -0.026916852
-0.033563346 0.039044194 -0.020579118 0.031148182 0.050613448 0.021076435 -0.09510171 0.006198408
-0.014912498 0.04543587 -0.045204215 -0.030073093 0.017305836 -0.0065224934 0.029166328 0.018673046
-0.02070137 0.0062807635 0.037129454 -0.023461884 0.010352192 0.048104193 -0.020083405 -0.008319237
0.021678725 0.010146999 -0.010353414 0.0024770075 -0.005226376 -0.014879589 0.03887331 0.04079574
0.0034485594 0.04474074 0.06747582 0.00653477 -0.01769682 -0.0013272143 0.032544903 0.025481923
0.07154632 0.034432635 0.027848966 0.010156386 -0.02116057 0.047788415 -0.016853686 -0.10360208
0.00030257832 0.006214373 -0.020939931 -0.019788511 -0.014605681 0.0056985584 -0.014245589 0.038577154
-0.0071930983 -0.0043437732 -0.00073418254 -0.08676892 0.03209893 -0.023374528 0.06743858 0.04175673
0.04164144 -0.054771837 0.020204457 0.061961632 -0.041215457 -0.0069944463 0.014432113 0.0072505176
0.03526391 -0.022780595 0.011009887 -0.011681919 -0.018881528 -0.03295335 0.03355002 -0.011208233
0.007419471 0.036406796 0.072001465 0.04569643 0.05077702 0.0071389754 0.052648347 -0.032776907
0.022905719 0.03662397 -0.063878916 0.0010250009 -0.042511433 0.048355773 -0.0003171289 0.09491591
-0.006390682 0.006672632 -0.01236812 -0.0020544715 0.02403051 0.023692362 0.059192117 0.031985044
-0.0009667063 -0.05442234 -0.04514271 0.03704103 0.04621281 0.031784907 0.030506007 0.025593502
0.0041813804 -0.03617353 0.023827052 0.02348826 0.044148486 -0.02842362 -0.016867463 -0.048474703
0.033972908 0.045619614 -0.012971504 0.01738458 0.015473172 -0.00982928 -0.0524553 -0.0007480098
-0.033431176 0.017708711 0.051713254 -0.023109462 -0.015030368 0.0030275444 -0.008786187 -0.032883633
