dataset/US-11551010-B2/US-11551010-B2_claim_emb.npy (npy, 61568 bytes, 1 tensors)

array f4 [20, 768]
000000 15 3e 9a bd 8b 8c fc bc 3a 71 c4 bb a4 ba 9d bc
       -0.075313725 -0.030828735 -0.005994943 -0.019254036
000010 95 d5 11 bd d7 65 9b 3b d2 bf 12 3d 7d 8b 86 3c
       -0.03560408 0.004742365 0.035827465 0.016423935
000020 89 38 84 ba 91 25 90 3d 10 04 05 3c 33 d3 09 3d
       -0.001008765 0.07038415 0.008118644 0.03364868
000030 91 bb 4c 3b a7 36 a4 bc 66 97 43 3c e3 ee 55 bd
       0.0031239728 -0.020045592 0.011937952 -0.052229773
000040 b9 f2 37 3c c5 bc b2 3c 8b 62 66 ba af 95 af bc
       0.011227303 0.021818528 -0.0008788488 -0.02143368
000050 ce 8c af b9 de 02 2c 3c 0d 02 98 bc 86 c2 08 3d
       -0.0003348351 0.0104987305 -0.018555665 0.033388637
000060 72 6a 09 bd c5 05 26 bd d1 36 59 bd e9 f4 a1 bc
       -0.03354878 -0.040532846 -0.053030793 -0.019770103
000070 c8 be ed bc bd b2 e8 bd 83 06 91 bc 93 ed 9a 3d
       -0.029021636 -0.113622166 -0.0177033 0.07564845
000080 fe ef 24 bd 6f d5 0d bd 0f c5 34 36 39 4c cc 3c
       -0.040267937 -0.034627374 2.6936793e-06 0.02493869
000090 51 ac f8 bb 64 ea 92 3c 56 82 0b 3d 3f 10 49 3d
       -0.007588901 0.017934032 0.034059845 0.04908776
0000a0 30 a7 21 bd 70 9d 2c bd c5 87 87 3c aa 8f b1 3b
       -0.039466083 -0.04214233 0.016544232 0.0054187374
0000b0 31 43 12 bb c6 03 03 bc 8c 4d 1a 3c 15 73 d1 3c
       -0.0022317881 -0.007996505 0.009417903 0.02556757
0000c0 3c fd 9a 3b 16 49 23 bd 03 c7 18 bc 99 ae e6 ba
       0.004729895 -0.039864622 -0.009324792 -0.0017599642
0000d0 50 c8 14 bd 5a 56 b8 bc ab 36 2e 3d ad c0 0d bd
       -0.036323845 -0.022502113 0.042532604 -0.034607578
0000e0 af f5 4d 3c 7f 2e 3d bc 4f 7e ac 3c e9 b9 7b bc
       0.012570783 -0.01154673 0.021056322 -0.015364149
0000f0 4b eb 0d bd 65 fe 42 3b d8 12 ad bb 36 41 03 bd
       -0.03464822 0.0029753682 -0.0052817874 -0.032044612
000100 14 c6 1f 3d 0b dd 9e 38 a9 7e fa bc 3e a4 a4 bb
       0.03900726 7.5751996e-05 -0.030577974 -0.005024462
000110 14 5f eb ba a7 e1 f8 3b 8d 69 99 bc 65 ac e3 bc
       -0.0017957413 0.007595259 -0.018727088 -0.027792165
000120 bf 7e 0a 3c 17 e7 a1 3d 68 63 2d bd 06 4d 25 bd
       0.00845307 0.07905405 -0.04233113 -0.04035666
000130 6f 42 91 bb cc b5 3d bb e5 06 a0 bc 40 21 c4 bb
       -0.0044329683 -0.002894747 -0.019534538 -0.005985409
000140 55 03 3f 3b 07 1e 20 3d 05 a1 13 3c 08 22 99 3d
       0.0029146273 0.039091136 0.009010558 0.07477194
000150 6b e6 a0 3d 40 5a c7 3d 38 8f e1 3c 2e 38 a3 bd
       0.07856449 0.09734011 0.027534112 -0.079697
000160 40 7d 1f 3c a1 07 72 bd 22 fd 8e bd d8 a4 8d bc
       0.009734452 -0.059089307 -0.06981875 -0.017290518
000170 9b 86 41 3d 6a 4f 19 3d 1c 8e ce 3b c7 2c 34 3c
       0.04724751 0.03742925 0.006303562 0.010997004
000180 3c d3 10 3d e9 3a 9f bd f1 4a f9 3c f9 4c 84 bb
       0.0353577 -0.07774908 0.030431243 -0.004037496
000190 dc 61 fe 3c 89 89 0a 3d b6 ea 3c 3b 19 c3 25 3d
       0.031052522 0.03382257 0.0028826422 0.040469263
0001a0 2f 8a 21 bb 95 57 ea bc 85 91 d5 bc dd 23 a8 3c
       -0.0024649014 -0.028606215 -0.026070366 0.020524913
0001b0 65 a8 d1 3c e5 a7 93 3d be 7a 9c bd d6 d1 87 3c
       0.025592992 0.07209758 -0.07640599 0.01657955
0001c0 96 82 6f bd fa 7b ca bc 81 df 8e bc 62 58 81 3c
       -0.058474146 -0.02471732 -0.01744056 0.015789215
0001d0 7b 27 6e bd 57 25 5b 3b 4c 62 49 3c a5 e7 ff bc
       -0.05814312 0.0033439004 0.012291502 -0.031238386
0001e0 ba 6c 35 bd 44 e8 b9 3c ad 61 76 bc 6d 13 1e 3d
       -0.044293143 0.02269376 -0.015037936 0.038592745
0001f0 48 0b 38 3d 0f 24 c2 3c 86 b3 ba bd 87 64 2c 3c
       0.044932634 0.023698835 -0.09116273 0.010522014
000200 c6 95 a2 bc 10 13 20 3d 3f c3 16 bd 0a 39 fb bc
       -0.019846808 0.03908068 -0.036807295 -0.030666847
000210 ff 5b b5 3a 93 fb 7f bc 01 6d 0a 3d 0c 95 2e 3d
       0.0013836621 -0.015623945 0.03379536 0.04262261
000220 9d ac c2 bc 53 65 1c 3b e7 58 4d 3d 4b cc c8 bc
       -0.023763949 0.0023864105 0.050133612 -0.024511477
000230 88 7e 75 b9 60 b2 61 3d ff fa a7 bc e3 b3 8e 3c
       -0.00023412157 0.055101752 -0.020505426 0.017419761
000240 97 44 63 3c cc ab 6a bc 93 b5 e3 3b e2 17 4e 3b
       0.013871334 -0.014323186 0.0069491356 0.003144734
000250 79 1c 6f bc 56 9c 96 bc 29 2c 1f 3d 07 a8 a8 3d
       -0.014594191 -0.018385094 0.038860474 0.08235174
000260 4b 2d d2 3c 13 6e e3 3c c6 46 9b 3d b6 d7 96 3c
       0.025656363 0.027762448 0.07581858 0.018413406
000270 cd 01 24 bc 39 2f df 3b 2d 83 21 3d 76 5c ee 3c
       -0.010010195 0.0068110493 0.03943174 0.029096823
000280 86 0d 89 3d 4a f1 81 3c c5 74 29 3c e9 51 a4 3b
       0.066920325 0.015862126 0.010342781 0.0050146473
000290 b4 15 e5 bc 37 34 44 3d 05 51 16 bb 5b c2 a0 bd
       -0.02796445 0.04790136 -0.0022936475 -0.0784957
0002a0 ed d6 b2 bc 83 ac 74 3c 87 55 38 bd 7b 0f 30 bc
       -0.021831 0.014933708 -0.04500344 -0.010745878
0002b0 58 ce ca bb 29 66 8b 3c a8 a5 89 bc 62 4d 1c 3d
       -0.006189149 0.017016487 -0.016802624 0.038159736
0002c0 90 e1 4c bc f1 c7 5b bb 8f 64 e4 3b d5 04 98 bd
       -0.01250495 -0.0033535922 0.0069699953 -0.07422797
0002d0 85 d1 25 3d 74 34 14 bd 42 78 87 3d a4 70 41 3d
       0.040483017 -0.036182836 0.06614734 0.047226563
0002e0 db 84 19 3d fc 03 2a bd 01 8f e3 3c 23 74 3c 3d
       0.037480216 -0.041507706 0.02777815 0.046009194
0002f0 50 c5 c8 bc 36 61 02 3c a4 6d d5 3c 0c 92 8a 3c
       -0.024508148 0.007957747 0.026053257 0.016915344
000300 fc a4 4c 3c 05 ba fb bc bb 24 19 bc 47 36 0a bd
       0.012490507 -0.03072835 -0.009347136 -0.03374317
000310 7d 11 1c bc 04 50 35 bd 82 7e 00 3d d2 a2 22 bc
       -0.009525654 -0.044265762 0.031370647 -0.009926515
000320 d6 27 07 bc 51 39 28 3d ef 4e 85 3d 2a d8 8f 3c
       -0.008249244 0.041070286 0.06509196 0.01755913
000330 8e a5 44 3d bf 70 16 bc 5e 89 52 3d d7 d4 02 bd
       0.048009448 -0.009182154 0.051400535 -0.03194126
000340 69 d7 23 3d 95 c9 f5 3c 8b e3 97 bd a3 b1 b9 3b
       0.040000353 0.030003348 -0.07416447 0.005666928
000350 09 bf 27 bd 10 b3 0e 3d 95 a4 91 3b 1e c0 b3 3d
       -0.04095367 0.034838736 0.0044446685 0.08776878
000360 25 2c 4d 3c b6 ea 45 3b 59 a6 9b bc f2 ac e1 3b
       0.012522732 0.0030199713 -0.01900022 0.0068870718
000370 f0 dc 3c 3c 48 7d 3c 3d 10 c7 66 3d 31 4f e4 3c
       0.011527285 0.046017915 0.056342185 0.027869793
000380 9c f7 97 3c 46 50 48 bd 03 e3 aa bc 39 60 5c 3d
       0.018550687 -0.04890468 -0.0208602 0.053802703
000390 c5 33 97 3d f0 75 d2 3c 6b a3 d6 3c a5 47 8a 3c
       0.07382921 0.025691003 0.02620097 0.016879866
0003a0 29 af 05 3c 0f b2 13 bd 40 da 46 3c 3c 3b 2d 3d
       0.008159437 -0.03605848 0.012136996 0.04229282
0003b0 ce aa e3 3c 8e a7 9b bb e2 ac ae bc 92 e3 77 bd
       0.027791407 -0.0047501987 -0.021322671 -0.060519762
0003c0 ed 62 f8 3c b0 b1 9c 3c 30 b1 d7 bb 7d 4e 13 3c
       0.030320609 0.019127697 -0.0065824017 0.008990881
0003d0 74 f8 d0 39 2a db ee bb 11 81 ff bc 28 7f 3d bc
       0.00039857964 -0.00728931 -0.031189473 -0.011565961
0003e0 e1 13 17 bd 1b e2 11 3c 6f 99 43 3d aa cc a2 bc
       -0.036884192 0.008904005 0.047753748 -0.019872982
0003f0 da 48 57 bb e5 33 fb bc 2f 99 1e bc 4d 68 bd bc
       -0.003284982 -0.030664394 -0.0096800765 -0.023121024
