dataset/US-11669918-B2/US-11669918-B2_claim_emb.npy (npy, 61568 bytes, 1 tensors)

array f4 [20, 768]
000000 b6 7f 85 bd 82 ae 05 bd e8 24 77 bc 58 56 b2 bc
       -0.065184996 -0.032637127 -0.015084483 -0.021769688
000010 07 8b 8a bc 5d 1d 82 bc 89 25 61 3d 80 34 a4 3c
       -0.016911997 -0.015883142 0.054967437 0.020044565
000020 70 7f cc bc f3 88 66 3d 1a d1 5d 3b 8b d3 da 3c
       -0.02496311 0.05628295 0.0033846558 0.0267122
000030 8c dd 02 3c cc 00 84 3b d5 b9 21 3c 23 f2 44 bd
       0.007987391 0.0040284153 0.009870966 -0.048082482
000040 dd 50 b0 3c 16 9f 97 3c 14 1c 88 3c e5 28 55 bc
       0.021522934 0.018508475 0.016614951 -0.013010238
000050 7e 77 a7 bb 06 00 3b 3c e9 fc 09 bd 6b c5 17 3d
       -0.00511068 0.01141358 -0.03368846 0.037053507
000060 d4 20 56 bd 43 f7 2c bd 34 52 4c bd ce 1c 96 bc
       -0.0522774 -0.042227995 -0.049883083 -0.018324282
000070 ed 87 0d bd a1 f2 d8 bd 6f 1c b5 bc d6 5b 9f 3d
       -0.034553457 -0.10593153 -0.022108285 0.07781188
000080 da fd 2a bd 0c 4b 15 bd 3b 1b 2e 36 f6 f3 d1 3c
       -0.041745998 -0.036448523 2.594387e-06 0.025629025
000090 a5 8a 98 bb 3c 6c a0 3c 2c a9 0b 3d b9 59 7f 3d
       -0.0046551996 0.01958286 0.03409688 0.062341426
0000a0 0f 3c c4 bc ef da 3f bd 88 bd b0 3c 01 52 bb 3b
       -0.02395442 -0.04683965 0.02157475 0.0057165627
0000b0 6c a6 95 3b 40 c4 1c 3c a4 51 12 bb 21 90 8a 3c
       0.004566958 0.009568274 -0.0022326494 0.01691443
0000c0 dc a5 0b bc b3 db 1b bd 06 a7 22 bc 64 3a 06 bc
       -0.008523431 -0.03805132 -0.009927517 -0.008192632
0000d0 b4 e3 eb bc 47 29 ae bb 61 fd 3d 3d 70 68 d6 bc
       -0.0287951 -0.0053149792 0.04638422 -0.026172847
0000e0 f0 55 0d 3c d7 69 bf bc 16 38 ae 3c 85 cd 78 bc
       0.008626446 -0.023365898 0.021266978 -0.015185718
0000f0 36 cf 74 bc 4e c0 30 3b 0b 5a bd bc db 67 24 bd
       -0.014941981 0.0026970091 -0.023114225 -0.040138107
000100 8c e2 42 3d e0 33 2a bc 40 cb d2 bc 32 cf 68 bc
       0.047579333 -0.0103883445 -0.025731683 -0.014209555
000110 5c 77 99 bb 6f fa b9 3b c5 a1 80 bc d7 dc ca bc
       -0.004683418 0.005675606 -0.015702138 -0.024763508
000120 b7 1c f3 3a c1 22 aa 3d d0 f0 fe bc 61 d1 f2 bc
       0.0018547986 0.0830741 -0.031120688 -0.029640855
000130 c2 f9 60 bc 5c c2 59 3c cf ef a8 bc 82 6a d8 ba
       -0.013731422 0.013290968 -0.020622162 -0.0016511234
000140 a5 b4 ca 3b 72 8a fa 3c 86 ad 29 3c da bb 85 3d
       0.0061860853 0.030583594 0.010356313 0.065299705
000150 c6 70 75 3d 6b f9 98 3d db 49 10 3d 38 b1 9c bd
       0.059922002 0.07469448 0.035226684 -0.07650989
000160 5e 02 49 3c b1 95 59 bd a3 41 81 bd 55 72 34 bc
       0.012268631 -0.053121272 -0.06311347 -0.011013587
000170 94 66 6c 3d 4a af 38 3d 16 d7 56 bc a4 5e 88 3b
       0.057715014 0.045089044 -0.013112804 0.0041616727
000180 2e c4 48 3d 44 99 a4 bd 21 3b 93 3c 90 b4 7a bc
       0.049015217 -0.080370456 0.01797253 -0.0153018385
000190 23 c7 be 3c 08 e6 6b 3c 1f 1e 64 3c bc 9c 2f 3d
       0.023288315 0.014398105 0.013923197 0.042874083
0001a0 41 4e 87 bc d5 7d 49 bd 0e 45 f7 bb 10 f8 a8 3c
       -0.016516807 -0.04919227 -0.0075460738 0.020626098
0001b0 c2 63 18 3c ce b3 81 3d e7 46 8d bd b1 e0 ab 3c
       0.009301128 0.06333123 -0.06898289 0.020981165
0001c0 2e fb 79 bd ce de 1d bd b7 25 3d bc f7 3f 10 3c
       -0.06103056 -0.03854256 -0.011544636 0.008804313
0001d0 80 7e 6f bd f3 61 f5 3b d1 48 88 3b a2 39 03 bd
       -0.05847025 0.007488483 0.004159071 -0.032037385
0001e0 c9 51 59 bd ed b0 d4 3c 3d 76 db bb a8 91 01 3d
       -0.053056512 0.025963271 -0.0066974447 0.03163305
0001f0 e3 81 31 3d 49 1e 6f 3c df 05 c4 bd 3a 2b ac 3b
       0.04333676 0.014594623 -0.09571432 0.0052541764
000200 cf 53 d7 bc 6b 7d 07 3d 2b 84 39 bd 6b c3 cd bc
       -0.02628508 0.033078592 -0.04529206 -0.025117597
000210 14 6d f3 3b c9 34 17 bc f6 0a 10 3d 41 7b 9c 3c
       0.0074287746 -0.009228894 0.035166703 0.01910174
000220 72 16 0a bd 9e 27 c4 3b 9a 62 40 3d 0f d4 46 bc
       -0.03371281 0.005986168 0.046969034 -0.01213552
000230 ae 1e 3c 3c 70 80 37 3d 74 8a b4 bc 6f 59 8c 3c
       0.011481924 0.044800222 -0.022038676 0.017132489
000240 d4 1d 11 3d 30 39 c8 bb 5d bf 24 bc b8 b9 1b 3b
       0.035428837 -0.006110333 -0.01005539 0.002376182
000250 d7 7c 39 bc 0a 8d be bc d3 6a 50 3d c7 2f 8b 3d
       -0.011321268 -0.023260612 0.050883126 0.06796222
000260 ef 91 91 3c 9f 82 20 3d 9e 61 8d 3d d0 7b 2d 3c
       0.017769782 0.03918707 0.069033846 0.010588601
000270 54 1d f2 bc 37 b3 db 3a f1 b1 08 3d 15 fd 0d 3d
       -0.029555 0.0016761784 0.033372823 0.034665186
000280 72 70 86 3d ea 79 12 3d f1 2b 35 3c eb 06 27 3a
       0.06564416 0.035760798 0.01105784 0.00063715753
000290 9e f1 5b bc b0 a0 8b 3d 3e e2 76 bb 51 c4 b4 bd
       -0.013424305 0.06817758 -0.0037671472 -0.08826507
0002a0 28 e9 03 bc 66 8a 8e 3c 31 cc 32 bd f6 7d ae bc
       -0.008051194 0.017399978 -0.043651763 -0.021300297
0002b0 c4 24 94 bc e8 a3 cf 3c cd 4b b5 bc 2d 92 dc 3c
       -0.018083937 0.025346711 -0.022130871 0.02692517
0002c0 a6 d4 2b bc 5a 43 62 3b f5 44 1a 3c ef 4a c7 bd
       -0.010487711 0.0034525008 0.009415855 -0.09731089
0002d0 05 be cf 3c e4 7f 0d bd 02 20 a5 3d c8 24 30 3d
       0.025359163 -0.034545794 0.08062746 0.043003827
0002e0 95 2a f0 3c 81 06 48 bd 5e cd e8 3c 1e 89 72 3d
       0.02931718 -0.048834328 0.02841824 0.059212796
0002f0 59 9b b7 bc c2 56 d1 b8 a8 5e b0 3c 78 16 9d 3b
       -0.022412943 -9.9820565e-05 0.02152951 0.0047939382
000300 ee e3 fb 3b 02 dd f1 bc 6a f6 25 bc 20 6c e1 bc
       0.0076870834 -0.02952433 -0.0101295505 -0.027517378
000310 f6 52 4e bc ea 9d 0b bd dc a2 5e 3c ba b6 9b bc
       -0.012593022 -0.034086145 0.013588633 -0.01900803
000320 0e 14 27 ba b7 27 38 3d 8a 1d 6d 3d 17 ab 17 3d
       -0.0006373533 0.04495975 0.0578895 0.0370284
000330 96 7a 51 3d 1d 62 a1 3a b3 00 00 3d 41 d3 e9 bc
       0.051142298 0.0012312565 0.031250667 -0.028543117
000340 2d 38 a6 3c b5 85 3e 3d 5d 5b 91 bd 35 f9 e1 3a
       0.020290459 0.04651423 -0.07097504 0.0017240407
000350 7b e8 03 bd c8 ae 0c 3d ae d6 e5 3c 59 59 99 3d
       -0.032204133 0.034346372 0.028056469 0.07487745
000360 11 2a 8d 3b 78 9a 15 3c 0c 35 4b bc c3 b7 bf 3a
       0.004307993 0.0091310665 -0.012402784 0.0014626909
000370 ea a5 c1 3c ca d0 06 3d e0 48 a5 3d 44 0a 03 3d
       0.023638684 0.03291396 0.080705404 0.031992212
000380 ee 4e 1e 3c 86 ec 23 bd de b4 03 bd 18 39 37 3d
       0.009662373 -0.04002049 -0.03215491 0.044732183
000390 91 3f 83 3d 37 9b 93 3c a7 e9 d5 3c ad 6e 89 3c
       0.06408609 0.018018348 0.02611239 0.016776407
0003a0 3f de 5b 3c e5 1c 17 bd 7b 1e e0 3c 27 66 05 3d
       0.013419687 -0.03689279 0.027358284 0.032568123
0003b0 f3 79 3e 3d b2 9c 38 bc 85 62 de bc b2 ae 56 bd
       0.04650302 -0.011267828 -0.027146587 -0.052412696
0003c0 f0 da d4 3c d0 0c 14 3d 7d 38 ac bb 73 91 93 3c
       0.025983304 0.03614503 -0.0052557574 0.018013692
0003d0 17 7c 21 bc 9a 32 84 bb 7f 85 25 bd 98 a1 f3 3a
       -0.0098562455 -0.0040343525 -0.040410515 0.0018587587
0003e0 e2 b6 01 bd 6e 70 49 3c 20 34 47 3d 96 ae 85 bc
       -0.03166855 0.012294872 0.048633695 -0.0163186
0003f0 d4 65 11 bc ba 45 c2 bc 91 6b 87 bc 1a 52 16 bd
       -0.008874375 -0.023714889 -0.016530784 -0.036699392
