dataset/US-11627160-B2/US-11627160-B2_abstract_emb.npy (npy, 3200 bytes, 1 tensors)

array f4 [768]
0	0xbd76a45c	-0.06021534
1	0xbce8dbbf	-0.028425096
2	0xbc225350	-0.009907559
3	0xbcc44346	-0.02395786
4	0xbca2b5f8	-0.01986216
5	0xbc8397a1	-0.016063513
6	0x3d4e8f59	0.050429676
7	0x3ce36c31	0.02776155
8	0xbcea484f	-0.028598933
9	0x3d894673	0.0670289
10	0xbaeedaaa	-0.0018223126
11	0x3d084951	0.033273045
12	0x3c4c2c4f	0.012461736
13	0xbb9b178c	-0.0047330316
14	0x3c76c412	0.015061395
15	0xbd957e4f	-0.07299482
16	0x3ca762a1	0.020432772
17	0x3c75c894	0.015001435
18	0x3c05b9b5	0.008161952
19	0xbc382024	-0.011238132
20	0xbc0a4480	-0.008439183
21	0x3c19c695	0.009385725
22	0xbcb74e68	-0.022376254
23	0x3d0517c3	0.032493364
24	0xbd312190	-0.0432449
25	0xbd0ee272	-0.034883924
26	0xbd610459	-0.054935787
27	0xbc996664	-0.018725581
28	0xbd18d3af	-0.037311252
29	0xbdce3525	-0.1006873
30	0xbc88b00b	-0.016685506
31	0x3d9b1c27	0.07573729
32	0xbd077020	-0.033065915
33	0xbd1354cc	-0.03596954
34	0x362d2814	2.5802337e-06
35	0x3d013c8b	0.03155188
36	0xbc1f7fd9	-0.009735071
37	0x3c9807fa	0.018558491
38	0x3d228134	0.039674
39	0x3d655402	0.05598832
40	0xbd2c7b9c	-0.04211007
41	0xbd2c3076	-0.042038403
42	0x3c872131	0.01649532
43	0x3b2dd7aa	0.002652625
44	0xbbdcfb98	-0.0067438595
45	0x3bd9356f	0.0066286842
46	0x3a98fbad	0.0011671685
47	0x3d0689cc	0.032846257
48	0xbb86e79c	-0.0041169655
49	0xbccb74ed	-0.024836028
50	0xbc0c1a9c	-0.008551266
51	0xbbb87fcf	-0.0056304703
52	0xbcd108a1	-0.02551681
53	0xbc3e2625	-0.011605774
54	0x3d4bb831	0.049736205
55	0xbd2e863a	-0.042608477
56	0x3b8d64ea	0.0043150084
57	0xbd032880	-0.032021046
58	0x3d0988b4	0.033577636
59	0xbc641d59	-0.013923013
60	0xbcade63b	-0.021227947
61	0xbb68a611	-0.0035499374
62	0xbc1ffc7f	-0.00976479
63	0xbd257fb8	-0.040405005
64	0x3cdab6fe	0.026698586
65	0xbc6e32fc	-0.014538523
66	0xbd30b221	-0.043138627
67	0xbb8d941b	-0.004320634
68	0xba6d65a4	-0.0009055978
69	0x3b783ce0	0.0037878081
70	0xbcb033c7	-0.021509064
71	0xbcb7e66c	-0.02244874
72	0xbb030b9e	-0.0019995938
73	0x3db70526	0.08936529
74	0xbcef32d9	-0.02919905
75	0xbd1de830	-0.03855151
76	0xbc8ce6b1	-0.017199846
77	0xbc0334cc	-0.008008193
78	0xbc45d6d7	-0.012075148
79	0xbc12f204	-0.008968834
80	0x3c184fd7	0.009296379
81	0x3d2d32d0	0.042284787
82	0x3bf23ad3	0.0073922663
83	0x3d7abf0b	0.06121735
84	0x3d740e2d	0.05958383
85	0x3d9e3299	0.077244945
86	0x3d13dfbf	0.036102053
87	0xbda432d2	-0.08017506
88	0x3bf77456	0.00755171
89	0xbd31e0b7	-0.043427195
90	0xbd80b606	-0.06284718
91	0xbc9d5187	-0.019203914
92	0x3d7297d4	0.059226826
93	0x3d0d49d2	0.03449423
94	0xbc5e60e5	-0.013572906
95	0x3bf86431	0.007580303
96	0x3d314181	0.04327536
97	0xbd99b06d	-0.07504354
98	0x3c85d731	0.016337963
99	0xbc1335cc	-0.008984994
100	0x3cdeb129	0.027184086
101	0x3cb5de68	0.022200778
102	0x3c2571b0	0.010097906
103	0x3d2f546e	0.042805128
104	0xbc4a7a6b	-0.012358288
105	0xbd1063a6	-0.035251282
106	0xbca7e3c3	-0.020494347
107	0x3cb980b6	0.022644382
108	0x3bd408a8	0.0064707585
109	0x3d8a76ee	0.06760965
110	0xbdaef201	-0.08542252
111	0x3c17e6e5	0.009271358
112	0xbd808683	-0.06275656
113	0xbcf0b318	-0.029382274
114	0xbc4cc07e	-0.012497066
115	0x3c8ad373	0.01694653
116	0xbd83c780	-0.06434536
117	0xba0bbc2a	-0.0005330468
118	0x3c8ad6c9	0.01694812
119	0xbd21942d	-0.039447952
120	0xbd2d1b63	-0.042262446
121	0x3d108b65	0.035289187
122	0xbc21913b	-0.009861286
123	0x3ceb6179	0.028733002
124	0x3d3a8232	0.04553432
125	0x3cbaf34b	0.02282109
126	0xbdb95b40	-0.09050608
127	0x3c8a4bdb	0.016881874
128	0xbd1c8769	-0.038215075
129	0x3d0f041a	0.03491602
130	0xbd33303f	-0.043747183
131	0xbcc73474	-0.024317004
132	0x3c1e66a0	0.009668022
133	0xbc5fe2f8	-0.013664953
134	0x3d02c3a8	0.031924874
135	0x3cccb808	0.024990097
136	0xbd07cb7d	-0.033153046
137	0xbc092837	-0.008371404
138	0x3d332187	0.043733146
139	0xbc80dd25	-0.01573045
140	0x3bfe19f9	0.007754561
141	0x3d3bf154	0.045884445
142	0xbccf6d02	-0.025320534
143	0x3ca4d811	0.02012256
144	0x3c9547d1	0.018222721
145	0xbc0682df	-0.008209913
146	0xbbc4fb99	-0.006011438
147	0xbb0137ff	-0.0019717214
148	0xbc92973e	-0.017894384
149	0xbc2258e9	-0.009908893
150	0x3d445cc5	0.047940034
151	0x3d812cb9	0.06307358
152	0x3c93ca4b	0.018040797
153	0x3d1ea124	0.038727894
154	0x3d893b9a	0.06700821
155	0x3c2cb80e	0.010541929
156	0xbc87e2e9	-0.016587691
157	0x3b9d1fe9	0.0047950638
158	0x3d07be8c	0.033140704
159	0x3d0f8196	0.035035692
160	0x3d76cc27	0.06025329
161	0x3cc24a73	0.02371714
162	0x3bdad734	0.0066784862
163	0xba04fcbd	-0.00050730613
164	0xbc8f6e05	-0.017508516
165	0x3d4dff75	0.05029245
166	0xbcd73c2d	-0.026273811
167	0xbdc3b53f	-0.09556054
168	0xbc0938b1	-0.008375333
169	0x3c060d6a	0.008181909
170	0xbd407f48	-0.046996385
171	0xbc1b310d	-0.009472144
172	0xbc2c35bc	-0.010510858
173	0x3cfdd9b8	0.030987605
174	0xbc6b3520	-0.014355928
175	0x3d01a566	0.031651877
176	0xbbc2f02b	-0.0059490404
177	0xb90e3842	-0.00013563133
178	0x3a802738	0.0009777313
179	0xbdc5db59	-0.09660978
180	0x3cf56071	0.029953213
181	0xbcebd6e0	-0.028788984
182	0x3d9f9fca	0.07794149
183	0x3d3e7178	0.04649493
184	0x3d071e77	0.032988038
185	0xbd4bbb18	-0.049738973
186	0x3d154c40	0.03644967
187	0x3d425154	0.04744084
188	0xbd00d34a	-0.0314515
189	0xbb7e4d0c	-0.0038803248
190	0x3c9a612d	0.018845165
191	0x3c03b1e7	0.008038021
192	0x3caa2956	0.020771664
193	0xbce23e5d	-0.027617628
194	0xbbfd8911	-0.007737287
195	0xbcb34210	-0.021882087
196	0xbcc848eb	-0.024448832
197	0xbd6c7dbc	-0.057737097
198	0x3c3a9965	0.011389111
199	0xbb7bbb83	-0.0038411326
200	0x3ba23b94	0.00495095
201	0x3d45e99b	0.048318487
202	0x3d86174f	0.065474145
203	0x3d2ec059	0.042663906
204	0x3d446ccf	0.04795533
205	0x3aff45a4	0.001947571
206	0x3d38f050	0.045151055
207	0xbd09cd25	-0.033642907
208	0x3d097324	0.033557072
209	0x3d203a13	0.039117884
210	0xbd8d67fa	-0.069045976
211	0x3bd873d6	0.0066056056
212	0xbd21e326	-0.039523266
213	0x3d27b45c	0.04094349
214	0x3b5cdbdb	0.003370038
215	0x3da47841	0.08030749
216	0xba8a086c	-0.0010531074
217	0x3b64e11e	0.003492422
218	0xbc4ffb2e	-0.012694163
219	0x3a4c4020	0.0007791538
220	0x3cc65fd2	0.024215613
221	0x3c8dea68	0.017323688
222	0x3dac49dd	0.08412526
223	0x3cea81a2	0.028626267
224	0x39f43009	0.00046575096
225	0xbd5544c8	-0.052067548
226	0xbd04fca2	-0.032467492
227	0x3d453088	0.048141986
228	0x3d92e4c5	0.071725406
229	0x3d0b574d	0.034018803
230	0x3cdee8c7	0.027210606
231	0x3c95bfaa	0.01827987
232	0x3c4e1ad5	0.012579639
233	0xbd1e85a8	-0.038701683
234	0x3d089978	0.033349484
235	0x3d0a3901	0.03374577
236	0x3d083914	0.03325756
237	0xbca0b6b5	-0.019618372
238	0xbce691d5	-0.02814571
239	0xbd5efbc8	-0.054439336
240	0x3cd19ac0	0.025586486
241	0x3d166599	0.036717985
242	0xbc2193d1	-0.009861902
243	0x3b840ac8	0.0040296055
244	0x3abb0dab	0.0014271041
245	0xbc0823a6	-0.0083092805
246	0xbd40fddf	-0.04711711
247	0x3b9d54ae	0.0048013544
248	0xbd06fb76	-0.032954656
249	0x3c284876	0.010271182
250	0x3d693eba	0.056944586
251	0xbc968d92	-0.018378053
252	0xbb79b72f	-0.003810357
253	0xbc7f24a4	-0.015572701
254	0xbc30b891	-0.010786192
255	0xbcbedf8e	-0.023299959
