dataset/US-11645696-B2/US-11645696-B2_claim_emb.npy (npy, 61568 bytes, 1 tensors)

array f4 [20, 768]
00000000: da74 88bd 0022 18bd bed3 14bc 66d5 96bc
00000010: 68f1 98ba b36f a4bc cbb4 6e3d 9aa9 753c
00000020: 9a29 1bbd 498b 853d e385 3cbb f6a8 833c
00000030: 4ee6 673c c46b 9b3b 458a 63bb db84 50bd
00000040: e88b 223d 44a7 883c 7e02 673c 36e5 ad3b
00000050: ebdb 29bc 7a09 473b 7fed 8bbc dd61 253d
00000060: 8410 81bd a7bd 16bd ae89 55bd afe7 b1bc
00000070: 2680 17bd 91f2 e0bd 69ce 85bc 1e11 b23d
00000080: 58ad f1bc a6f7 28bd 7ed0 2c36 5e0b ac3c
00000090: 9646 0abd acd6 663c 295b 1e3d 8a86 823d
000000a0: 1406 e0bc 058a 1fbd 4768 963c 8deb ae3c
000000b0: 3b68 99bc 8092 df3c c8a8 9e3a f717 5d3c
000000c0: 333f 22bb e0fb cbbc 5405 60bc a979 58bc
000000d0: aaa8 5ebd cf1d 45bc c0e2 543d 2f88 34bd
000000e0: 6901 d23b 8637 debc e00f fc3c 0b69 8abc
000000f0: fb58 39bc 0f9c 34bb aee3 b3bc fe46 1bbd
00000100: 5b7f 4e3d fb7e 6abc 4d90 e6bc 08ef 44bc
00000110: 312c b33a 3242 b03b 3021 50bc 50ab 83bc
00000120: fd7f f5bb d029 c63d 0af6 10bd 9bcc 0dbd
00000130: 53e6 b8bc e562 8838 c365 1fbc 1b26 84bc
00000140: e542 cc3b a2df 413d 8636 593c 7ead 923d
00000150: e004 423d a5ed bd3d ac78 ce3c 002c 91bd
00000160: 1b13 f63b 669a 24bd 1022 59bd 982c 6ebc
00000170: ec6c 803d 94df 533d c3af 95bc 16f4 8b3b
00000180: 5bf6 fb3c 3211 86bd 4272 8f3c ec43 cfbb
00000190: ba4e e43c e8df 1fbb 0278 cb3b b54c 4d3d
000001a0: bfa2 9fbc 3e96 2fbd c1c7 5c3b 8c9b 4f3c
000001b0: 3478 b13b 3aa7 823d 3feb 6fbd 4d62 2f3b
000001c0: a9aa 6dbd 658e 35bd 8772 9cbc 182b 693c
000001d0: d8e6 76bd 0fb6 7b3a 0e4b 9e3a a509 09bd
000001e0: 4278 23bd 60b6 ff3c 9ba8 fcbb 6565 0c3d
000001f0: 8a40 d93c a757 383c 2712 a6bd 5c6e a33b
00000200: 303c eebc e97b 273d 56c7 1dbd ae93 1bbd
00000210: 425c 263a af91 0ebc 3e2f 043d 3133 e93c
00000220: d31f 9abc 98d1 bfbb f9eb 5b3d 87c8 e8ba
00000230: 6106 bb3c fee5 2f3d 3ce9 e4bc 02b2 343b
00000240: 2f7a f83c ef69 f7bb dffa 63ba 41a3 cbbb
00000250: 4940 a9bc 52d1 62bc 79fa 823d efec 783d
00000260: ba86 483c 2824 1e3d 9e05 943d 2c0e 273b
00000270: aea3 e9bc 9b1c dcba a2ef b53c 7453 f63c
00000280: aa4d 5e3d 5457 393d 89d7 2d3d 4f85 98ba
00000290: 6f4a b0bc 6a2d 123d d95d c43a 6b8e d6bd
000002a0: 2be7 c0ba 8faa f63c c936 39bd 3b4d e2bc
000002b0: bcb8 2cbc d7f3 8f3c a023 b9bc 14bf 953c
000002c0: 47fa 10bc b6af e43b 7980 1a3c 842f afbd
000002d0: 7c4e f33c e90f f2bc 167d 953d e0da 773d
000002e0: 6482 2d3d 805c 51bd 75f5 0b3d a429 783d
000002f0: bb6e 0dbd dfb1 14bc 4bfb 5a3c 108c 863b
00000300: 369b 1d3d 93ca c3bc 9d9f aabc 3cff 9fbc
00000310: 575d 05bc a597 68bd 67b5 6e3c db0c 78bc
00000320: 18a6 563c 0f3c 0d3d cd4e a03d 2598 593d
00000330: 1a7b 523d e801 46bc 4d80 303d fdde 0fbd
00000340: c4da d73c 4e30 463d 7b29 87bd aead 21bc
00000350: e017 eebc cf30 173d bd76 803b 80cb b03d
00000360: baa6 33bc d06c 70bc 0cea 01bc 2979 c1bb
00000370: af5a af3c 5d60 ae3c fa78 863d 7812 323d
00000380: abe1 08bc 97fc 4bbd f358 37bd d13b 4f3d
00000390: d482 693d aff6 c13c 9964 fa3c ec74 903c
000003a0: 78c4 613c 323e 06bd 5b27 943c f6fd cd3c
000003b0: 1539 103d 7749 bebc 5787 90bc 1752 69bd
000003c0: 1d71 e63c 8238 283d d414 8ebc 18db 8e3c
000003d0: de72 913c d45c 8f3a 96d7 13bd 2b64 853a
000003e0: a886 bbbc 7442 b03b 3eee 6e3d 0d4f d1bc
000003f0: a6d9 f33a 3758 51bb ff30 1c3a 2964 0bbd
-0.06662913 -0.0371418 -0.009083686 -0.018412303 -0.0011668624 -0.020072794 0.058277886 0.014994049
-0.03788147 0.06520707 -0.0028766326 0.016071778 0.01415403 0.0047430713 -0.0034719866 -0.05090795
0.039684206 0.016681321 0.014099715 0.005306865 -0.010367374 0.0030370639 -0.01708102 0.040376533
-0.06301978 -0.03680196 -0.052133255 -0.02171692 -0.036987446 -0.10983766 -0.016333776 0.08694671
-0.029501602 -0.0412518 2.5751356e-06 0.021001514 -0.033758722 0.014089268 0.038661156 0.063733175
-0.027346648 -0.038949985 0.01836027 0.021352554 -0.018726459 0.027291536 0.0012104744 0.013494483
-0.0024756908 -0.024900377 -0.013673145 -0.0132126 -0.05436007 -0.012031033 0.05197406 -0.044075187
0.0064088595 -0.027126085 0.030769289 -0.016895792 -0.0113127185 -0.0027558838 -0.021959152 -0.0379095
0.050414424 -0.014312501 -0.02814498 -0.01201988 0.0013669786 0.005378985 -0.012703225 -0.0160729
-0.007492064 0.09675944 -0.03539089 -0.034618955 -0.022570765 6.503406e-05 -0.009728852 -0.016131451
0.0062335604 0.047332413 0.013257628 0.07161997 0.04736793 0.09273843 0.025204025 -0.070884705
0.007509602 -0.04018631 -0.053011 -0.014536999 0.06270775 0.051726893 -0.018272286 0.0042710407
0.03075712 -0.065462485 0.017510537 -0.0063252356 0.027869571 -0.0024394933 0.0062093744 0.05012198
-0.019486783 -0.04286789 0.0033688399 0.012671363 0.0054159407 0.06379552 -0.058573958 0.0026761473
-0.058024082 -0.04432525 -0.01909758 0.014231466 -0.060278744 0.0009602019 0.0012076811 -0.033456463
-0.03990961 0.031214893 -0.007710529 0.034276385 0.026520032 0.011251367 -0.08108931 0.004987521
-0.029081434 0.040889654 -0.03852018 -0.037982635 0.0006346145 -0.008701726 0.032271616 0.028466793
-0.018814003 -0.005853843 0.053691838 -0.0017759957 0.02283019 0.042943947 -0.027943246 0.0027571921
0.0303317 -0.00755047 -0.00086967455 -0.0062145297 -0.020660536 -0.013843851 0.0639543 0.060772832
0.012239153 0.0386087 0.07227634 0.0025490625 -0.028520431 -0.0016793193 0.022208992 0.03006909
0.054273285 0.0452493 0.04244188 -0.0011636409 -0.021519868 0.03568784 0.0014981582 -0.10476383
-0.0014717331 0.030110626 -0.045218263 -0.027624717 -0.010542091 0.017572327 -0.022599995 0.01827959
-0.008848733 0.006978954 0.009430044 -0.08553985 0.02970051 -0.029548602 0.07299249 0.06051147
0.04236068 -0.051113605 0.034169633 0.060586587 -0.03452943 -0.009075611 0.013365577 0.004106052
0.0384781 -0.023900306 -0.020828063 -0.019530885 -0.00813993 -0.056785244 0.014569617 -0.015139784
0.013101123 0.034481104 0.0782753 0.053123612 0.05138693 -0.012085415 0.043091107 -0.035124768
0.026349433 0.04838591 -0.06599709 -0.009868069 -0.029064119 0.036911782 0.0039204047 0.086325645
-0.010965044 -0.01467438 -0.007929336 -0.005904336 0.021405546 0.021286184 0.06566043 0.043474644
-0.008354585 -0.049801435 -0.044762563 0.050594155 0.057009533 0.023677198 0.030565547 0.017633878
0.013779752 -0.032774158 0.018085172 0.025145512 0.035210688 -0.02322839 -0.01764266 -0.056963053
0.028130108 0.041069515 -0.017343916 0.017438456 0.017754968 0.0010937699 -0.03609427 0.0010176947
-0.022891358 0.0053790156 0.058332674 -0.02555039 0.0018604293 -0.003194345 0.0005958229 -0.034031067
