dataset/US-11503253-B2/US-11503253-B2_claim_emb.npy (npy, 245888 bytes, 1 tensors)

array f4 [80, 768]
-0.051404074 -0.050777335 -0.00517486 -0.028279383 -0.0074173724 -0.0248394 0.060064092 0.004831675
-0.036420457 0.068801016 0.0014311454 0.034454465 0.03586922 0.017550651 0.010668878 -0.045515977
0.044361845 0.012001404 0.025531324 -0.0075849285 -0.014064902 0.005687762 -0.015449162 0.035141744
-0.049821593 -0.0011327602 -0.05218202 -0.012077549 -0.023990588 -0.1047144 -0.010773889 0.06901704
-0.02629698 -0.03863984 2.7340045e-06 0.024734009 -0.03675196 0.016972626 0.031536266 0.051354684
-0.03216038 -0.026415206 0.006905715 0.030352151 -0.020946952 -0.004761577 -0.010964546 0.027103296
-0.006085073 -0.04518536 -0.01743319 -0.0035744056 -0.07447764 -0.01425399 0.028406179 -0.05435796
0.011496724 -0.02147346 0.019210009 -0.0066747977 -0.025998166 0.0008881491 -0.007336043 -0.03957705
0.04428777 -0.019034823 -0.017769152 -0.004666109 0.0011460115 -0.010137251 -0.0054311478 -0.02786833
-0.002696675 0.08607095 -0.038994513 -0.03152224 -0.027598297 -0.014135225 -0.011413378 -0.024302458
0.0294284 0.05262194 -0.00038531062 0.07198589 0.05448046 0.0675676 0.035035405 -0.07527822
0.0004211237 -0.038213912 -0.076205626 -0.012506986 0.039707474 0.035647746 -0.029996144 -0.012871144
0.018258937 -0.08873706 0.028155219 -0.019579394 0.026795745 -0.0008855039 -0.0011017543 0.03938284
-0.0010786711 -0.023521485 -9.720094e-05 0.012683358 0.0019465878 0.062497564 -0.06851561 0.002369557
-0.051973995 -0.04943216 -0.0454428 -0.008426218 -0.043321125 -0.020823928 0.018335203 -0.02618766
-0.039864123 0.037263438 -0.0075922315 0.037385873 0.03437263 0.01714917 -0.07396919 0.035998967
-0.03102115 0.034227934 -0.054186743 -0.029948352 0.023519406 -0.020094993 0.020242343 0.034921013
-0.028681858 -0.009357039 0.045559917 -0.025912289 0.02673112 0.03245119 -0.034161057 -0.0023226994
0.029371338 -0.0024678323 -0.0033577208 0.008742479 -0.016247278 0.0053995326 0.06421214 0.07200822
0.01949333 0.03016749 0.089113034 -0.0045347237 -0.0068472917 0.0060092965 0.0048938924 0.027365848
0.043197397 0.03336004 0.022634933 -0.009183041 -0.053900406 0.02366355 -0.0015521357 -0.09693068
-0.012765028 0.009121969 -0.024719227 -0.0035412041 -0.01449982 0.022958238 -0.0084928665 0.024812235
-0.010527544 -0.00087278953 -0.00254906 -0.08490195 0.04001101 -0.01975534 0.05485068 0.07048037
0.03675757 -0.043903366 0.011965318 0.06670864 -0.0330888 -0.030539682 -0.0017462816 0.0228013
0.0529406 -0.0019461017 0.00861349 -0.007917593 -0.016156709 -0.038820714 0.0399653 -0.006013121
0.011069519 0.020704422 0.08784888 0.05595909 0.06186303 -0.0027620788 0.055987176 -0.04550905
0.02299258 0.036219038 -0.05454974 -0.00026977874 -0.026005192 0.025289109 -0.018594343 0.07722072
-0.012986234 -0.037824918 -0.007922439 0.004239344 0.023303479 0.03645852 0.05897591 0.046359062
0.0012956583 -0.042054806 -0.03137893 0.04024897 0.05894056 0.028491555 0.02579625 0.007522961
-0.004435533 -0.050807938 0.024682593 0.034945793 0.042055734 -0.026316157 -0.00535317 -0.07385968
0.030441709 0.040262956 -0.014094798 0.006917458 0.0052964683 -0.0055756923 -0.06814279 -0.013918839
-0.01786865 -0.009329883 0.048727438 -0.0031269593 -0.01677902 -0.008223228 0.017325215 -0.03184253
00000000: 148d 52bd e5fb 4fbd df91 a9bb 2aaa e7bc
00000010: 6e0d f3bb ff7b cbbc c405 763d 0753 9e3b
00000020: 9e2d 15bd 8ce7 8c3d 4595 bb3a 2020 0d3d
00000030: 9aeb 123d 62c6 8f3c 85cc 2e3c f66e 3abd
00000040: c4b4 353d 89a1 443c 1127 d13c fe8a f8bb
00000050: 7a70 66bc 6860 ba3b 7b1e 7dbc caf0 0f3d
00000060: ba11 4cbd 2079 94ba d0bc 55bd e9e0 45bc
00000070: e987 c4bc 8174 d6bd f784 30bc ce58 8d3d
00000080: c46c d7bc cf44 1ebd d779 3736 fa9e ca3c
00000090: 3989 16bd 2d0a 8b3c 2c2c 013d 4a59 523d
000000a0: 9aba 03bd b464 d8bc 5649 e23b 13a5 f83c
000000b0: f198 abbc 0107 9cbb a4a4 33bc bb07 de3c
000000c0: 4b65 c7bb 4914 39bd 0dd0 8ebc 9340 6abb
000000d0: bc87 98bd 9189 69bc 13b4 e83c 74a6 5ebd
000000e0: c15c 3c3c 1ce9 afbc 4f5e 9d3c 43b8 dabb
000000f0: 1bfa d4bc add2 683a 3063 f0bb 8b1b 22bd
00000100: 1867 353d ebee 9bbc 9d90 91bc 29e6 98bb
00000110: c435 963a b616 26bc c5f7 b1bb 204c e4bc
00000120: b3ba 30bb f745 b03d b6b8 1fbd 771d 01bd
00000130: d315 e2bc 6e97 67bc 2dff 3abc f315 c7bc
00000140: d413 f13c 1a8a 573d 8403 cab9 576d 933d
00000150: e726 5f3d e260 8a3d 4981 0f3d 782b 9abd
00000160: 44ca dc39 3186 1cbd b211 9cbd 1aea 4cbc
00000170: 4ea4 223d 5f03 123d 79ba f5bc 7ee1 52bc
00000180: c493 953c c7bb b5bd c6a5 e63c f764 a0bc
00000190: c082 db3c 2921 68ba bd68 90ba e74f 213d
000001a0: 3262 8dba 21b0 c0bc 5bd8 cbb8 dccd 4f3c
000001b0: a624 ff3a 72fd 7f3d ea51 8cbd 924a 1b3b
000001c0: afe2 54bd 6079 4abd 3b22 3abd 1f0e 0abc
000001d0: 7e71 31bd f196 aabc b533 963c 8187 d6bc
000001e0: 9048 23bd 8ca1 183d 41c8 f8bb ee21 193d
000001f0: 51ca 0c3d 6b7c 8c3c 297d 97bd a773 133d
00000200: 1120 febc 9732 0c3d ebf2 5dbd 3f56 f5bc
00000210: c5ab c03c 419e a4bc 45d3 a53c 5609 0f3d
00000220: 37f6 eabc 444e 19bc 099d 3a3d 0246 d4bc
00000230: 39fb da3c 8aeb 043d 77ec 0bbd 6e38 18bb
00000240: 299c f03c 5bbb 21bb 350d 5cbb 9d3c 0f3c
00000250: 0319 85bc 90ee b03b a881 833d 0c79 933d
00000260: 7ab0 9f3c d021 f73c e580 b63d 0598 94bb
00000270: 3f5f e0bb a2e9 c43b f25c a03b 582e e03c
00000280: c1ef 303d 8aa4 083d e56c b93c 7774 16bc
00000290: acc6 5cbd 10da c13c 0871 cbba 9883 c6bd
000002a0: 6824 51bc 5074 153c fa7f cabc 8c13 68bb
000002b0: a790 6dbc ea12 bc3c aa25 0bbc 0743 cb3c
000002c0: b87b 2cbc eacb 64ba 210e 27bb 13e1 adbd
000002d0: 96e2 233d f3d5 a1bc 1bab 603d 0358 903d
000002e0: 1b8f 163d 04d4 33bd 2e0a 443c 8a9e 883d
000002f0: 1f88 07bd 5b2e fabc 7de3 e4ba cbc9 ba3c
00000300: 3ed8 583d 5614 ffba 981f 0d3c cbb8 01bc
00000310: 135b 84bc 7802 1fbd a8b2 233d b709 c5bb
00000320: ee5c 353c 529c a93c 1dea b33d 5c35 653d
00000330: 1764 7d3d fe03 35bb cf52 653d b367 3abd
00000340: ef5a bc3c 6a5a 143d 8c6f 5fbd 1771 8db9
00000350: d708 d5bc 1b2b cf3c 2a53 98bc e625 9e3d
00000360: 37c4 54bc 4dee 1abd 1ecd 01bc 32ea 8a3b
00000370: f0e6 be3c 8755 153d b990 713d 00e3 3d3d
00000380: 14d3 a93a a941 2cbd 3187 00bd 1bdc 243d
00000390: a86b 713d 1f67 e93c a852 d33c 2c83 f63b
000003a0: f357 91bb fc1b 50bd 2633 ca3c 5223 0f3d
000003b0: a242 2c3d fb94 d7bc a569 afbb be43 97bd
000003c0: e460 f93c c5ea 243d deed 66bc d8ab e23b
000003d0: ff8d ad3b 4cb4 b6bb 728e 8bbd d80b 64bc
000003e0: 4661 92bc 5edc 18bc 6c96 473d aced 4cbb
000003f0: 2874 89bc b8ba 06bc 9ced 8d3c 506d 02bd
