dataset/US-11734583-B2/US-11734583-B2_claim_emb.npy (npy, 61568 bytes, 1 tensors)

array f4 [20, 768]
000000 3e 60 6e bd ba 2b 8c bc dd 5a 88 bb cc 12 a5 bc
       -0.058197252 -0.017110694 -0.0041612224 -0.020150565
000010 16 dc 7a bc 6e 55 dc bb 03 c8 3d 3d cc ee a5 3c
       -0.015311262 -0.006724051 0.046333324 0.020255469
000020 d2 70 d2 bc b2 5c 68 3d c3 d0 77 bb 8e cb 0c 3d
       -0.025688563 0.056729026 -0.003781364 0.034373812
000030 9c e2 45 3b 92 95 f1 bb 56 ff 5f 3c 15 75 50 bd
       0.0030194884 -0.0073725665 0.013671717 -0.050892908
000040 fd 8a bb 3c b3 f6 81 3c c9 5f db ba 81 90 ea bb
       0.022893423 0.015864706 -0.001673692 -0.0071583395
000050 03 e3 81 bc 59 55 f8 3b 45 53 d5 bc c9 9f 32 3d
       -0.015855318 0.0075785336 -0.026040683 0.043609414
000060 66 f1 49 bd 33 b0 1d bd 09 38 37 bd e6 c1 ff bc
       -0.04930248 -0.038498115 -0.044731174 -0.031220388
000070 4b f0 33 bd cf ae c2 bd 1e ad f6 bc 70 e0 bb 3d
       -0.043930333 -0.09505998 -0.030111846 0.091736674
000080 ee 65 18 bd d0 1b 19 bd 23 07 39 36 7b b0 9a 3c
       -0.037206583 -0.03738004 2.7571302e-06 0.01888298
000090 c5 17 20 bc e6 31 1c 3c 93 18 07 3d 07 65 4e 3d
       -0.009771292 0.009533381 0.03298242 0.050389316
0000a0 5f 2a b1 bc 3f e0 93 bd 8f bc a5 3c ca 49 fb 3b
       -0.02162665 -0.07220506 0.020231513 0.0076687085
0000b0 69 c1 fd 3a 2e f6 16 3c 7a b9 f7 3a 78 cc 00 3c
       0.0019360009 0.009213967 0.0018899881 0.007861249
0000c0 20 11 e4 39 92 48 0a bd 4c ea 20 bc b3 6b 63 bc
       0.00043500308 -0.033760615 -0.009821486 -0.013880658
0000d0 14 e0 35 bd b9 52 46 bc 3b 1d 60 3d 32 cd ee bc
       -0.04440315 -0.012104684 0.054715376 -0.02915058
0000e0 a5 ba 61 3c bd 81 37 bc e5 6a bd 3c a8 05 db bc
       0.01377741 -0.011200366 0.02312226 -0.026736096
0000f0 7b ca 4e b9 4f b4 8a 3b 92 bc ff bc c9 aa 20 bd
       -0.00019721121 0.0042329202 -0.031217847 -0.039225373
000100 64 94 4b 3d cb 41 b3 bc 93 1b a6 bc 2b 95 e8 ba
       0.049702063 -0.021881958 -0.02027682 -0.0017744651
000110 28 93 2a b9 9a 3e e2 3b 13 7c 69 bb 4d b1 89 bc
       -0.00016267283 0.0069044353 -0.0035626933 -0.016808176
000120 bc 35 d0 3b ea 1f c5 3d db 83 fb bc 37 df fc bc
       0.006354062 0.09625228 -0.030702522 -0.030868156
000130 53 8f ce bc c0 b7 37 3c 6e 97 b5 3b a6 6b ce bb
       -0.025214827 0.011213243 0.0055417335 -0.006299454
000140 e0 4c 12 3c 26 3a 1d 3d ab 50 9c 3c d6 f1 92 3d
       0.008929461 0.038385533 0.019081434 0.07175033
000150 96 b9 75 3d f7 29 9e 3d 65 be ff 3c e1 5d 7e bd
       0.05999144 0.07722848 0.031218717 -0.06210125
000160 ea ff d2 3b 57 8d 83 bd 18 c4 67 bd 4d 52 57 bc
       0.0064391987 -0.06423443 -0.056583494 -0.013142181
000170 82 da 88 3d 55 99 64 3d bf 06 bd bc 32 7a 9f 39
       0.06682302 0.05581029 -0.023074506 0.00030417886
000180 37 36 42 3d 32 e2 c3 bd a6 4e c8 3c 97 bc 89 bc
       0.047414985 -0.09564628 0.024451565 -0.01681356
000190 d7 74 30 3c 31 07 26 3c d7 a4 ab 3c 9e 33 31 3d
       0.010770044 0.0101335505 0.020952625 0.043262117
0001a0 fb ac e7 ba 7a 6e 2f bd 4b ff 5b bc 4c cd bf 3c
       -0.0017675454 -0.042829968 -0.013427566 0.023413323
0001b0 87 66 13 3c 79 d0 65 3d 3d 1b 81 bd 51 a5 a3 3c
       0.008996612 0.05610702 -0.063040234 0.01997629
0001c0 f9 7b 80 bd 0c 6f 0b bd 91 7d f1 b9 cc f2 5f 3c
       -0.06273646 -0.03404145 -0.00046060656 0.013668727
0001d0 9f d8 85 bd 61 38 86 3c 98 a4 ad 3c 17 6a 12 bd
       -0.06535458 0.016384305 0.021196648 -0.035745706
0001e0 9d 27 43 bd e7 5e e0 3c e5 7d a2 bc 51 17 00 3d
       -0.0476452 0.027389003 -0.019835422 0.031272236
0001f0 58 8c ff 3c 4b f1 b3 3c 37 81 cc bd b8 b9 c3 3b
       0.03119485 0.021965643 -0.09985583 0.005973067
000200 7d 8b 6a bc 93 bc 1e 3d 85 1d 32 bd ed 09 b6 bc
       -0.014315483 0.038754057 -0.043485183 -0.02222153
000210 ae a9 a2 3c 9b 40 00 bb 4f b8 0b 3d d3 ca 22 3d
       0.0198563 -0.0019569758 0.034111317 0.03974421
000220 1b e7 16 bd d8 3a 75 3c 7c 54 60 3d 03 44 37 bc
       -0.036841493 0.014967643 0.05476807 -0.011185649
000230 a0 b3 4e 3c 5e d3 4d 3d 60 d3 ab bc bb c5 42 3c
       0.012616068 0.050250404 -0.020974815 0.011887963
000240 67 ff aa 3c 02 82 06 3a 8f 09 83 3b 2f b1 e9 3b
       0.020873738 0.0005131067 0.003998942 0.0071317176
000250 da f7 72 bc f6 ea f1 bc ca 39 57 3d c0 ce 56 3d
       -0.0148296 -0.029530983 0.052545346 0.052443266
000260 dc c7 de 3c eb c4 02 3d bc 00 8d 3d be 96 2b 3c
       0.02719491 0.031926077 0.06884906 0.010472951
000270 b8 cf bd bc 1e 17 1c bc 9e d1 00 3d de 02 0c 3d
       -0.023170337 -0.009526996 0.031449907 0.034182422
000280 47 25 7b 3d 5d 71 24 3d 85 39 4f 3c be 15 89 3b
       0.061314847 0.040147174 0.012647991 0.0041835
000290 51 8a 95 bc e6 53 47 3d ee e1 d2 bb 1e 4c b5 bd
       -0.018254431 0.048663996 -0.0064356243 -0.08852409
0002a0 9a b0 9f bc 1f a7 a1 3c 77 21 15 bd 98 96 b3 bc
       -0.01949339 0.01973301 -0.036408868 -0.021922395
0002b0 70 b5 ab ba fe 2c 7e 3c 31 f3 dd bc 9e ec e8 3c
       -0.0013100337 0.015513657 -0.027093502 0.02843314
0002c0 b5 f6 46 bc 65 18 03 3b 6c 36 5c 3c d7 10 b5 bd
       -0.0121437805 0.0020003554 0.01344071 -0.088411026
0002d0 ae 68 d7 3c 97 2c 15 bd b5 bf 92 3d 19 83 42 3d
       0.026295032 -0.036419477 0.071654715 0.047488306
0002e0 51 77 12 3d 8b 92 4b bd 32 38 d2 3c 59 fd 5a 3d
       0.03575832 -0.0497003 0.025661562 0.053464267
0002f0 03 4b c0 bc c1 56 5a bb 4e 96 8a 3c 1e 93 77 39
       -0.023473268 -0.003331587 0.016917374 0.00023610561
000300 3b 6a 90 3c 67 79 e4 bc b7 d9 5a bb 9a 77 fe bc
       0.01762878 -0.02788992 -0.0033393928 -0.03106289
000310 7b df 27 bc 1d 3b 33 bd 8a d8 64 3c da 5e 8e bc
       -0.010246153 -0.043757547 0.013967643 -0.017379213
000320 cc d3 34 3c b0 f1 2a 3d b5 93 6e 3d ac 76 36 3d
       0.011036824 0.041734397 0.058246333 0.044546768
000330 07 9f 62 3d e4 6d a1 bb 0d 9d 29 3d 3d f7 de bc
       0.05532744 -0.00492643 0.04140954 -0.027217502
000340 1e bc dc 3c c5 c1 51 3d 7b b6 8d bd e4 3a df ba
       0.02694517 0.051210184 -0.06919571 -0.00170311
000350 28 ef ef bc 4d 21 e0 3c 0f 48 b4 3c a5 54 ac 3d
       -0.029288843 0.027359629 0.022007016 0.08414582
000360 58 94 af 3b 40 49 90 3b 67 cc b8 bb 59 a3 ad 3b
       0.00535826 0.0044032633 -0.005639601 0.0052990136
000370 31 e2 f6 3c 0d c5 1a 3d 1a c1 87 3d 95 ac 17 3d
       0.030137153 0.03778558 0.06628628 0.03702982
000380 81 66 5a 3c 50 b6 39 bd 12 fe 45 bd b1 e3 45 3d
       0.013330103 -0.045339882 -0.048338003 0.048312847
000390 f0 31 8a 3d 72 b7 65 3c 76 f9 dd 3c c1 c7 96 3c
       0.06747806 0.014020788 0.027096491 0.018405797
0003a0 f9 78 80 3c 12 c9 0b bd 25 41 ea 3c 3d b0 c6 3c
       0.015682684 -0.034127302 0.028595516 0.024253959
0003b0 1a bc 96 3c 24 7f 5a bc 83 9d 15 bd 28 09 72 bd
       0.01840024 -0.013335977 -0.036527168 -0.059090763
0003c0 24 7e 15 3d f5 c8 1e 3d 88 53 da bb 28 1c 76 3c
       0.03649725 0.038765866 -0.0066627897 0.015021361
0003d0 28 11 4f 3b 9b 72 42 bc 9c 78 70 bd 06 77 25 bc
       0.003159592 -0.011868144 -0.058708772 -0.010099178
0003e0 fe a1 e0 bc 68 99 dc 3c af 61 58 3d a3 a5 d4 ba
       -0.027420994 0.026928619 0.052827533 -0.001622368
0003f0 46 a9 d8 bb ec 25 b6 bc 78 26 4b bc 83 93 0d bd
       -0.006611976 -0.02223488 -0.012399308 -0.034564506
