dataset/US-11550351-B2/US-11550351-B2_claim_emb.npy (npy, 36992 bytes, 1 tensors)

array f4 [12, 768]
-0.06317936 -0.02578165 -0.009286871 -0.029835545 -0.00671722 -0.01816704 0.054657612 0.018592197
-0.02955885 0.05981089 -0.0026827804 0.018694999 0.017930338 0.0026641213 0.009120706 -0.063635156
0.031500224 0.016942061 0.01646074 -0.002123701 -0.0053151916 0.0043870537 -0.023711028 0.03915386
-0.06345939 -0.04196747 -0.04684335 -0.025485545 -0.040991295 -0.10675037 -0.012222111 0.08110109
-0.02810301 -0.03961654 2.545968e-06 0.02881901 -0.015143367 0.025746834 0.04576091 0.058816012
-0.031164126 -0.053980343 0.01732541 0.014627903 -0.008769287 0.01990645 -0.0028153812 0.024257427
-0.0013283292 -0.023120359 -0.010694444 -0.016725292 -0.040891007 -0.004959666 0.052314837 -0.027395217
-0.00013119451 -0.028278992 0.021448705 -0.017896423 -0.0065356228 -0.0034513243 -0.01966802 -0.042400926
0.03828824 -0.018782834 -0.040838875 -0.012300857 -0.0120691825 0.009573646 -0.015044417 -0.023144316
-0.0033265234 0.08878959 -0.034132086 -0.044524997 -0.025290053 0.006719592 -0.0041016387 -0.015125488
0.011915695 0.039878573 0.010081998 0.065212965 0.05380704 0.078332014 0.03214935 -0.07362526
0.006676514 -0.041992333 -0.044270046 -0.017855398 0.06316827 0.049925692 -0.022656923 0.0065231244
0.040521618 -0.060418125 0.0257491 -0.015558056 0.026903646 0.009893813 0.011487339 0.04128275
-0.023883853 -0.04894104 -0.008902318 0.007052417 0.006875701 0.06502059 -0.0706828 0.0067584673
-0.056961797 -0.045781296 -0.015876627 0.011049487 -0.06684653 0.002142294 0.00951515 -0.030966396
-0.044937097 0.02986656 -0.0046576867 0.03625509 0.03669677 0.027574524 -0.08600042 0.0033297588
-0.034901384 0.03658476 -0.043163266 -0.030813733 0.009492442 -0.012148935 0.032198686 0.02975412
-0.031296454 -0.0003958608 0.048809204 -0.00241939 0.023457728 0.04018686 -0.022562524 0.010166332
0.037078064 -0.004229039 -0.0076404773 -0.0013295655 -0.01618221 -0.016987726 0.060520746 0.058134962
0.008724921 0.038228888 0.06570396 -0.0023776095 -0.029242838 0.00031252363 0.02624385 0.031896953
0.05856141 0.038498174 0.025292095 0.0013409064 -0.018539967 0.05507871 -0.009462806 -0.10919207
0.0008248832 0.01764815 -0.04593384 -0.020720022 -0.0065752836 0.02365897 -0.021546822 0.020932464
-0.012484419 0.0015454646 0.012790481 -0.0916051 0.024724357 -0.030287776 0.07005696 0.042732283
0.038295873 -0.04627587 0.0329889 0.048693266 -0.027238922 -0.010103451 0.013665302 0.011351924
0.027119031 -0.023529567 -0.020048123 -0.024964087 -0.011742196 -0.046365637 0.0152786225 -0.0066431337
0.0017085159 0.04417889 0.066704154 0.05136708 0.04677681 -0.0043140524 0.0374167 -0.03461221
0.03041138 0.04435044 -0.073103994 -0.0034704502 -0.029371956 0.047041193 0.012223391 0.08233203
-0.007941033 -0.006647378 -0.0104434015 -0.017331611 0.030794492 0.026019989 0.0643563 0.038925678
-0.00070844777 -0.052267056 -0.045681346 0.050603382 0.0630541 0.028470626 0.032657355 0.0109976465
0.011135163 -0.037001655 0.033529587 0.020203885 0.042973742 -0.010137617 -0.020237338 -0.05651728
0.028499035 0.042984236 -0.010668785 0.010933286 -0.004972771 -0.008468796 -0.03848799 0.004732044
-0.030288909 0.013656025 0.05897497 -0.020617776 -0.008986468 -0.0047445907 -0.012566533 -0.043823127
00000000: 2e64 81bd 0a34 d3bc f627 18bc ac69 f4bc
00000010: 201c dcbb 0bd3 94bc a9e0 5f3d aa4e 983c
00000020: 6725 f2bc 44fc 743d 96d1 2fbb 4126 993c
00000030: a5e2 923c 8a98 2e3b 036f 153c 2653 82bd
00000040: 6106 013d 14ca 8a3c acd8 863c ca2d 0bbb
00000050: 0f2b aebb 46c1 8f3b a13d c2bc cc5f 203d
00000060: fff6 81bd 15e6 2bbd d0de 3fbd 10c7 d0bc
00000070: 7de6 27bd f09f dabd 403f 48bc 5418 a63d
00000080: 4938 e6bc f444 22bd 66db 2a36 d815 ec3c
00000090: e31b 78bc 06eb d23c cb6f 3b3d 0fe9 703d
000000a0: e94b ffbc 7e1a 5dbd 05ee 8d3c dfa9 6f3c
000000b0: 0ead 0fbc da12 a33c 4282 38bb 83b7 c63c
000000c0: 551b aeba e866 bdbc c037 2fbc 7b03 89bc
000000d0: 547d 27bd b284 a2bb 1548 563d ef6b e0bc
000000e0: 4291 09b9 58a9 e7bc 32b5 af3c 859b 92bc
000000f0: c728 d6bb 9d2f 62bb d41e a1bc 98ac 2dbd
00000100: 21d4 1c3d 75de 99bc aa46 27bd 8989 49bc
00000110: d2bd 45bc c8da 1c3c dc7c 76bc 2699 bdbc
00000120: cd01 5abb 51d7 b53d 16ce 0bbd d85f 36bd
00000130: 162d cfbc 0630 dc3b 0a67 86bb e5d0 77bc
00000140: 0c3a 433c b757 233d f72e 253c 608e 853d
00000150: c564 5c3d 896c a03d 09af 033d d7c8 96bd
00000160: a9c6 da3b 2700 2cbd 8254 35bd 7c45 92bc
00000170: 5e5e 813d e27e 4c3d 039b b9bc efbf d53b
00000180: fff9 253d ff78 77bd c7ef d23c 37e7 7ebc
00000190: 0965 dc3c a919 223c 6435 3c3c 1a18 293d
000001a0: 12a8 c3bc 6676 48bd 07db 11bc f617 e73b
000001b0: 8f4d e13b 8429 853d 25c2 90bd 2276 dd3b
000001c0: c650 69bd 2b85 3bbd b30f 82bc e808 353c
000001d0: d5e6 88bd bb65 0c3b 6fe5 1b3c 3dad fdbc
000001e0: f60f 38bd b7aa f43c 829f 98bb 3880 143d
000001f0: 5a4f 163d f8e3 e13c fd20 b0bd 1538 5a3b
00000200: c1f4 0ebd e7d9 153d f7cb 30bd 156d fcbc
00000210: 3086 1b3c 540c 47bc c5e2 033d eabe f33c
00000220: b630 00bd 8a8b cfb9 29ec 473d a18e 1ebb
00000230: 6c2a c03c fa9a 243d 0bd5 b8bc b090 263c
00000240: 2bdf 173d c093 8abb f85c fabb d144 aeba
00000250: 8e90 84bc d829 8bbc 9ae4 773d ed1e 6e3d
00000260: f9f2 0e3c e595 1c3d cc8f 863d abd1 1bbb
00000270: ad8e efbc 36da a339 58fd d63c 61a6 023d
00000280: 17de 6f3d 43b0 1d3d 5e31 cf3c 5ac1 af3a
00000290: 21e1 97bc 379a 613d e309 1bbc 18a0 dfbd
000002a0: f93c 583a da92 903c 1f25 3cbd 09bd a9bc
000002b0: 7a75 d7bb 75d0 c13c f682 b0bc 8f7a ab3c
000002c0: 738b 4cbc 3091 ca3a 2a8f 513c 749b bbbd
000002d0: bc8a ca3c 121e f8bc 067a 8f3d 0c08 2f3d
000002e0: 22dc 1c3d c48b 3dbd 5e1f 073d 9772 473d
000002f0: 2924 dfbc f288 25bc 6ee4 5f3c 6cfd 393c
00000300: bb28 de3c 14c1 c0bc f63b a4bc 7c81 ccbc
00000310: 5762 40bc e5e9 3dbd 3053 7a3c a5ae d9bb
00000320: 48f0 df3a ecf4 343d 309c 883d 4a66 523d
00000330: 0a99 3f3d e55c 8dbb 4142 193d 88c5 0dbd
00000340: 4921 f93c cfa8 353d 8cb7 95bd 7e70 63bb
00000350: 759d f0bc 44ae 403d 9e44 483c b29d a83d
00000360: 1b1b 02bc 40d2 d9bb cd1a 2bbc 06fb 8dbc
00000370: bb44 fc3c df27 d53c 3ccd 833d 8870 1f3d
00000380: 20b7 39ba fb15 56bd 5d1c 3bbd 7e45 4f3d
00000390: 8222 813d 3b3b e93c b8c3 053d 792f 343c
000003a0: 4270 363c 0c8f 17bd 5256 093d 9e82 a53c
000003b0: 3c05 303d 3f18 26bc c6c8 a5bc aa7e 67bd
000003c0: cf76 e93c 3d10 303d 21cc 2ebc 8621 333c
000003d0: a0f2 a2bb b4c0 0abc 95a5 1dbd 430f 9b3b
000003e0: 7220 f8bc 85bd 5f3c bd8f 713d 9ce6 a8bc
000003f0: fb3b 13bc 8378 9bbb dce3 4dbc e17f 33bd
