dataset/US-10958748-B2/US-10958748-B2_abstract_emb.npy (npy, 3200 bytes, 1 tensors)

array f4 [768]
0	0xbd56b951	-0.052422825
1	0xbd0f7aa5	-0.035029072
2	0xbc38a5a4	-0.011269961
3	0xbcd79789	-0.026317375
4	0xbc622109	-0.0138018215
5	0xbc9e1ed0	-0.019301802
6	0x3d3db937	0.046319213
7	0x3c865712	0.01639894
8	0xbcf6d42d	-0.03013047
9	0x3d76cd41	0.06025434
10	0x3b8e3cba	0.0043407353
11	0x3d1599de	0.036523692
12	0x3c6b22bb	0.014351542
13	0xbc3778b6	-0.011198213
14	0xbbc969bc	-0.0061466377
15	0xbd7cd006	-0.061721824
16	0x3cf4a451	0.029863508
17	0x3c8c960b	0.01716139
18	0x3c80f4cd	0.01574173
19	0xbb7f34d6	-0.0038941405
20	0x3b3d8014	0.0028915452
21	0x3a3b993b	0.0007156317
22	0xbc91e8cf	-0.017811207
23	0x3d1ee009	0.038787875
24	0xbd926094	-0.07147327
25	0xbcf2ee69	-0.029654698
26	0xbd659ad9	-0.056055877
27	0xbc5e30ad	-0.01356141
28	0xbd17ce21	-0.037061814
29	0xbdfd0e2e	-0.1235622
30	0xba58c09d	-0.0008268448
31	0x3db686c7	0.089124255
32	0xbc90f475	-0.017694691
33	0xbd1ca6c0	-0.038244963
34	0x363105bf	2.63784e-06
35	0x3ce2440d	0.02762034
36	0xbcd38ba5	-0.025823424
37	0x3ca9d158	0.020729706
38	0x3d31d839	0.043419097
39	0x3d777ecf	0.06042367
40	0xbd0d647f	-0.03451967
41	0xbd0c28f1	-0.034218732
42	0x3c855c40	0.01627934
43	0x3c2a96f6	0.010411968
44	0xbc654239	-0.0139928395
45	0x3cb0b556	0.021570843
46	0x3bd05e0f	0.006358869
47	0x3ca1c479	0.019747006
48	0xbbba650c	-0.0056883153
49	0xbca11f77	-0.019668324
50	0xbc592c8f	-0.0132552525
51	0xbc9cbf34	-0.019134142
52	0xbd5c52c9	-0.053789888
53	0xbc890944	-0.016728051
54	0x3d7c597a	0.06160877
55	0xbd012707	-0.03153136
56	0x3c8d9613	0.017283475
57	0xbc457e7b	-0.012054081
58	0x3d03076c	0.0319895
59	0xbc8db1d6	-0.017296713
60	0xbcafe599	-0.021471785
61	0xbc2ace8c	-0.010425221
62	0xbc98ac40	-0.018636823
63	0xbd122aad	-0.03568523
64	0x3ce88a81	0.028386356
65	0xbbe60e3d	-0.0070207403
66	0xbcecb70a	-0.028895874
67	0xbca55836	-0.020183664
68	0x3b05518e	0.00203428
69	0x3c406522	0.011742862
70	0xbccc0988	-0.024906889
71	0xbcbdd915	-0.023174802
72	0x3af90297	0.0018997964
73	0x3dd31aed	0.1030787
74	0xbd105643	-0.035238516
75	0xbd26ccc1	-0.040722612
76	0xbcb77743	-0.022395736
77	0x3b8ee5be	0.0043608835
78	0xbc541cb7	-0.012946299
79	0xbc8b1aaa	-0.016980488
80	0x38c71d3d	9.4945055e-05
81	0x3d645886	0.055748485
82	0x3cb48626	0.022036623
83	0x3d81b5d7	0.06333511
84	0x3d6c30b5	0.05766364
85	0x3dbb1016	0.091339275
86	0x3cfe5edf	0.031051097
87	0xbd9a7a9d	-0.07542918
88	0x3c0997dd	0.008398023
89	0xbd284028	-0.04107681
90	0xbd538810	-0.05164343
91	0xbc90fe36	-0.017699342
92	0x3d360c30	0.044445217
93	0x3d3aea7f	0.04563379
94	0xbcc3398c	-0.023831151
95	0x3c8a8b65	0.016912172
96	0x3cf74726	0.030185293
97	0xbd8e6ca6	-0.06954317
98	0x3caef1c8	0.021355525
99	0x3c041a1a	0.008062864
100	0x3c2d2bb1	0.010569499
101	0x3b6391f0	0.0034724437
102	0x3c2c452d	0.01051454
103	0x3d42729c	0.04747258
104	0xbd2086ae	-0.03919094
105	0xbd1cc3ea	-0.038272776
106	0xbbb8f660	-0.0056446046
107	0x3c8b1916	0.016979735
108	0x3c1ca1fb	0.0095601035
109	0x3d8b2565	0.06794242
110	0xbd80e414	-0.062935024
111	0x3b8fe01a	0.0043907287
112	0xbd82f1ad	-0.06393752
113	0xbd0b330f	-0.03398424
114	0xbcabac25	-0.020956108
115	0x3c2a0628	0.010377444
116	0xbd8b9537	-0.0681557
117	0xbc210bad	-0.009829444
118	0xba1ba699	-0.0005937606
119	0xbd216b31	-0.039408866
120	0xbd16ae5a	-0.03678737
121	0x3d108d36	0.03529092
122	0xbca80893	-0.020511901
123	0x3d1fd524	0.039021626
124	0x3ced9647	0.029002322
125	0x3c4dbbca	0.012556979
126	0xbdb6b6d8	-0.089215934
127	0x3af860df	0.0018949768
128	0xbcab386b	-0.020900926
129	0x3d3a7c6f	0.045528825
130	0xbd47b413	-0.048755717
131	0xbd1bbb2d	-0.0380203
132	0xbbbf53ef	-0.005838863
133	0xbc2be6c0	-0.010492027
134	0x3cf43c67	0.029813958
135	0x3cf79ba8	0.03022559
136	0xbc704e2f	-0.014667078
137	0x3bd15058	0.0063877515
138	0x3d64e1b7	0.05587932
139	0xbc8221e9	-0.01588531
140	0x3c667111	0.014065043
141	0x3d0c9db4	0.034330085
142	0xbcaaec0e	-0.020864513
143	0x3b65b106	0.003504814
144	0x3cec89fa	0.028874386
145	0xbc3164e2	-0.010827275
146	0x3ba9d403	0.0051827445
147	0xbba26382	-0.00495571
148	0xbc11cce0	-0.008898944
149	0xbc617819	-0.013761544
150	0x3d573ef9	0.05255029
151	0x3d92dfa6	0.07171564
152	0x3bcea106	0.0063058166
153	0x3d51d3a5	0.05122723
154	0x3d8ac23c	0.067753285
155	0x3bf803ad	0.0075687976
156	0xbccf26ad	-0.025286997
157	0x3c3750fe	0.011188744
158	0x3cbbc893	0.02292279
159	0x3cbe14bf	0.023203252
160	0x3d595c11	0.053066317
161	0x3d09e5ac	0.033666298
162	0x3d034944	0.032052293
163	0xbac6b9e9	-0.0015161607
164	0xbc88c613	-0.016696012
165	0x3d1c386c	0.038139746
166	0xbbea574a	-0.007151519
167	0xbdd3e8a3	-0.10347106
168	0xbb319b3c	-0.0027100584
169	0x3ce9c62c	0.028536879
170	0xbcf04683	-0.029330498
171	0xbcdc08c4	-0.026859649
172	0xbca3a3ca	-0.019975562
173	0x3c2e7dbb	0.010650094
174	0xbcf85954	-0.030316032
175	0x3cd65eb3	0.026168203
176	0xbc02dced	-0.007987243
177	0x3c9129a1	0.017720046
178	0xba307a4b	-0.000673209
179	0xbdabe61e	-0.08393501
180	0x3cdb1e4a	0.026747841
181	0xbd21aac0	-0.03946948
182	0x3d950f7e	0.072783455
183	0x3d8ad88e	0.06779586
184	0x3d48a726	0.04898753
185	0xbd2c31c1	-0.042039637
186	0x3c6823ab	0.01416866
187	0x3d5cc686	0.053900264
188	0xbd01419a	-0.031556703
189	0x3b8a2873	0.0042162477
190	0x3c9616d5	0.018321434
191	0x3b82e6d1	0.0039948006
192	0x3d29b073	0.04142804
193	0xbccbc1bb	-0.024872651
194	0xbce570ae	-0.028007831
195	0xbccf0f7c	-0.025275938
196	0xbb8f003e	-0.0043640425
197	0xbd74bbdf	-0.05974948
198	0x3ca6332a	0.020288069
199	0xbbfb33f3	-0.007666105
200	0x3bc52b30	0.0060171112
201	0x3ce1b69f	0.0275529
202	0x3d91c7f1	0.07118214
203	0x3d20b574	0.039235547
204	0x3d271293	0.040789198
205	0xbcac2e6d	-0.021018231
206	0x3d666138	0.05624506
207	0xbd2c8bb6	-0.042125426
208	0x3d1ef35a	0.038806297
209	0x3d2b637c	0.041842923
210	0xbd81ead0	-0.06343615
211	0xbb42acf0	-0.002970513
212	0xbce8a879	-0.028400647
213	0x3d0205fa	0.03174398
214	0xb99968d3	-0.00029260534
215	0x3dc73403	0.09726717
216	0xbba63831	-0.0050726165
217	0x3b61ad95	0.0034435738
218	0xbba65567	-0.0050760987
219	0x3bf42ffa	0.0074520083
220	0x3c9ac366	0.018892001
221	0x3d122fd9	0.035690162
222	0x3d72a9fe	0.05924415
223	0x3d11e9ef	0.035623487
224	0xbbbcd475	-0.0057626315
225	0xbd1f4cdd	-0.038891662
226	0xbd0e96b3	-0.034811687
227	0x3d4894ca	0.04897002
228	0x3d5dc2d7	0.054140892
229	0x3c8b9555	0.01703898
230	0x3ca41587	0.020029796
231	0x3cb7153c	0.022348993
232	0xba22921e	-0.0006201583
233	0xbcef66a9	-0.029223757
234	0x3cf36d58	0.029715225
235	0x3d04de79	0.03243873
236	0x3d45c6e4	0.04828538
237	0xbc4f61f8	-0.012657635
238	0xbc93122a	-0.017952997
239	0xbd8531a4	-0.06503609
240	0x3cc6ce94	0.024268426
241	0x3d316956	0.043313347
242	0xbc32cc29	-0.010912933
243	0x3c936968	0.017994598
244	0xbb72b465	-0.0037033793
245	0x3c1a218f	0.009407415
246	0xbcbd676c	-0.023120604
247	0xbb6b74cd	-0.0035927773
248	0xbd037dcb	-0.032102387
249	0x3c13f8e8	0.009031512
250	0x3d98afc5	0.074554004
251	0xbccda5c1	-0.025103452
252	0xbbc47e5f	-0.00599651
253	0x3b4cfca2	0.003127851
254	0x3c8377fa	0.01604842
255	0xbd1a310d	-0.037644435
