dataset/US-11481456-B2/US-11481456-B2_claim_emb.npy (npy, 6272 bytes, 1 tensors)

array f4 [2, 768]
-0.041523296 -0.0281203 0.0062024742 -0.029498098 0.0064968974 -0.010231291 0.034680992 0.00402115
-0.052201923 0.06395566 -0.010302289 0.034479793 0.017580722 0.0001597494 0.009489535 -0.046311967
0.026966758 0.01582842 0.009128372 -0.0038653174 -0.014119024 0.012315571 -0.015129555 0.040573273
-0.0765105 -0.022679372 -0.058211982 -0.02268588 -0.04162329 -0.111737736 -0.008793761 0.08588663
-0.035580073 -0.022910189 2.7222686e-06 0.022921965 -0.02547894 0.011826612 0.04905477 0.061092753
-0.037770208 -0.045753017 0.015719395 0.0028354796 -0.01964165 0.0050642844 0.0047468203 0.025376644
0.021327384 -0.029255528 -0.014827106 -0.006983619 -0.0645712 -0.018719304 0.044043835 -0.03463794
0.013574482 -0.018418454 0.027762534 -0.021546923 -0.01910452 -0.0069917045 -0.006712349 -0.039311867
0.046712533 -0.020330848 -0.022900105 -0.004083452 0.0056585055 0.0061093913 -0.02180311 -0.025490131
-0.0017789315 0.08012079 -0.024765719 -0.023731874 -0.029087193 0.012164715 -0.009215973 -0.028536366
0.017961351 0.046006214 0.0068764198 0.069104254 0.045239996 0.11003953 0.032897934 -0.060027998
-0.01622549 -0.03344514 -0.06254731 -0.0183878 0.04809175 0.055422187 -0.012073121 -0.0017786
0.025804669 -0.08306274 0.028389925 -0.03017909 0.0062351865 0.009744648 0.0074988888 0.029806368
-0.0025764497 -0.029056154 -0.0060719117 0.013821984 0.0060567143 0.065682426 -0.064896844 -0.007865686
-0.052986555 -0.036553573 -0.020702448 0.00050224137 -0.061094344 -0.0057465383 0.0023383417 -0.034441903
-0.034810778 0.033781815 -0.018045466 0.027657583 0.024339195 0.008160306 -0.09759022 0.016740311
-0.0108290855 0.056823786 -0.03934928 -0.03519086 0.013376832 0.007981626 0.022242473 0.034661684
-0.026001345 -0.006774121 0.039009195 -0.023079196 0.03016736 0.04453875 -0.026311094 -0.013368886
0.0070590707 -0.016042197 0.0032327604 -0.007262378 -0.009421455 -0.024989836 0.046232264 0.045807336
0.00909735 0.039875705 0.09157909 0.015291621 -0.028801154 0.012265065 0.021367058 0.021198584
0.061475616 0.033219058 0.040116675 -0.0035455504 -0.034797844 0.015269032 0.019760355 -0.104879364
-0.013553104 0.019299923 -0.011161488 -0.029460013 -0.018351598 0.0015066295 -0.00970733 0.042212885
-0.038363222 0.0067480393 -0.0054554003 -0.09027515 0.024722207 -0.031272758 0.05562689 0.06435269
0.056972913 -0.04944648 0.02570539 0.05469616 -0.04668744 -0.009092623 0.008550852 0.012697743
0.04812838 -0.018497718 -0.0044104233 -0.018066483 0.0014024774 -0.029024389 0.04056142 -0.012288403
0.012885313 0.022188703 0.07374536 0.043272194 0.044371203 0.004598229 0.05936146 -0.049526893
0.03495467 0.034595948 -0.06886513 -0.017398292 -0.016009927 0.03720038 -0.012288757 0.08483553
-0.0030260498 -0.020000484 -0.013829545 0.0068157315 0.022678323 0.048627116 0.06315903 0.041389015
-0.006514215 -0.05639726 -0.042381495 0.048545238 0.05878754 0.01682369 0.02322686 0.010990262
0.004468852 -0.039777655 0.011821454 0.024100207 0.041441392 -0.021634506 -0.0041911183 -0.053824384
0.04692889 0.037085034 -0.0071600857 0.01097598 0.009122078 -0.0033603702 -0.037754953 -0.011156841
-0.019785333 -0.0038456558 0.05342555 -0.012811624 -0.027640289 -0.012680681 0.0134703135 -0.04241879
00000000: 5514 2abd 8b5c e6bc 203e cb3b ffa5 f1bc
00000010: ede3 d43b 25a1 27bc a80d 0e3d dac3 833b
00000020: afd1 55bd 2ffb 823d efca 28bc af3a 0d3d
00000030: 7205 903c 6782 2739 ff79 1b3c 9eb1 3dbd
00000040: 64e9 dc3c 9aaa 813c 2b8f 153c 4451 7dbb
00000050: 7b53 67bc 40c7 493c f4e1 77bc 2930 263d
00000060: 89b1 9cbd 17ca b9bc b06f 6ebd bdd7 b9bc
00000070: 2f7d 2abd c1d6 e4bd b513 10bc 54e5 af3d
00000080: 69bc 11bd 26ae bbbc 38b0 3636 d8c6 bb3c
00000090: 36b9 d0bc 68c4 413c a8ed 483d 653c 7a3d
000000a0: efb4 1abd 8467 3bbd f6c5 803c 74d3 393b
000000b0: 87e7 a0bc 4cf2 a53b 378b 9b3b aee2 cf3c
000000c0: c4b6 ae3c 4aa9 efbc 64ed 72bc d8d6 e4bb
000000d0: e83d 84bd 3a59 99bc 4f67 343d 83e0 0dbd
000000e0: 8167 5e3c 4ce2 96bc 416e e33c 2c83 b0bc
000000f0: 1581 9cbc ab1a e5bb 44f3 dbbb 7b05 21bd
00000100: a455 3f3d e18c a6bc 0099 bbbc 7ace 85bb
00000110: fc6a b93b 4a31 c83b 709c b2bc aed0 d0bc
00000120: 092b e9ba 5e16 a43d 7ae1 cabc 5969 c2bc
00000130: 4448 eebc 834e 473c 98fe 16bc 19c5 e9bc
00000140: af23 933c 0371 3c3d 9753 e13b 8886 8d3d
00000150: 934d 393d 685c e13d fcbf 063d ebdf 75bd
00000160: 52eb 84bc c5fd 08bd ce18 80bd 03a2 96bc
00000170: dbfb 443d 6002 633d 57ce 45bc ea1f e9ba
00000180: 5064 d33c cc1c aabd fd91 e83c 243a f7bc
00000190: 8950 cc3b 04a8 1f3c 3db9 f53b 7c2c f43c
000001a0: a7d9 28bb 2c07 eebc e3f6 c6bb 9a75 623c
000001b0: 6777 c63b 8284 863d a3e8 84bd 14df 00bc
000001c0: 6e08 59bd 33b9 15bd 2e98 a9bc d9a8 033a
000001d0: 103e 7abd 754d bcbb dd3e 193b f412 0dbd
000001e0: bf95 0ebd cd5e 0a3d 16d4 93bc 2892 e23c
000001f0: fe62 c73c ceb2 053c 62dd c7bd fa22 893c
00000200: 7a6c 31bc 0fc0 683d b62c 21bd 4b24 10bd
00000210: 802a 5b3c 5ec5 023c d935 b63c 69f9 0d3d
00000220: c600 d5bc 72f9 ddbb 1bc8 1f3d 9510 bdbc
00000230: 8a21 f73c 446e 363d 5d8a d7bc 2c09 5bbc
00000240: c74f e73b ed6a 83bc b8dc 533b 3ef9 edbb
00000250: 725c 1abc 7cb7 ccbc 0b5e 3d3d 79a0 3b3d
00000260: 0d0d 153c b554 233d d18d bb3d b589 7a3c
00000270: 66f0 ebbc 69f3 483c f809 af3c a7a8 ad3c
00000280: dbcd 7b3d b510 083d 6251 243d 775c 68bb
00000290: 2f88 0ebd f62a 7a3c 78e0 a13c feca d6bd
000002a0: d70d 5ebc df1a 9e3c acde 36bc 2056 f1bc
000002b0: 1756 96bc 197a c53a 7e0b 1fbc 6be7 2c3d
000002c0: c122 1dbd a81e dd3b 37c3 b2bb 2ee2 b8bd
000002d0: 3a86 ca3c dd17 00bd 06d9 633d 58cb 833d
000002e0: 6e5c 693d 6488 4abd 1c94 d23c 1509 603d
000002f0: 543b 3fbd 3af9 14bc df18 0c3c 320a 503c
00000300: 4422 453d 8788 97bc 5085 90bb 2900 94bc
00000310: 55d3 b73a 8ec4 edbc bb23 263d 4c55 49bc
00000320: eb1c 533c 15c5 b53c cf07 973d 2f3e 313d
00000330: 94be 353d beac 963b 0125 733d b6dc 4abd
00000340: a12c 0f3d 7bb4 0d3d 2909 8dbd dd86 8ebc
00000350: 4027 83bc 6d5f 183d c856 49bc 40be ad3d
00000360: b150 46bb 0ed8 a3bc 5195 62bc 8056 df3b
00000370: e4c7 b93c 3a2d 473d 8659 813d 8787 293d
00000380: 3275 d5bb d000 67bd 3898 2dbd 5fd7 463d
00000390: 34cb 703d d6d1 893c 4246 be3c 8010 343c
000003a0: 736f 923b e5ed 22bd c6ae 413c cc6d c53c
000003b0: 73be 293d d93a b1bc a655 89bb f576 5cbd
000003c0: 8238 403d 7ae6 173d 279f eabb 99d4 333c
000003d0: c574 153c a839 5cbb f0a4 1abd 2fcb 36bc
000003e0: da14 a2bc 6607 7cbb c0d4 5a3d d9e7 51bc
000003f0: e36d e2bc a2c2 4fbc 97b2 5c3c 53bf 2dbd
