dataset/US-11488070-B2/US-11488070-B2_abstract_emb.npy (npy, 3200 bytes, 1 tensors)

array f4 [768]
-0.057894133 -0.038931947 -0.008147119 -0.01495436 -0.0043331403 -0.018052422 0.05569084 0.026979389
-0.032267686 0.07177135 -0.0004921559 0.016618323 0.016927691 0.00076785905 0.0031564115 -0.0439501
0.033630658 0.019361133 0.022347508 0.0010286821 -0.009361472 0.0088666715 -0.016920373 0.028727528
-0.05974184 -0.03920099 -0.057529762 -0.025694827 -0.03558377 -0.103525974 -0.024724433 0.08007025
-0.03376346 -0.03930426 2.6258354e-06 0.014938324 -0.023907466 0.012840728 0.032265734 0.054762352
-0.03627821 -0.052519042 0.01425823 6.036719e-05 -0.012530347 0.009618674 -0.0007321939 0.015710521
-0.007374602 -0.031387642 -0.008755251 -0.0143766645 -0.042923696 -0.0149062555 0.04699782 -0.034110278
0.0032244353 -0.028245268 0.027599683 -0.0020316176 -0.017428135 -0.0028914292 -0.012036845 -0.041711427
0.040310383 -0.009935345 -0.032689255 -0.010243715 0.0108495625 0.004840249 -0.006875331 -0.02025229
0.0017289306 0.102840126 -0.033772815 -0.04671558 -0.024612647 0.0042154654 -0.0077759377 -0.012727447
0.024277885 0.028962024 0.0144797815 0.05550047 0.050140884 0.094564185 0.031034295 -0.07877932
-0.0014896058 -0.0495787 -0.06314628 -0.01895758 0.04799131 0.0459328 -0.02521836 0.001815433
0.04126612 -0.07205094 0.015383253 0.005626124 0.029193409 0.0039444496 0.00820154 0.041604113
-0.013835637 -0.04621302 0.0034891118 0.018715402 0.011974845 0.064231396 -0.06607089 -0.00016850003
-0.059804674 -0.04411733 -0.012648331 0.013409223 -0.06878197 -0.004465776 0.0012177528 -0.026529294
-0.05006297 0.031650364 -0.007764521 0.026769204 0.041185472 0.010036023 -0.07722394 0.014562323
-0.028584281 0.03824699 -0.03623076 -0.033854716 0.009670718 -0.0022459463 0.024544569 0.03387373
-0.025712283 -0.0080906255 0.050529413 -0.0075953254 0.015068005 0.04254938 -0.026101131 0.017530974
0.030252483 -0.0034856377 -0.016205013 -0.011333192 -0.015409812 -0.015138304 0.058050387 0.07329275
0.012817107 0.03390568 0.08497423 0.01132848 -0.024238955 0.00055555376 0.025934378 0.031014813
0.06109898 0.047780033 0.02399854 0.007124849 -0.026183626 0.061882272 -0.0069378973 -0.09896421
-0.005153904 0.030654496 -0.036579605 -0.014121443 -0.010700438 0.030806389 -0.01182113 0.026415544
-0.0236126 0.013652029 0.013051684 -0.088807955 0.029131653 -0.039597474 0.08211356 0.042991832
0.04712387 -0.045662377 0.022912908 0.053561553 -0.029135091 -0.0075603086 0.017964777 -0.0017877932
0.017651547 -0.036691237 -0.011300537 -0.029391788 -0.019549146 -0.041342795 0.012245133 -0.018928796
0.014713931 0.03866338 0.07911355 0.05292741 0.049109224 -0.00335405 0.038813237 -0.03030404
0.0347243 0.05245788 -0.06675787 -0.00066666084 -0.026807886 0.03142431 0.011178159 0.07395894
-0.0015920978 0.0010017226 -0.0350613 0.01730183 0.02151237 0.03224544 0.06972537 0.040366936
-0.0039553335 -0.046747304 -0.033615157 0.049966153 0.05286677 0.027701816 0.02613457 0.01868607
0.012474405 -0.040994536 0.02332778 0.022976963 0.04840316 -0.008311712 -0.02202435 -0.050460376
0.023554137 0.039005507 -0.01249324 0.017216763 0.0024801588 0.00019011316 -0.04101371 0.006868273
-0.0238317 0.0016273212 0.056490593 -0.023597008 -0.01365365 -0.0068294285 -0.0014313195 -0.03170488
00000000: 6622 6dbd 1b77 1fbd 7e7b 05bc 2203 75bc
00000010: 04fd 8dbb ace2 93bc 141c 643d e103 dd3c
00000020: 1f2b 04bd dcfc 923d 0604 01ba 2623 883c
00000030: f1ab 8a3c 264a 493a ccdb 4e3b 0505 34bd
00000040: 4dc0 093d 3d9b 9e3c 1f12 b73c d8d4 863a
00000050: dc60 19bc 8445 113c 989c 8abc fe55 eb3c
00000060: dcb3 74bd 3891 20bd 54a4 6bbd f57d d2bc
00000070: 4ac0 11bd 6d05 d4bd e58a cabc dffb a33d
00000080: 8e4b 0abd 81fd 20bd 8237 3036 dfbf 743c
00000090: 97d9 c3bc eb61 523c 1329 043d 7d4e 603d
000000a0: 7698 14bd 351e 57bd 5a9b 693c c732 7d38
000000b0: 164c 4dbc a597 1d3c b3f0 3fba 5ab3 803c
000000c0: a5a6 f1bb 5490 00bd 2f72 0fbc 1a8c 6bbc
000000d0: c2d0 2fbd 5e39 74bc c980 403d 38b7 0bbd
000000e0: 0c51 533b 9f62 e7bc bb18 e23c e324 05bb
000000f0: 73c5 8ebc 227e 3dbb 3036 45bc 9ad9 2abd
00000100: 801c 253d dbc7 22bc 2be5 05bd 41d5 27bc
00000110: 5dc2 313c f49a 9e3b 754a e1bb 21e8 a5bc
00000120: 499d e23a d89d d23d 5d55 0abd d658 3fbd
00000130: 76a0 c9bc e321 8a3b 4bcd febb c886 50bc
00000140: 6ae2 c63c c441 ed3c 9b3c 6d3c 7654 633d
00000150: 8760 4d3d deaa c13d a23b fe3c 0d57 a1bd
00000160: e03e c3ba 0913 4bbd d652 81bd ed4c 9bbc
00000170: 8992 443d 0824 3c3d bc96 cebc d3f3 ed3a
00000180: aa06 293d 718f 93bd 0a0a 7c3c 595b b83b
00000190: 0427 ef3c 7140 813b c15f 063c 1369 2a3d
000001a0: deae 62bc dd49 3dbd 95a9 643b 0b51 993c
000001b0: 2432 443c c08b 833d 2d50 87bd 62af 30b9
000001c0: bff5 74bd 60b4 34bd f23a 4fbc 5cb2 5b3c
000001d0: 90dd 8cbd a555 92bb 019d 9f3a f653 d9bc
000001e0: d40e 4dbd d0a3 013d 866d febb 174b db3c
000001f0: 19b2 283d 226e 243c 9627 9ebd cf96 6e3c
00000200: 9529 eabc e0a8 1c3d b566 14bd 3eab 0abd
00000210: ee71 1e3c ba30 13bb b111 c93c 2ebf 0a3d
00000220: 91a2 d2bc 8b8e 04bc eef7 4e3d 35e2 f8bb
00000230: cbdf 763c 4248 2e3d 0ad2 d5bc 1e9d 8f3c
00000240: 0ed4 f73c 4c6f 64bb 60c0 84bc daae 39bc
00000250: 7079 7cbc a606 78bc 3ec6 6d3d 821a 963d
00000260: d8fe 513c afe0 0a3d f806 ae3d 179b 393c
00000270: c690 c6bc 95a2 113a 5574 d43c c712 fe3c
00000280: ed42 7a3d ffb4 433d 9698 c43c 9177 e93b
00000290: 0b7f d6bc 4478 7d3d 4d57 e3bb bfad cabd
000002a0: 15e2 a8bb 231f fb3c 7fd4 15bd a05d 67bc
000002b0: e450 2fbc ae5d fc3c 6aad 41bc 6965 d83c
000002c0: 366f c1bc c3ac 5f3c bbd6 553c f2e0 b5bd
000002d0: 81a5 ee3c f630 22bd 272b a83d 3418 303d
000002e0: f604 413d 7908 3bbd dab3 bb3c 5c63 5b3d
000002f0: b7ac eebc 77bc f7bb de2a 933c 6354 eaba
00000300: fa99 903c 8d49 16bd e325 39bc 0cc7 f0bc
00000310: 8825 a0bc 1057 29bd cf9f 483c 9010 9bbc
00000320: b312 713c 7e5d 1e3d 4906 a23d 69ca 583d
00000330: c126 493d 9fcf 5bbb a1fa 1e3d 2e40 f8bc
00000340: 113b 0e3d 13de 563d 5ab8 88bd dac2 2eba
00000350: 369c dbbc c7b6 003d 9924 373c c977 973d
00000360: f0ad d0ba 3c4c 833a 709c 0fbd 91bc 8d3c
00000370: b63a b03c cb13 043d 2dcc 8e3d cd57 253d
00000380: be9b 81bb 1a7a 3fbd 0cb0 09bd 4fa9 4c3d
00000390: d48a 583d ebee e23c 2a18 d63c 8713 993c
000003a0: 7261 4c3c e3e9 27bd e719 bf3c 2f3a bc3c
000003b0: 6442 463d d92d 08bc 696c b4bc 8aaf 4ebd
000003c0: 9bf4 c03c 3dc4 1f3d 72b0 4cbc 2b0a 8d3c
000003d0: 298a 223b 1d59 4739 fefd 27bd 400f e13b
000003e0: b33a c3bc d74b d53a ae62 673d 834e c1bc
000003f0: 8fb3 5fbc 66c9 dfbb 1d9b bbba fadc 01bd
