dataset/US-10911470-B2/US-10911470-B2_claim_emb.npy (npy, 92288 bytes, 1 tensors)

array f4 [30, 768]
000000 24 d5 89 bd ec 7e 05 bd 1b 92 e9 bb 6d 0b 19 bd
       -0.067301065 -0.032591745 -0.007128013 -0.037364412
000010 1a 03 bb bb f0 9d a2 bc 65 3d 75 3d 54 b0 b7 3c
       -0.005707157 -0.019850701 0.059873004 0.022422947
000020 fa 36 f0 bc 8f 8c 82 3d e8 85 1c 3b 56 6c 4d 3d
       -0.02932309 0.06374466 0.0023883525 0.050152145
000030 7a f6 9f 3c 58 8b de 3b 02 e4 53 3c 21 aa 36 bd
       0.019526709 0.0067915134 0.012932779 -0.04459584
000040 cc ac f1 3c 61 8a a2 3c 35 fc 4e 3c ce c9 25 bc
       0.029501341 0.019841375 0.012633373 -0.010118915
000050 3f 98 72 bb dc ca 20 3c c7 b7 ad bc dd cb 23 3d
       -0.0037017015 0.00981399 -0.021205796 0.03998934
000060 b9 88 63 bd ff 6d fb bc 64 22 54 bd d4 21 4a bc
       -0.05555031 -0.030692099 -0.05179061 -0.012337167
000070 04 ce eb bc 2c fa ee bd d7 be a6 bc f1 92 a5 3d
       -0.02878476 -0.1166881 -0.020354671 0.080846675
000080 81 62 04 bd e4 29 2e bd 2a 98 35 36 6c cc cb 3c
       -0.032320503 -0.04252042 2.7059673e-06 0.02487775
000090 a6 02 c2 bc 9d 2a 9b 3c 0d 02 05 3d bc 08 53 3d
       -0.023682903 0.018941218 0.03247266 0.051522
0000a0 0d 7e 15 bd 1e c0 45 bd f9 06 ae 3c 04 31 89 3c
       -0.036497165 -0.04827892 0.02124356 0.016747005
0000b0 85 4e 2f bc 46 fd 9c 3c ee a6 69 bc 69 22 62 3c
       -0.010699873 0.019163739 -0.014260991 0.013802149
0000c0 f3 c7 3d bc 50 b6 be bc 4d c5 4d bc d0 50 20 bc
       -0.011583316 -0.023280293 -0.012559247 -0.009784892
0000d0 fb 13 73 bd 5a 38 2f bc d8 af 12 3d 40 c1 04 bd
       -0.059345227 -0.010694588 0.03581223 -0.03241086
0000e0 d9 96 4d 3c 61 b9 62 bc 5d 69 f7 3b b7 c9 af bc
       0.012548172 -0.013838143 0.007550402 -0.02145849
0000f0 d3 c4 52 bc cb 1e 00 38 d1 60 da bc de 89 2f bd
       -0.012864309 3.0546256e-05 -0.026657494 -0.04285609
000100 f7 f7 4a 3d c0 c4 97 bc 01 68 e6 bc 5e 34 dc bb
       0.049552884 -0.018526435 -0.028125765 -0.00672011
000110 61 1a 26 3a aa 9b 15 bb 4e 8c 88 bc 5d c5 f1 bc
       0.0006336328 -0.0022828379 -0.016668465 -0.029513055
000120 a6 be 72 bb 13 1b ad 3d c1 2a 02 bd d2 00 03 bd
       -0.0037039905 0.084524296 -0.031779055 -0.031983204
000130 20 f5 cc bc 6a 63 ed bb 9d fa 3f bc f0 1b d9 bb
       -0.025019228 -0.007244517 -0.011717466 -0.006625645
000140 02 be 05 3c fc da 7c 3d 75 9f 2e 3c 3c ee 92 3d
       0.008162977 0.061732277 0.010658135 0.07174346
000150 72 fa 15 3d 01 b2 aa 3d 54 a2 0e 3d 7e 29 97 bd
       0.036615796 0.08334733 0.034822777 -0.07380961
000160 1a 61 85 3c 88 58 4b bd dd c6 67 bd 31 76 d7 bc
       0.016281653 -0.049644977 -0.056586135 -0.026301475
000170 ad 4a 5b 3d 7f 37 51 3d 48 1c 99 bc 1d c0 54 bc
       0.053538013 0.051078316 -0.018690243 -0.0129852565
000180 f5 94 08 3d ab a7 a8 bd bc f1 13 3d 53 0b a7 bc
       0.03334518 -0.08235105 0.036119208 -0.020391142
000190 1a a3 6a 3c 7f e9 06 3c c1 fc 97 3c b4 6d 32 3d
       0.014321113 0.008234381 0.01855314 0.043561652
0001a0 14 f9 3e bb 73 ce fe bc 17 36 22 bb 48 44 32 3c
       -0.0029140161 -0.031104302 -0.0024751478 0.010880537
0001b0 ec 04 fd 3b 13 73 63 3d bb 59 83 bd c6 55 43 3c
       0.007721534 0.055529665 -0.06413599 0.011922305
0001c0 34 d5 68 bd d8 1e 04 bd fe 80 ac bc 98 27 4d 3b
       -0.05684395 -0.032255977 -0.021057602 0.0031304117
0001d0 0f 84 69 bd 9f 2d d3 bb f1 36 16 3c d4 05 19 bd
       -0.057010707 -0.0064446474 0.0091683725 -0.037359074
0001e0 ff 1e 21 bd b2 84 10 3d e1 54 24 bc 31 d9 02 3d
       -0.0393362 0.035282798 -0.010030002 0.03194541
0001f0 aa 11 ff 3c 75 63 7b 3c 70 5b be bd b1 a2 a9 3c
       0.031136353 0.015343537 -0.09294784 0.02070746
000200 3a 75 bd bc e3 8e 18 3d e1 c9 3a bd 08 7a a6 bc
       -0.023127187 0.037245642 -0.045602683 -0.02032186
000210 4d 73 32 3c 0e c8 ac bb d0 5a fd 3c 0d f6 d2 3c
       0.010891748 -0.005272872 0.030927092 0.025752092
000220 7f ef eb bc 25 92 2c 3a 76 29 69 3d 55 78 af bc
       -0.028800724 0.00065830565 0.056924306 -0.021419683
000230 0d 2d c2 3c fb 5e 25 3d 74 1b 19 bd fd e5 c2 3b
       0.023703123 0.040373784 -0.037379697 0.005947827
000240 35 21 05 3d 83 73 cc 3b f9 68 fb bb fe 25 2c bc
       0.03250237 0.006239356 -0.007672426 -0.010507105
000250 15 c6 66 bc ca e5 16 bc f7 66 6d 3d aa b2 6d 3d
       -0.014085312 -0.009210059 0.057959523 0.058031715
000260 61 13 93 3c c7 11 14 3d 96 4e a4 3d f0 40 31 bb
       0.017953577 0.036149766 0.080228016 -0.0027046762
000270 10 15 b6 bc 37 17 d8 bb f7 80 00 3d 39 5b 1f 3d
       -0.02222684 -0.0065945643 0.03137299 0.038905356
000280 85 05 6c 3d 97 36 2a 3d db 0d 0b 3d 2a b1 19 3b
       0.05762245 0.041555967 0.03394876 0.0023451545
000290 1f 40 00 bd a2 d8 34 3d 3c f4 25 bb 60 cb b7 bd
       -0.03131115 0.04415191 -0.0025322577 -0.089743376
0002a0 40 69 ae bc 9f 93 fa 3c 7e cb 19 bd 91 66 8c bc
       -0.021290421 0.03058797 -0.03754758 -0.017138751
0002b0 3a 43 80 bc 28 f4 90 3c 72 d8 b0 bc 23 5e d2 3c
       -0.015657056 0.017694548 -0.021587584 0.025679654
0002c0 f7 47 1e bc 50 a4 74 3b 1b a4 a5 3b 14 9d bb bd
       -0.009660712 0.0037329383 0.0050549633 -0.0916082
0002d0 6d 5c de 3c c2 04 12 bd 91 5d 8e 3d 47 f0 6d 3d
       0.027143681 -0.03564907 0.0695144 0.058090474
0002e0 fa 63 fa 3c 75 35 4a bd a8 6e 7c 3c e4 26 72 3d
       0.03056525 -0.049367387 0.015407242 0.05911912
0002f0 2d 83 d5 bc 80 67 76 bc 43 47 6c 3c 80 62 41 3c
       -0.026063526 -0.015039325 0.014421287 0.011803269
000300 fc 6e c4 3c 00 f0 2c bc 2f f3 9f 3a 8c 73 5a bc
       0.023978703 -0.010555267 0.0012203212 -0.013333213
000310 27 75 78 bc 7e f7 0c bd 6c be 99 3c 87 44 f6 bb
       -0.01516465 -0.034415714 0.018767558 -0.0075154933
000320 66 37 8f 3c 19 f9 ff 3c ea 7e 82 3d a5 87 36 3d
       0.01748247 0.031246709 0.06371863 0.044562954
000330 4f 1f 49 3d 38 7d da 3a a6 21 25 3d 89 14 1f bd
       0.049102124 0.0016669398 0.040315293 -0.038837943
000340 f9 81 bd 3c 69 64 02 3d d7 a0 aa bd bb b1 15 ba
       0.023133265 0.03183404 -0.08331459 -0.0005710383
000350 1d 52 10 bd 25 60 ed 3c b6 ee 31 39 a0 2a aa 3d
       -0.03523456 0.02897651 0.00016968962 0.08308911
000360 1e 2b 3e bc c6 08 83 bc d7 be d2 ba ee 9b 85 3c
       -0.01160696 -0.015995394 -0.0016078603 0.016309705
000370 83 ec ec 3c 5a 2a e3 3c 5c b1 9c 3d b4 57 35 3d
       0.028921371 0.027730156 0.07651016 0.044273093
000380 96 ef 2d ba 41 c0 29 bd e1 f0 13 bd 8d 2e 3c 3d
       -0.00066351274 -0.041443113 -0.036118392 0.04594283
000390 d3 3d 7b 3d ba af ab 3c 36 bb f6 3c 66 d6 8d 3c
       0.061338257 0.020957816 0.030118566 0.017314147
0003a0 a4 e8 30 3c b1 90 01 bd 55 b8 d3 3c f2 f9 1d 3d
       0.010797653 -0.03163213 0.025844732 0.038568445
0003b0 12 25 e8 3c a6 24 92 bc ab 00 00 bc ef 09 95 bd
       0.028337989 -0.017839741 -0.007812659 -0.07277285
0003c0 8c 7a f1 3c f9 5a 31 3d 6b 5b d5 bb 2d 35 59 3c
       0.02947738 0.04329965 -0.006511142 0.013257307
0003d0 fe 89 c0 bb e1 62 f0 b8 9a a3 6f bd 8f 1f 79 bc
       -0.005875825 -0.000114625094 -0.058505632 -0.015205278
0003e0 33 db f8 bc 88 02 20 3c 35 e9 62 3d 5d 0c 90 bc
       -0.03037796 0.0097662285 0.055398185 -0.01758402
0003f0 7d 61 c8 bb 31 f8 82 bc 81 41 e6 bb 50 e3 f2 bc
       -0.006115137 -0.015987488 -0.0070268516 -0.029649407
