dataset/US-11666327-B2/US-11666327-B2_claim_emb.npy (npy, 40064 bytes, 1 tensors)

array f4 [13, 768]
-0.0648375 -0.035498243 -0.0029705511 -0.030984169 -0.01448399 0.0062160846 0.06915433 -0.0039247037
-0.047007274 0.06772679 0.009883332 0.041067988 0.028411454 3.236457e-05 -0.0002118807 -0.02720846
0.019986158 0.043915145 0.026363228 -0.011463604 -0.021394739 0.02890115 -0.017098818 0.03279396
-0.06003236 -0.032197315 -0.07727993 0.0022564863 -0.038991947 -0.09811742 -0.017332599 0.07879401
-0.042796783 -0.031440023 2.7444155e-06 0.0030669447 -0.050833374 0.026139947 0.035067655 0.058246624
-0.021113852 -0.023769893 0.013930793 -0.006326289 -0.029580412 -0.0006395699 0.01529276 0.03649813
0.023157366 -0.022746805 -0.01663026 -0.012714271 -0.07834799 -0.013522587 0.04540445 -0.040362984
0.032929722 0.0026625907 0.033223245 -0.017778175 -0.034178745 0.02841672 -0.016995963 -0.024829231
0.042636313 -0.020832289 -0.022477144 -0.018599652 0.03142166 0.0120047275 -0.013706018 -0.011527703
0.007073809 0.09636404 -0.037679903 -0.0501996 -0.030842321 0.0045168856 -0.0142101515 -0.0055594337
-0.011165832 0.04174625 0.012945217 0.045199245 0.057216395 0.08095126 0.012955866 -0.07213394
-0.006662276 -0.06366598 -0.065112256 -0.0029846851 0.04809829 0.02074502 -0.020850135 0.0021385092
0.019076737 -0.10328217 0.022772599 -0.0039921803 0.033594597 -0.0014235856 0.009201848 0.041459125
-0.012418143 -0.03890059 -0.022086939 0.02969174 0.014117587 0.06281429 -0.078263626 0.011250909
-0.061301667 -0.03692324 -0.019502748 0.01813336 -0.061365936 0.0028432382 0.018935552 -0.033906016
-0.04311598 0.04452375 -0.006035034 0.020118207 0.040303152 0.0010915415 -0.10359187 0.035879806
-0.0072797155 0.034263518 -0.02185221 -0.024655499 0.021792896 0.000946871 0.008892761 0.022310529
-0.012789065 -0.0057754666 0.048176575 -0.05342519 0.029051602 0.05429379 -0.0615184 -0.015501397
0.007792061 -0.016551964 -0.0051377667 -0.036139533 -0.005048493 -0.008887205 0.044967905 0.080666065
-0.007594056 0.037667006 0.057853457 0.005565592 -0.028305259 -0.009077387 0.00043267716 0.0058708326
0.047722843 0.0328322 0.02805377 -0.007695191 -0.017464343 0.017808853 0.004426282 -0.10042873
-0.016364297 0.02155994 -0.03339711 -0.008023824 -0.0056838915 0.0071626967 -0.00080865016 0.042899482
-0.0094740465 0.009690649 -0.007096478 -0.07010522 0.025082784 -0.01988084 0.068242565 0.06228305
0.035712115 -0.059068084 0.012762113 0.04973481 -0.018633056 -0.015202123 0.019348908 0.021224404
0.03936234 -0.021183174 0.014914991 -0.016854964 -0.005665463 -0.045522045 0.034129813 0.0225887
-0.018766327 0.05593193 0.064773135 0.005374153 0.038303472 0.0025105732 0.050488703 -0.06859126
0.025051229 0.058274258 -0.07238972 -0.002589679 -0.021930804 0.039102934 0.0077825566 0.08948034
-0.0051722815 0.0056983745 0.00012585489 0.0118561685 0.015536933 0.02718079 0.045413274 0.03063416
0.025625901 -0.061018348 -0.015011018 0.032460965 0.06464723 0.005957844 0.023815723 0.012508591
0.0020194547 -0.02245726 -0.024698876 0.027443899 0.036121514 -0.0036485107 -0.0137296505 -0.064939894
0.029387524 0.011211983 -0.0010814603 0.023652308 0.017957736 -0.009559865 -0.041990105 -0.012657545
-0.03229617 -0.008183499 0.059237853 -0.04255284 -0.010631987 -0.024238873 -0.00910194 -0.021284677
00000000: 86c9 84bd 9b66 11bd 94ad 42bb 83d2 fdbc
00000010: 424e 6dbc 4cb0 cb3b c9a0 8d3d cd9a 80bb
00000020: b38a 40bd 58b4 8a3d b3ed 213c e836 283d
00000030: 23bf e83c 31bf 0738 4b2c 5eb9 47e4 debc
00000040: 03ba a33c 5ee0 333d b2f7 d73c d7d1 3bbc
00000050: 0544 afbc 1bc2 ec3c d212 8cbc f652 063d
00000060: 7ee4 75bd 55e1 03bd f144 9ebd 8fe1 133b
00000070: 05b6 1fbd c9f1 c8bd 18fd 8dbc c15e a13d
00000080: ae4b 2fbd 41c7 00bd b32c 3836 cbfe 483b
00000090: a836 50bd 7123 d63c 1aa3 0f3d 0394 6e3d
000000a0: f5f6 acbc 14b9 c2bc fb3d 643c c24c cfbb
000000b0: 9f52 f2bc cfa8 27ba 7c8e 7a3c 107f 153d
000000c0: 84b4 bd3c 8257 babc 2f3c 88bc 854f 50bc
000000d0: e974 a0bd d78d 5dbc 04fa 393d a853 25bd
000000e0: 51e1 063d dc7e 2e3b 1915 083d 89a3 91bc
000000f0: 03ff 0bbd 2eca e83c 1e3b 8bbc ac66 cbbc
00000100: 6aa3 2e3d 7aa8 aabc fd21 b8bc 4c5e 98bc
00000110: 00b4 003d 7aaf 443c 358f 60bc b1de 3cbc
00000120: 69cb e73b 835a c53d 3e56 1abd 199e 4dbd
00000130: 09a9 fcbc 6202 943b b2d1 68bc e92b b6bb
00000140: e5f0 36bc 1efe 2a3d 2d18 543c d822 393d
00000150: bd5b 6a3d c6c9 a53d d744 543c f6ba 93bd
00000160: 394f dabb 4f63 82bd 9359 85bd b59a 43bb
00000170: b602 453d 76f1 a93c e7cd aabc 3b26 0c3b
00000180: d146 9c3c 9a85 d3bd 9a8d ba3c d6d0 82bb
00000190: 7d9a 093d 9b97 baba 59c3 163c 0bd1 293d
000001a0: 7875 4bbc 3a56 1fbd abef b4bc 183c f33c
000001b0: 744d 673c c7a4 803d ae48 a0bd bc55 383c
000001c0: 7517 7bbd d33c 17bd 3ac4 9fbc 6a8c 943c
000001d0: d95a 7bbd 9f55 3a3b bb1e 9b3c 09e1 0abd
000001e0: 629a 30bd 895e 363d 89c1 c5bb f0ce a43c
000001f0: eb14 253d 0e12 8f3a f927 d4bd b4f6 123d
00000200: ae8a eebb e757 0c3d 6803 b3bc 54fa c9bc
00000210: 0487 b23c 7037 783a f1b2 113c 92c4 b63c
00000220: 3a89 51bc 2040 bdbb cd54 453d 5fd4 5abd
00000230: a0fd ed3c 2a63 5e3d b8fa 7bbd 92f9 7dbc
00000240: 8c54 ff3b fc97 87bc b65a a8bb 0c07 14bd
00000250: d46d a5bb a49b 11bc 4430 383d 4034 a53d
00000260: 8fd7 f8bb b848 1a3d bff7 6c3d 925f b63b
00000270: 6ee0 e7bc 52b9 14bc f2d8 e239 1d60 c03b
00000280: 0779 433d 0f7b 063d 05d1 e53c f127 fcbb
00000290: 6211 8fbc dfe3 913c 580a 913b 94ad cdbd
000002a0: 6b0e 86bc 799e b03c 68cb 08bd 5b76 03bc
000002b0: f03f babb 0eb5 ea3b 98fb 53ba 5eb7 2f3d
000002c0: 0839 1bbc 87c5 1e3c 9289 e8bb 5393 8fbd
000002d0: 697a cd3c 25dd a2bc c2c2 8b3d 831c 7f3d
000002e0: de46 123d 60f1 71bd 2e18 513c bab6 4b3d
000002f0: 5aa4 98bc 5312 79bc 9a81 9e3c cdde ad3c
00000300: 683a 213d 5688 adbc 025e 743c 6c13 8abc
00000310: 59a5 b9bb 5375 3abd b4cb 0b3d f00b b93c
00000320: d7bb 99bc e118 653d c7a7 843d aa19 b03b
00000330: 1ae4 1c3d 6e88 243b 3ecd 4e3d 9379 8cbd
00000340: 3c38 cd3c fdb0 6e3d 1041 94bd 9bb7 29bb
00000350: 3ba8 b3bc 662a 203d d104 ff3b 7841 b73d
00000360: 3e7c a9bb 6eb9 ba3b eaf7 0339 6040 423c
00000370: 9f8e 7e3c 40aa de3c 4503 3a3d 7df4 fa3c
00000380: 69ed d13c 60ee 79bd c6f0 75bc caf5 043d
00000390: c465 843d 053a c33b 3119 c33c d5f0 4c3c
000003a0: d458 043b 4af8 b7bc 4c55 cabc 07d2 e03c
000003b0: 27f4 133d da1b 6fbb 54f2 60bc 35ff 84bd
000003c0: 1bbe f03c 77b2 373c c9bf 8dba 7cc2 c13c
000003d0: 1a1c 933c fba0 1cbc d1fd 2bbd 9761 4fbc
000003e0: fd48 04bd 1514 06bc 64a3 723d e34b 2ebd
000003f0: c931 2ebc 9a90 c6bc 4e20 15bc 345d aebc
