dataset/US-11295146-B2/US-11295146-B2_claim_emb.npy (npy, 61568 bytes, 1 tensors)

array f4 [20, 768]
00000000: 4034 39bd 0205 e4bc 2310 b9bb 1a07 9dbc
00000010: d35a 9fbb 4195 92bc c0ff 4c3d cf83 1e3c
00000020: 3881 24bd 41c2 843d 6692 47bc 5698 2b3d
00000030: dd26 8d3c b33d d13b 8d1e cfbb 3b4e edbc
00000040: 02b0 063d 86f6 c73c f711 be3c b02e 05bc
00000050: 6f09 3ebc c2cd 003a 6478 1bbc 5e72 193d
00000060: ecb6 8bbd e2d4 02bd 3831 82bd fa87 a1bc
00000070: 67d3 1ebd e39c dfbd 0d6a 64bb 5bb7 b33d
00000080: 2883 9bbc 6112 f7bc 446c 3436 315f 8c3c
00000090: 92cb 70bc c016 813c b780 c53c 696f 7a3d
000000a0: 967a 53bd 1b52 8fbd e640 743c c32d 7abb
000000b0: 3353 b9bc b688 81ba b2da 873c 5be0 c43c
000000c0: 06f3 813c 7b93 16bd 8d23 3dbc 71c8 c8ba
000000d0: 2d46 8cbd 409d aabc 7814 693d 1dc3 c1bc
000000e0: 19e0 803c 73e3 e9bc a440 c93c 0bec bebc
000000f0: 801a 98bc dc33 47bc 6cc0 a0bc 0a97 37bd
00000100: cbef 303d 8c8f bbbc 0405 24bd 6155 47bc
00000110: 1474 0c3c 5c16 523c 6cba 7fba ed7b c1bc
00000120: d261 59bc cb22 c73d cc08 3ebd b8e3 12bd
00000130: 6ef7 a1bc c0bc ccbb 0883 81bb 0a68 a5bc
00000140: 971b 823c 4b82 263d 46ac 843a 71fc 803d
00000150: 2472 4e3d e05f c93d 3b1d df3c 1cf0 83bd
00000160: 5e77 91bb 8969 f9bc 4205 28bd 96f6 d9bc
00000170: 3452 593d c690 513d 6364 8cbc c48e c43b
00000180: c8f5 ee3c 8ace c4bd f8be 9b3c ae2e 8cbc
00000190: 0dd5 673c 3be5 14bb 9da3 9c3c 297d 283d
000001a0: dbfd afbc 3c2a 46bd 808c 8f3a e8ac 173d
000001b0: e102 39bb dd5a 933d f8c2 62bd 465b a4ba
000001c0: 9ebc 6abd ca1d 6dbd 60e9 95bc b974 fd3b
000001d0: cd0d 6fbd c419 383c e727 003c cbca f6bc
000001e0: b86d dbbc 0752 3a3d 05fd 18bc 9432 003d
000001f0: 40e2 f73c 5949 fd3b a408 cebd 3b6a 213c
00000200: af4e aabc ec89 473d 5454 32bd a096 16bd
00000210: e759 353b 4b5f 873a a174 dd3c 1ca4 153d
00000220: 40f8 b8bc e54f 923b 7157 0d3d 2b02 eabc
00000230: d213 823c 789d 1c3d 4dfe 8bbc 00ed c2bb
00000240: d7d2 883c ddf5 0b3a ce9b c6ba 727e ca39
00000250: ba3c e1bb 3b0a 82bc ba4b 433d f129 483d
00000260: ea38 d5bb 03aa 353d 102c 723d 9623 d1ba
00000270: c8e6 4ebc 221a ef3b df45 1f3d 1d5c ce3c
00000280: 5b9c 773d e286 2d3d a612 f93c 4f9d b53b
00000290: bc91 a8bc 2c8f f03c e542 27bb 7094 d9bd
000002a0: a8f8 d8bb 6640 b93c 19e3 f9bb 9d00 81bc
000002b0: 6bdc 45bc a605 1a3b f287 56bc dfd6 673d
000002c0: 4e10 6cbc 3122 9f3b 6194 223b 5904 a2bd
000002d0: 319e 0b3d 612d 9fbc 357e 7a3d 88bd 623d
000002e0: 4f59 853d f983 37bd 56d9 503c 0dfd 6a3d
000002f0: 8d77 26bd 1360 6b3b 7814 fb3a c33c 4f3c
00000300: b6aa 393d 8d11 7abc 946d 11bc f157 d0bc
00000310: 21d6 a8ba 850f b9bc 1ee4 ff3c cd55 29bb
00000320: e537 4bba 6b00 d13c 441e a63d 9d0d 3d3d
00000330: 677c d93c 3092 173b 5742 653d f6f0 15bd
00000340: e21e fe3c 3ef2 1e3d f184 90bd 2b2d bbbc
00000350: acfa d9bc fc25 543d 5215 04bc eac0 e33d
00000360: ceca c0bb a171 e3bb 6e22 80bc 461d bcbb
00000370: 35a3 cd3c 1c6b db3c d042 843d ad60 083d
00000380: 3a39 53bc cfd4 6dbd 3e65 30bd 865c 333d
00000390: 9cf5 5f3d bedd a83c 341f f03c e65d 693c
000003a0: 9d98 853a 4968 c6bc 4e57 ce3c ee16 c73c
000003b0: 5102 353d 0dfd 53bc 4dbe 5fbc 0bc1 43bd
000003c0: a6fa b33c 2f49 463d 6cc9 1ebc 5130 ae3c
000003d0: ea18 b33c b74e 42bb 68e7 38bd 2fc1 aabb
000003e0: 7c77 28bd 87ee de3b 2fdf 7a3d 6d06 c4bc
000003f0: 929a b9bc 4a20 2d3a 488a 473c a35d 23bd
-0.045215845 -0.02783442 -0.0056476756 -0.019168425 -0.004863122 -0.017893435 0.05004859 0.00967498
-0.040162295 0.064823635 -0.0121809 0.041893326 0.017230446 0.006385529 -0.0063207806 -0.028967967
0.032882698 0.024409544 0.023201926 -0.008128807 -0.011598929 0.0004913473 -0.009489153 0.037462585
-0.06821999 -0.031941302 -0.06357044 -0.019718159 -0.038775828 -0.10918596 -0.003485325 0.08775207
-0.018983439 -0.030160131 2.688511e-06 0.017135235 -0.014696972 0.015757918 0.024109228 0.061141405
-0.05163058 -0.06998082 0.014908051 -0.0038174249 -0.02262268 -0.0009882662 0.016583774 0.024032762
0.015862953 -0.036761742 -0.0115441205 -0.0015318525 -0.068493225 -0.020826936 0.056904286 -0.023652608
0.015731858 -0.028550839 0.024566956 -0.023305913 -0.018567324 -0.01215836 -0.019623004 -0.044821776
0.043197434 -0.022895597 -0.040043846 -0.012166352 0.008572597 0.012822714 -0.0009755257 -0.023618663
-0.013267951 0.09723433 -0.046395108 -0.0358617 -0.019771304 -0.0062480867 -0.0039523877 -0.020191211
0.015882296 0.0406516 0.0010122142 0.062981494 0.05040182 0.0983274 0.027235618 -0.064422816
-0.0044392785 -0.03044583 -0.04102064 -0.02660684 0.05305691 0.051163457 -0.017137712 0.0059984643
0.029169932 -0.09609707 0.01901196 -0.017112102 0.014149916 -0.002271964 0.019120986 0.041134987
-0.021483352 -0.04838012 0.0010951906 0.03703013 -0.0028230476 0.07195065 -0.055361718 -0.0012539409
-0.057308786 -0.057889737 -0.018299758 0.0077348617 -0.05836277 0.011236612 0.007822013 -0.030125996
-0.026785716 0.045488384 -0.009337668 0.031298235 0.030259252 0.007729691 -0.10060242 0.0098519875
-0.020789472 0.048715517 -0.043537453 -0.03676474 0.0027671994 0.0010328082 0.027033152 0.03653346
-0.022579312 0.0044650906 0.03450722 -0.028565487 0.015878592 0.03823611 -0.017089033 -0.0059486628
0.016702099 0.00053390657 -0.0015152635 0.00038622651 -0.0068736942 -0.015874019 0.04767964 0.048868123
-0.006507029 0.04435159 0.059124053 -0.001595604 -0.012628265 0.0072968164 0.038884994 0.025190407
0.060451847 0.042364962 0.0304044 0.0055424343 -0.020577304 0.029365145 -0.002552205 -0.10624015
-0.006621439 0.022613715 -0.007625949 -0.015747363 -0.0120764775 0.0023501902 -0.013093935 0.0566014
-0.014408184 0.004856371 0.002480768 -0.079109855 0.03408641 -0.019430818 0.061155517 0.055356532
0.06511175 -0.044803593 0.012747129 0.057370234 -0.040641356 0.003591542 0.001915588 0.012648764
0.04532882 -0.0152629735 -0.008876223 -0.025432559 -0.0012881198 -0.022590408 0.031236704 -0.0025838495
-0.00077521644 0.025512895 0.081112415 0.04615556 0.026548577 0.0023127906 0.05597147 -0.03660675
0.031020585 0.03880524 -0.070566066 -0.022848686 -0.026608787 0.051794037 -0.008061724 0.1112078
-0.005883551 -0.006941036 -0.015641417 -0.0057407944 0.025102237 0.026784472 0.06458056 0.033295322
-0.012892062 -0.05806428 -0.043065302 0.04378941 0.05467759 0.020613547 0.029311754 0.014243579
0.0010192577 -0.024219649 0.025188114 0.024302926 0.044191662 -0.01293875 -0.013656211 -0.047791522
0.021970104 0.048409637 -0.009691577 0.021263273 0.021862466 -0.0029648968 -0.04514256 -0.0052110176
-0.041129574 0.006803337 0.061248 -0.023928845 -0.022656713 0.0006604238 0.012178965 -0.03988422
